weights/conv_7x7_64.pth (torch, 440538 bytes, 73 tensors)

conv_in.weight f4 [64, 13, 7, 7]
0	0x3d973080	0.073822975
1	0x3d656ec3	0.056013834
2	0x3db6fb36	0.089346334
3	0xbceb959e	-0.028757866
4	0x3d809e2a	0.062801674
5	0x3d66732f	0.05626219
6	0x3d9688f1	0.07350338
7	0xbceeccee	-0.029150452
8	0x3bf801b1	0.007568561
9	0xbe11e974	-0.14249212
10	0xbd23f414	-0.040027693
11	0xbd94b241	-0.07260562
12	0x3d46e9a8	0.048562676
13	0xbbec7ea0	-0.0072172433
14	0xbde001f7	-0.10937875
15	0x3dd004f6	0.10157196
16	0x3c864ea3	0.016394919
17	0x3e6693f5	0.22517379
18	0xbe125e71	-0.14293839
19	0xbde21664	-0.11039427
20	0x3ca325e5	0.01991553
21	0xbdf03067	-0.11727982
22	0x3c067a81	0.008207918
23	0x3f023f6c	0.50878024
24	0xbeddb429	-0.43301514
25	0x3e610641	0.21975042
26	0xbe0b50e4	-0.13605076
27	0xbd18d648	-0.03731373
28	0x3c155168	0.009113647
29	0x3c92dd77	0.017927868
30	0xbe16cf7b	-0.14727585
31	0x3cc9c6a9	0.024630861
32	0x3d4568e8	0.04819575
33	0xbc5971e8	-0.013271786
34	0x3db26433	0.08710518
35	0x3d03d445	0.032184858
36	0xbcaf0970	-0.021366805
37	0x3c25958b	0.010106455
38	0xbdc0d601	-0.09415818
39	0x3cc369e5	0.023854205
40	0x3d8177fe	0.06321715
41	0xbc92209d	-0.017837817
42	0xbc32a4f2	-0.010903584
43	0x3d533db9	0.051572535
44	0x3d3867e9	0.04502097
45	0xbc63ee18	-0.013911746
46	0x3be2376b	0.006903579
47	0x3ce0f22e	0.02745923
48	0x3cee0c4e	0.029058602
49	0xbab3fada	-0.0013731376
50	0xbc1b6260	-0.009483904
51	0x3ad860f7	0.001650839
52	0x3c1b2c4b	0.0094710095
53	0x3cfb8246	0.030701768
54	0xbc6a9d92	-0.014319794
55	0x3c930c4a	0.017950196
56	0xbc6b30ca	-0.014354894
57	0x3cff3605	0.031153688
58	0x3cb721f6	0.022355061
59	0x3df6e9d8	0.12056321
60	0x3cff0b7d	0.031133408
61	0x3d77535a	0.060382225
62	0x3cd06bcf	0.025442032
63	0xbd6fb5fc	-0.058523163
64	0x3d46ff7d	0.048583496
65	0x3d9d1247	0.07669502
66	0x3e80037c	0.25002658
67	0xbb23aff4	-0.0024976702
68	0xbc199039	-0.009372764
69	0x3d0036a1	0.0313021
70	0xbc511d9d	-0.012763408
71	0x3d4b5c53	0.049648594
72	0x3e971dd5	0.29514948
73	0xbe10fd08	-0.14159024
74	0x3d85138b	0.06497868
75	0x3cd194d9	0.025583671
76	0x3d872814	0.06599441
77	0x3d3f1448	0.0466502
78	0x3d12e77d	0.035865296
79	0xbe5e3f0c	-0.21703738
80	0x3d97e11e	0.074159846
81	0x3d4fffac	0.050780937
82	0x3ca17eb8	0.019713745
83	0x3ca1b0b3	0.019737577
84	0x3d982829	0.07429535
85	0x3d231837	0.039818015
86	0xbb459898	-0.0030150767
87	0x3b6f9912	0.0036559743
88	0x3c08932d	0.008335871
89	0x3cfedde4	0.031111665
90	0x3d6a5196	0.057206713
91	0x3d9110cd	0.070832826
92	0x3d73163c	0.059347376
93	0x3ccc755c	0.024958305
94	0x3c6adb04	0.014334444
95	0xbb900f14	-0.0043963287
96	0x3c879cd8	0.016554281
97	0x3c31a3d7	0.010842285
98	0xb9eac661	-0.00044779762
99	0x3db123e8	0.08649427
100	0xbbd5b7dd	-0.0065221624
101	0xbca206e2	-0.019778673
102	0x3cb1b238	0.021691427
103	0x3cb1a41a	0.021684695
104	0x3d541a82	0.051783092
105	0xbc34a041	-0.011024536
106	0xbc682b1c	-0.014170434
107	0x3bda4caf	0.0066619734
108	0xbccde669	-0.025134282
109	0xbce8cfdb	-0.028419426
110	0xbb208c9d	-0.0024497875
111	0x3d2fbeb5	0.04290648
112	0x3d837d27	0.06420355
113	0x3c6d016a	0.014465669
114	0x3c87f86b	0.016597947
115	0x3d1f5f70	0.038909376
116	0xbb0cd4ad	-0.002148907
117	0x3cfee28e	0.031113889
118	0x3d1a3f68	0.037658125
119	0xbc8fe337	-0.0175644
120	0x3da28435	0.07935373
121	0x3e0cfa5e	0.13767383
122	0x3deaa000	0.11456299
123	0xbc77144c	-0.015080523
124	0x3d4733ac	0.048633263
125	0x3c9bc7b1	0.019016119
126	0x3c979d07	0.018507494
127	0xbc4a8a9c	-0.012362149
128	0xbe2c85b3	-0.16847877
129	0x3d8188b1	0.063249
130	0x3a37c4ce	0.0007010222
131	0x3d232415	0.039829332
132	0x396131cd	0.00021476224
133	0x3d8b9a17	0.068165
134	0x3cf8286a	0.030292708
135	0xbb00b0c8	-0.001963662
136	0x3da69a32	0.08134879
137	0xbc4a687b	-0.012354012
138	0xbca69b59	-0.020337747
139	0x3cca8389	0.024720924
140	0xbd0ff3d3	-0.03514464
141	0x3d5230f6	0.051316224
142	0x3d9363c6	0.07196765
143	0x3c638345	0.013886278
144	0x3cc4bcf8	0.024015889
145	0xbd18938d	-0.03725009
146	0xbd037fec	-0.032104418
147	0x3d48cd15	0.049023706
148	0x3c32f08d	0.01092161
149	0x3bce6772	0.0062989527
150	0x3d39a7da	0.04532609
151	0xbd3eddd8	-0.046598285
152	0xbc989fdb	-0.018630913
153	0x3cb3869f	0.021914778
154	0xbd53f568	-0.05174771
155	0x3c72e438	0.014824919
156	0xbce49ac2	-0.027905826
157	0x3c76f498	0.015072964
158	0xbc49874d	-0.012300325
159	0x3d33476f	0.043769296
160	0x3caced07	0.021109117
161	0x3d607ef5	0.054808576
162	0xbd90c7a8	-0.070693314
163	0xbd2a20f2	-0.041535325
164	0xbde77e25	-0.11303357
165	0xbcaae75a	-0.02086227
166	0x3c9dd66c	0.019267283
167	0x3d968dd0	0.07351267
168	0x3d21f38c	0.039538905
169	0xbd820ead	-0.063504554
170	0xbd957382	-0.07297422
171	0x3ea8fec1	0.33006862
172	0xbde23bfd	-0.11046598
173	0x3db5d1b5	0.08877889
174	0xbba934f7	-0.0051637846
175	0x3d4692fc	0.04848002
176	0x3cf556e6	0.029948663
177	0xbe0054a5	-0.1253229
178	0xbd22ddaf	-0.039762195
179	0x3d60af96	0.05485495
180	0x3da827cf	0.08210718
181	0x3b0e333d	0.002169802
182	0x3cc24f7c	0.023719542
183	0x3c90360d	0.017603898
184	0xbc3d76e3	-0.011563989
185	0x3cebf467	0.028803064
186	0xbb8b64b9	-0.0042539504
187	0xbb98806b	-0.0046539805
188	0x3cad0dee	0.021124806
189	0x3d141a0f	0.036157664
190	0xbd7f02b0	-0.062258422
191	0x3d28e71a	0.04123602
192	0x3c207395	0.009793182
193	0x3b547c6d	0.0032422796
194	0x3c23c6e0	0.009996146
195	0x3d58ed08	0.052960426
196	0x3b5413d8	0.003236046
197	0x3d53c8c1	0.051705126
198	0x3d1a24c7	0.03763273
199	0x3d7dda23	0.06197561
200	0xbd987272	-0.07443704
201	0x3cd24840	0.025669217
202	0xb88525eb	-6.348997e-05
203	0x3d735f80	0.059417248
204	0x3bdcce06	0.006738427
205	0xba958a1e	-0.001140896
206	0xbcdd4f93	-0.027015483
207	0x3c97d92c	0.018536173
208	0xbd1487cd	-0.036262322
209	0xbc35bd26	-0.01109246
210	0x3d046022	0.032318242
211	0xbdf0e1dd	-0.1176183
212	0xbe3c5084	-0.1839009
213	0xbea24d4b	-0.31699595
214	0xbe1059b6	-0.14096722
215	0x3d699b9f	0.057033177
216	0x3d646116	0.05575665
217	0x3cb3671a	0.021899749
218	0xbe12e1a3	-0.14343886
219	0xbe3c7603	-0.18404393
220	0x3f11cba5	0.5695136
221	0xbe82206d	-0.25415364
222	0xbc0b4a44	-0.008501593
223	0x3c7b2f06	0.0153310355
224	0x3bf752e6	0.007547724
225	0x3d705bb5	0.05868121
226	0xbe0ade52	-0.13561371
227	0xbd5c9fa9	-0.0538632
228	0x3da35931	0.07975996
229	0x3da291e7	0.07937985
230	0x3bc862e3	0.006115304
231	0xbbac2370	-0.005253248
232	0xbd530b75	-0.0515246
233	0x3dd2b95c	0.10289261
234	0x3bd6d0d1	0.0065556546
235	0x3ba98735	0.0051735886
236	0x3d6c80e6	0.057740115
237	0x3d1a627f	0.03769159
238	0xba2cd767	-0.0006593377
239	0x3ce3a95f	0.027790723
240	0xbb8bbd77	-0.0042645293
241	0xbd993fa0	-0.07482839
242	0x3d0d60e0	0.034516215
243	0x3b0453dc	0.0020191586
244	0xbd2d14e8	-0.042256266
245	0x3c974f43	0.018470412
246	0xbd9d363d	-0.07676361
247	0x3da3831c	0.079839915
248	0x3d951fa9	0.07281429
249	0xbda01e0d	-0.07818232
250	0xbd0ffecd	-0.035155106
251	0xbd3ac644	-0.045599237
252	0x3d89da65	0.067311086
253	0x3cb478bb	0.022030225
254	0x3da28add	0.07936642
255	0xbdc59ed7	-0.09649437

conv_in.bias f4 [64]
0	0x3ee4fcb2	0.4472404
1	0x3d1c4bd0	0.038158238
2	0xbd0ea650	-0.034826577
3	0x3e35c29e	0.17750022
4	0x3f15f1b3	0.5857193
5	0x386f9894	5.712414e-05
6	0x3d727c91	0.059200827
7	0xbc13b3c7	-0.00901503
8	0xbd6339d3	-0.055475067
9	0xbdd0be86	-0.101925895
10	0xbced5471	-0.028970929
11	0x3df47502	0.1193638
12	0xbdc5e02c	-0.09661898
13	0xbce1ea56	-0.02757756
14	0xbe061991	-0.1309569
15	0x3d04c894	0.03241785
16	0x3c88dca6	0.016706776
17	0xbd21642d	-0.039402176
18	0xbe061643	-0.1309443
19	0xbd5e9efe	-0.054350846
20	0x3eb78b46	0.35848445
21	0x3dfa8963	0.12233236
22	0xbcda1477	-0.026621087
23	0x3dd3ba3d	0.103382565
24	0x3df30a62	0.11867215
25	0x3e809e19	0.2512062
26	0x3e82bd21	0.2553492
27	0x398e3017	0.0002712018
28	0xbdf06292	-0.11737551
29	0x3d80ac07	0.062828116
30	0xbdada0d2	-0.0847794
31	0xbe030e86	-0.12798509
32	0x3eacbd06	0.33737963
33	0x3ee3b8c0	0.4447689
34	0xbd575e08	-0.05257991
35	0xbd1ad3c7	-0.037799623
36	0x3d01f7c1	0.031730417
37	0x3cd803a2	0.02636892
38	0xbc291089	-0.010318884
39	0xbd77f792	-0.060538836
40	0xbcdc7444	-0.026910909
41	0x3e3cda3a	0.18442622
42	0xbad8603e	-0.0016508175
43	0x3eec62cc	0.46169126
44	0x3bd604f4	0.006531352
45	0x3e754222	0.23951009
46	0xbd25d006	-0.04048159
47	0xbd5bcd7a	-0.053662755
48	0x3e824d49	0.2544959
49	0x3bf72243	0.007541926
50	0xbdec59fd	-0.115406014
51	0x3eb58c11	0.35458425
52	0xbe46b106	-0.19403467
53	0x3ece84ca	0.40335685
54	0x3ea4198a	0.32050735
55	0x3e5a1799	0.21298064
56	0xbd190f3a	-0.037368037
57	0xbc976734	-0.018481828
58	0x3b9bef31	0.0047587384
59	0x3eb237a3	0.34808072
60	0x3e96ff71	0.2949176
61	0x3c72311f	0.014782219
62	0x3e72c5fd	0.23708339
63	0x3c080397	0.008301637

layers.0.conv_in.weight f4 [32, 64, 3, 3]
0	0x3e2aa1c9	0.16663279
1	0xbc718b17	-0.014742634
2	0xbdea810d	-0.11450396
3	0x3d9d6ad4	0.076863915
4	0x3d095b24	0.033534184
5	0x3d254663	0.04035033
6	0x3d087f30	0.03332442
7	0x3dcfce37	0.10146754
8	0xbdcee37d	-0.10101984
9	0x3d81d897	0.06340139
10	0x3becdc25	0.0072283917
11	0x3e3520f4	0.17688352
12	0xbd167a18	-0.03673753
13	0xbe3066e5	-0.17226751
14	0x3de86aff	0.11348533
15	0xbddb1104	-0.10696605
16	0x3dd16a8f	0.102254026
17	0x3de950e3	0.11392381
18	0x3d2c1d9f	0.042020436
19	0x3d8d4c5a	0.068993285
20	0xbe3bb01f	-0.18328904
21	0x3c1670cb	0.009182165
22	0xbd82775b	-0.063704215
23	0xbdb28e4b	-0.087185465
24	0x3db39e70	0.08770454
25	0xbda768b0	-0.081742644
26	0xbdc9127a	-0.09817977
27	0xbd707c7d	-0.05871247
28	0xb9ce90c3	-0.00039399238
29	0x3d3f9039	0.0467684
30	0xbd470a8f	-0.048594054
31	0x3dc58563	0.09644582
32	0x3cf557d5	0.029949108
33	0xbe4937fb	-0.19650261
34	0xbd559ce7	-0.052151587
35	0x3a58821c	0.0008259134
36	0xbca07c42	-0.0195905
37	0x3c288e2e	0.0102878045
38	0xbd9158c3	-0.07097008
39	0x3dbfd9fd	0.0936775
40	0x3daabe23	0.08337047
41	0xbc3bb65d	-0.011457053
42	0x3d5c66b9	0.0538089
43	0xbcf10df0	-0.029425591
44	0xbdeea4fa	-0.116525605
45	0xbd9a397a	-0.07530494
46	0x3db8f254	0.090305954
47	0x3dc4ecb8	0.09615463
48	0xbae3268f	-0.0017330217
49	0x3d880df0	0.06643283
50	0x3d5b1e65	0.053495783
51	0xbd1e5095	-0.038651068
52	0x3dc0d91c	0.0941641
53	0xbd55fd08	-0.052243263
54	0x3c8e87b7	0.017398698
55	0x3d6fabb1	0.058513347
56	0x3dc8f3e9	0.09812147
57	0x3d2d2f3a	0.042281367
58	0xbe310b40	-0.17289448
59	0x3dcf9aac	0.10136923
60	0x3d133fe5	0.035949606
61	0x3d7cb1a7	0.06169286
62	0x3dac007c	0.0839853
63	0x3e2a62c9	0.16639246
64	0x3e040be4	0.12895161
65	0x3dffdc0f	0.12493145
66	0x3e6ac8cd	0.22928162
67	0x3ddb361f	0.10703682
68	0x3dc61ff4	0.09674063
69	0x3e3c9c9a	0.18419114
70	0x3dd5243d	0.104073025
71	0x3de34594	0.11097255
72	0x3d6d5b41	0.057948355
73	0xbd54ddea	-0.051969446
74	0x3d856ae5	0.06514529
75	0xbdd78e29	-0.10525162
76	0x3d6c1cb3	0.057644557
77	0x3d0e64d9	0.034764145
78	0x3c1f6de7	0.009730793
79	0xbddff38f	-0.10935127
80	0xbd23d7d9	-0.04000077
81	0x3de747ee	0.112930164
82	0xbcd6d4d7	-0.026224537
83	0x3c6c7da4	0.014434252
84	0x3c05cf97	0.008167169
85	0x3d8b7714	0.06809822
86	0xbd866d3d	-0.06563804
87	0x3c09966f	0.008397683
88	0xbe02e5b1	-0.12782933
89	0x3d4e81e0	0.050416827
90	0x3d21b096	0.039475046
91	0x3c69ed9b	0.014277841
92	0xbd844902	-0.06459238
93	0xbdab2123	-0.0835593
94	0xbdac3e12	-0.084102765
95	0xbe30a6db	-0.1725115
96	0x3db5259d	0.08845065
97	0xbd550168	-0.052003294
98	0xbe05c547	-0.13063537
99	0xbc86da35	-0.016461471
100	0x3cec2a17	0.028828664
101	0x3d356f49	0.044295583
102	0xbdda6026	-0.1066287
103	0xbe810575	-0.25199476
104	0x3d3e59a1	0.046472196
105	0xbcab618e	-0.020920541
106	0xbd375ae7	-0.044764426
107	0x3e1e0022	0.15429738
108	0x3d007092	0.031357355
109	0x3cafd724	0.021464892
110	0x3d652fd6	0.055953823
111	0xbcdfe32c	-0.027330004
112	0x3d446d0a	0.04795555
113	0xbc37e5bb	-0.011224206
114	0x3d0c5df9	0.034269307
115	0x3df81ad8	0.12114495
116	0xbaad3614	-0.0013214969
117	0x3e4e171d	0.20126005
118	0x3e0f6785	0.14004333
119	0x3e14e321	0.14539768
120	0x3cd4f381	0.025995018
121	0xbcb8e336	-0.02256928
122	0x3dc65957	0.09685009
123	0xbd67c4a2	-0.056584008
124	0xbcca444a	-0.024690766
125	0xbd927642	-0.07151462
126	0x3dc99e64	0.09844664
127	0xbdf49c13	-0.11943831
128	0x3d0410dd	0.032242645
129	0xbcc8be00	-0.024504662
130	0x3b720741	0.0036930593
131	0xbcda396c	-0.026638709
132	0x3e40e708	0.18838131
133	0xba34c157	-0.0006895265
134	0x3d445000	0.047927856
135	0xbd6b9d0f	-0.05752283
136	0x3bd29245	0.006426128
137	0x3d2d2a59	0.042276714
138	0xbd742d68	-0.059613615
139	0xbed9a2fe	-0.42507166
140	0x3e63f984	0.22263151
141	0xbd7fdee2	-0.062468417
142	0xbc84e8dc	-0.016224317
143	0x3ceceeba	0.028922427
144	0x3d2b3872	0.041801877
145	0x3cd14c1b	0.025548985
146	0x3d5d16fc	0.053976998
147	0xbd5041d8	-0.050844043
148	0xbe7f106f	-0.24908613
149	0x3dd2b17a	0.10287757
150	0xbc0b1e38	-0.008491091
151	0xbe0d1bc3	-0.13780122
152	0x3de4ee60	0.11178279
153	0xbce73111	-0.028221639
154	0xbdf893ef	-0.12137591
155	0xbda6157e	-0.08109568
156	0xbc188ac4	-0.009310428
157	0xbd93bb4d	-0.07213459
158	0xbdcacb3a	-0.09902044
159	0x3dd1c772	0.10243119
160	0xbdbe4b8b	-0.092917524
161	0xbdf3821d	-0.118900515
162	0xbe4e2e3a	-0.20134822
163	0xbdb6a567	-0.08918267
164	0xbdc9e9f8	-0.09859079
165	0xbc95b9be	-0.018277045
166	0xbd75e60a	-0.060033835
167	0xbe35528a	-0.17707267
168	0xbd10e72c	-0.035376713
169	0xbc9c6aa4	-0.019093819
170	0x3cd0c6cf	0.025485424
171	0x3e0ac6ff	0.13552473
172	0x3bcd08dc	0.0062571596
173	0xbdfa9720	-0.12235856
174	0xbcccab6d	-0.024984086
175	0xbc284dd1	-0.010272459
176	0xbc30e412	-0.010796564
177	0xbb8b4583	-0.00425023
178	0x3cf29d55	0.029616037
179	0xbd42de63	-0.047575366
180	0x3c9c08b0	0.019047111
181	0x3ce215f2	0.027598355
182	0x3b8a24c1	0.004215807
183	0x3dc3e350	0.09564841
184	0xbdf5faf3	-0.120107554
185	0x3e294d09	0.16533293
186	0x3da67e39	0.08129544
187	0xbd945bde	-0.07244085
188	0xbc7713d0	-0.015080407
189	0xbc3d183b	-0.0115414215
190	0xbd5e1d29	-0.054227028
191	0xbce724f0	-0.028215855
192	0xbde1d574	-0.11027041
193	0xbe9ee630	-0.31034994
194	0xbd325a04	-0.043542877
195	0xbd9e9409	-0.07743079
196	0xbc7b389a	-0.015333319
197	0xbd810918	-0.063005626
198	0x3cce730e	0.025201347
199	0x3d9ee297	0.07758062
200	0x3d6d589a	0.057945825
201	0x3daa461e	0.08314155
202	0xbd234214	-0.03985794
203	0xbdcf5333	-0.10123291
204	0x3bfc3630	0.0076968893
205	0xbd44158e	-0.04787212
206	0xbcb25add	-0.021771843
207	0x3d0ecc76	0.034862958
208	0xbccda0f2	-0.025101159
209	0x3d92a2e5	0.07159976
210	0xbc8aedd9	-0.016959118
211	0x3db47c1d	0.08812735
212	0x3d9c6902	0.07637216
213	0xbd4e078a	-0.05030016
214	0x3cc26196	0.023728173
215	0x3e3791f1	0.17926766
216	0xbbbb8e53	-0.0057237535
217	0x3d99f636	0.07517664
218	0xbbd3a361	-0.0064586853
219	0x3d1e2255	0.03860696
220	0xbdffa05d	-0.12481759
221	0xbcd72758	-0.026263878
222	0xbcbb3ad5	-0.022855202
223	0x3cfd9606	0.030955326
224	0x3d90a18b	0.07062062
225	0xbd4d6bdc	-0.05015169
226	0x3abf337c	0.0014587487
227	0xbc09ec11	-0.008418099
228	0xbd3ef74d	-0.046622563
229	0xbd835154	-0.064119965
230	0xbcdc159b	-0.026865771
231	0x3ca4a7d0	0.02009955
232	0xbe0bbad5	-0.1364549
233	0x3cc1fa8d	0.023679042
234	0x3dc1654f	0.09443151
235	0x3d92abb7	0.07161658
236	0x3dbfed74	0.093714625
237	0x3dc980e9	0.09839041
238	0x3da5716f	0.08078276
239	0xba838014	-0.0010032677
240	0x3cc0b163	0.023522085
241	0x3d9b4bcf	0.07582819
242	0x3cafb34a	0.021447796
243	0x3c7b1eb2	0.015327143
244	0x3d4fd049	0.050735746
245	0x3e07553d	0.1321611
246	0xbd783195	-0.06059416
247	0x3de69359	0.11258573
248	0x3e573672	0.21016863
249	0xbbe42aa1	-0.0069630896
250	0x3da463f0	0.08026874
251	0x3d821f29	0.063535996
252	0x3e1d6d1e	0.15373656
253	0x3d8dc377	0.069220476
254	0xbd4909ab	-0.049081486
255	0xbbf8551b	-0.0075785047

layers.0.conv_in.bias f4 [32]
0	0xbe25e670	-0.16201186
1	0xbe1f8982	-0.15579799
2	0xbe165a80	-0.1468296
3	0x3d30c013	0.043151926
4	0xbea3223b	-0.31862053
5	0xbd5855d2	-0.05281622
6	0xbdbc36a0	-0.091901064
7	0xbce1647a	-0.027513731
8	0xbe670df3	-0.22563915
9	0x3da836f8	0.082136095
10	0xbe5baeb3	-0.21453361
11	0xbe33e640	-0.17568302
12	0xbe0f4ce8	-0.13994181
13	0xbde40e0c	-0.11135492
14	0xbe327045	-0.1742564
15	0xbd68cb18	-0.05683431
16	0xbdd602c1	-0.10449744
17	0xbe0ad199	-0.13556518
18	0xbda2d828	-0.07951385
19	0xbe76e830	-0.2411201
20	0xbdd948b7	-0.106095724
21	0xbdf38012	-0.11889662
22	0xbe586007	-0.21130382
23	0xbe3861c9	-0.18006052
24	0xbe5e9ae6	-0.21738777
25	0xbe458e73	-0.19292621
26	0xbd892e89	-0.06698329
27	0xbe57921b	-0.21051829
28	0xbe1578f0	-0.14596915
29	0xbda2c671	-0.07948006
30	0xbe30cc3b	-0.17265408
31	0xbe350a2c	-0.17679662

layers.0.conv_out.weight f4 [32, 32, 3, 3]
0	0x3d73b7ca	0.059501447
1	0x3e7782a1	0.24170925
2	0x3db3e73f	0.08784341
3	0x3dcf7b74	0.10130969
4	0xbca577b3	-0.020198679
5	0x3dd5d00d	0.10440073
6	0x3dd25e27	0.102718644
7	0x3e12407d	0.14282413
8	0xbcd9977d	-0.026561493
9	0x3db8d5f6	0.09025185
10	0x3cd41cb9	0.025892602
11	0x3d361650	0.044454873
12	0xbbe905f3	-0.007111305
13	0x3e81cd35	0.25351873
14	0x3dc38b65	0.09548072
15	0x3d4a137d	0.04933499
16	0xbd3c1864	-0.0459217
17	0x3c0887be	0.008333145
18	0xbc485314	-0.012226839
19	0xbddca4b3	-0.107736014
20	0xbcd23924	-0.025662012
21	0x3dda0496	0.10645406
22	0xbc50a4da	-0.012734616
23	0x3ab20b0d	0.0013583616
24	0xbcd3a6d4	-0.025836386
25	0x3d01d42b	0.03169648
26	0x3dd7a9df	0.10530447
27	0x3d9f6046	0.077820346
28	0x3dacb64a	0.084332064
29	0x3de73191	0.11288751
30	0xbbf1a47a	-0.0073743435
31	0x3e0a7327	0.1352049
32	0x3d51368c	0.05107741
33	0x3d2c7a43	0.042108785
34	0x3d918771	0.071059115
35	0x3e6bf107	0.23041163
36	0x3d3db13b	0.0463116
37	0x3e1db09e	0.15399405
38	0xbd34518b	-0.044023078
39	0xbd127a3a	-0.035761096
40	0xbdcbf21d	-0.09958289
41	0x3d34f068	0.04417458
42	0x3d1d577f	0.03841352
43	0x3d7998ed	0.060936857
44	0x3c6f6759	0.014612042
45	0xbe0eefd2	-0.13958672
46	0xbe0ac30b	-0.13550965
47	0xbcfdade0	-0.0309667
48	0x3e090417	0.13380466
49	0x3c80ff00	0.015746593
50	0xbd016178	-0.031587094
51	0x3d5c70d4	0.05381854
52	0x3dd2cc0d	0.10292826
53	0xbcc0940c	-0.023508094
54	0x3d2cda1a	0.042200185
55	0x3d8e9362	0.06961705
56	0xbd85a65c	-0.06525871
57	0x3c279d20	0.010230333
58	0xbb487e64	-0.0030592913
59	0x3e2f584e	0.1712353
60	0xbac9e1d1	-0.0015402382
61	0x3d4a8884	0.049446598
62	0x3d915816	0.07096879
63	0xbdf51d89	-0.11968524
64	0xbe3669a5	-0.17813738
65	0xbe69fb40	-0.2284975
66	0xbea0afcb	-0.3138412
67	0xbe60615e	-0.21912143
68	0xbe668f63	-0.22515635
69	0xbe1da0e0	-0.153934
70	0xbe7d3c38	-0.24730003
71	0xbd83baa5	-0.06432084
72	0x3cfe5231	0.031045051
73	0xbcafb61e	-0.021449145
74	0xbda2f805	-0.07957462
75	0x3e493e40	0.19652653
76	0xbe2fcef6	-0.17168793
77	0x3d77abf5	0.060466725
78	0xbd8e8273	-0.06958475
79	0x3de88c3e	0.11354874
80	0x3d37a80f	0.044838008
81	0x3dd862f4	0.10565749
82	0xbd1bc7d3	-0.038032364
83	0xbdefc6ab	-0.11707815
84	0x3c881485	0.016611347
85	0x3e50f484	0.20405775
86	0x3e1375d1	0.14400412
87	0x3c9e8ecf	0.019355206
88	0xbda3cfde	-0.07998632
89	0xbdc07b5e	-0.093985304
90	0xbdf7da89	-0.12102229
91	0xbc789f51	-0.015174703
92	0x3cf0e088	0.02940394
93	0xbdc67276	-0.096898004
94	0x3d5c0720	0.053717732
95	0x3e5d6c69	0.21623386
96	0x3d9c56a0	0.0763371
97	0xbd1753ba	-0.036945082
98	0x3e4fc3c7	0.20289527
99	0x3da19504	0.078897506
100	0x3d5717a9	0.0525128
101	0xbc98b5f6	-0.018641453
102	0x3d114fec	0.03547661
103	0x3c0130c1	0.007885159
104	0xbd92230e	-0.071355924
105	0x3b96d09a	0.004602504
106	0xbb9dc8bb	-0.0048151887
107	0x3dbec34f	0.09314596
108	0x3db699c5	0.08916048
109	0x3bed644d	0.007244623
110	0xbe0fcd92	-0.14043263
111	0xbd4570af	-0.048203167
112	0x3e3317e8	0.17489588
113	0xbd3ddeb6	-0.04635497
114	0xbdd6469d	-0.10462687
115	0x3e256ba3	0.16154341
116	0xbdad4bf3	-0.08461752
117	0xbdac6163	-0.084170125
118	0xbd51aa02	-0.051187523
119	0xba6e9efe	-0.0009102671
120	0xbcff6cb6	-0.031179767
121	0xbde4c79a	-0.111708835
122	0xbd43dce9	-0.0478181
123	0x3ca641b0	0.020294994
124	0xbdc18e62	-0.094509855
125	0x3d02985a	0.031883575
126	0xbdb433d0	-0.08798945
127	0xbd73b80d	-0.059501696
128	0x3e35f995	0.17770989
129	0x3d5be029	0.053680573
130	0x3be994c1	0.0071283286
131	0x3aaeb607	0.0013329395
132	0xbcfdf69b	-0.03100138
133	0xbcc89b0a	-0.02448799
134	0x3d846ca9	0.06466038
135	0xbb51ed68	-0.0032032374
136	0x3e0002e7	0.12501107
137	0xbc020bbc	-0.007937368
138	0xbdc9fae5	-0.098623075
139	0x3d98f8f7	0.07469361
140	0x3c8413e6	0.01612277
141	0x3d1127c2	0.035438307
142	0x3ddf19b4	0.10893574
143	0x3c5dcaf0	0.013537154
144	0xbe0803bc	-0.13282675
145	0x3db3e332	0.087835684
146	0x3e0e5bb3	0.13902168
147	0xbea8d5fa	-0.3297575
148	0x3d01fb88	0.03173402
149	0x3d878738	0.06617588
150	0xbe658360	-0.22413397
151	0x3e174d0d	0.14775486
152	0x3e884526	0.26615256
153	0xbe5c7700	-0.2152977
154	0xbe1fad6b	-0.15593497
155	0xbeaa2521	-0.33231452
156	0xbeb04956	-0.3443095
157	0xbe405fd3	-0.18786554
158	0xbe937360	-0.28798962
159	0xbc2b89e5	-0.010469888
160	0xbe5e441a	-0.21705666
161	0xbcedeea8	-0.029044464
162	0x3d9feb76	0.078085825
163	0xbe6c1adc	-0.23057121
164	0xbd9a10b2	-0.07522716
165	0xbe0fe73e	-0.14053056
166	0xbe573b84	-0.21018797
167	0xbe4f3665	-0.20235594
168	0x3cc60f66	0.024177264
169	0xbdd686ce	-0.10474931
170	0x3d8aeab5	0.06783048
171	0xbc934b30	-0.017980188
172	0x3c0f9e26	0.008765733
173	0x3d8a7ba4	0.06761864
174	0xbae30e11	-0.0017322918
175	0xbd5fa6b7	-0.05460235
176	0x3de159c4	0.110034496
177	0xbd02b60c	-0.031911895
178	0xbe4ea43e	-0.20179841
179	0x3ba55ddd	0.0050465898
180	0xbd1aad20	-0.03776276
181	0xbdbf879d	-0.09352038
182	0xbdad154d	-0.084513284
183	0x3d7fb155	0.062424976
184	0xbd94a4a1	-0.07257963
185	0x3d7c4773	0.061591577
186	0x3d026182	0.031831272
187	0x3c9e1b3f	0.019300101
188	0x3cdd0c97	0.026983542
189	0x3d85bce1	0.065301664
190	0x3d81f515	0.06345574
191	0x3dcaf743	0.09910443
192	0x3e74adce	0.23894426
193	0xbceef88e	-0.029171254
194	0x3dc588ec	0.096452564
195	0xbd56f44c	-0.052479073
196	0xbd02ba49	-0.031915937
197	0xbc4713f4	-0.012150753
198	0x3ca4d7e3	0.020122474
199	0xbbe00545	-0.0068365657
200	0xbe214b67	-0.1575142
201	0x3d8728d2	0.06599583
202	0x3e000900	0.12503433
203	0xbdd78ee2	-0.105252996
204	0x3ca92d75	0.020651558
205	0xbbd89534	-0.0066095833
206	0xbdf15652	-0.117840424
207	0xbd91090d	-0.070818044
208	0xbd2aa5e4	-0.041662112
209	0xbe477e28	-0.19481719
210	0xbdd5a0de	-0.104310736
211	0xbe4ba244	-0.19886118
212	0xbd362c45	-0.044475812
213	0x3d2ceb66	0.04221668
214	0xbd6093ae	-0.05482834
215	0x3d29b235	0.041429717
216	0x3dc8ea03	0.09810259
217	0x3e30bbf3	0.17259197
218	0x3d85cc21	0.06533075
219	0xbd55e735	-0.05222245
220	0x3cbd9fd7	0.023147507
221	0x3de9a030	0.114075065
222	0x3e15a33f	0.14613055
223	0x3e3cc106	0.18433008
224	0x3e06ab88	0.13151371
225	0xbd94aefd	-0.07259939
226	0xbc907989	-0.017636077
227	0x3e0842b0	0.1330669
228	0xbe5aacfd	-0.21355052
229	0x3d9a1470	0.075234294
230	0x3de01956	0.109423324
231	0xbcf6d277	-0.030129654
232	0xbc830c65	-0.015997121
233	0x3da9e604	0.08295825
234	0xbd19c069	-0.037537012
235	0x3dda3ea7	0.10656481
236	0xbd790c8b	-0.060802978
237	0xba467431	-0.00075704145
238	0xbde724b1	-0.11286295
239	0x3d47dc3b	0.048794013
240	0xbd6c51fd	-0.057695378
241	0x3e071e3c	0.13195127
242	0x3cee7bce	0.029111769
243	0x3cf5c606	0.030001651
244	0xbbdad02a	-0.006677647
245	0xbe8739fa	-0.2641142
246	0xbe34e6d9	-0.17666186
247	0xbb8bf4c1	-0.0042711203
248	0xbe716728	-0.23574507
249	0x3dd2d4eb	0.10294517
250	0xbe7adeda	-0.24499074
251	0xbe320c19	-0.17387427
252	0x3c2c27b3	0.010507512
253	0x3de82e10	0.11336911
254	0xbe021a2f	-0.12705301
255	0x3e1d525d	0.1536345

layers.0.conv_out.bias f4 [32]
0	0x3dccaeec	0.09994301
1	0x3e25d42f	0.16194223
2	0xbe37ef4b	-0.17962377
3	0x3e00d3b9	0.12580766
4	0x3e98a631	0.29814294
5	0x3e85c983	0.26130304
6	0xbb938831	-0.0045023193
7	0x3bdae082	0.0066795954
8	0xbde51063	-0.11184766
9	0xbc479eaa	-0.012183825
10	0xbe1635fe	-0.14669034
11	0x3e1f104b	0.15533559
12	0xbe49388a	-0.19650474
13	0x3ec16cca	0.37778312
14	0xbb06ee99	-0.0020588993
15	0xbda92c27	-0.082603745
16	0xbdbeff96	-0.09326093
17	0xbd34c149	-0.044129644
18	0x3e9d954b	0.30777964
19	0xbdec9ae8	-0.115529835
20	0xbe6b0fa8	-0.22955191
21	0xbe654c2f	-0.22392343
22	0xbe0b06c6	-0.13576803
23	0x3df6e355	0.12055079
24	0xbeafd631	-0.34343103
25	0xbdde7791	-0.10862649
26	0xbd52858b	-0.051396888
27	0x3e8c0aff	0.2735214
28	0x3ddfab9f	0.10921406
29	0xbde30d7d	-0.11086557
30	0xbd53784c	-0.051628396
31	0x3e521e5d	0.20519395

layers.0.conv_skip.weight f4 [32, 64, 3, 3]
0	0xbda27751	-0.07932914
1	0x3d43d6eb	0.047812384
2	0x3d10878a	0.03528551
3	0xbdaf91b3	-0.08572712
4	0xbcc0cb2d	-0.023534382
5	0xbdd6e636	-0.10493128
6	0x3dcf4b27	0.10121756
7	0xbd87f877	-0.06639188
8	0xbb4b0730	-0.0030979626
9	0xbde6ff51	-0.112791665
10	0xbc6ae57b	-0.014336939
11	0x3c5d2d8a	0.013499627
12	0x3d83fc79	0.0644464
13	0x3da170f7	0.078828745
14	0x3e240132	0.16016081
15	0xbc036463	-0.0080195395
16	0xbdaad6ba	-0.08341737
17	0xbcf145bd	-0.0294522
18	0xbe8a4477	-0.2700536
19	0x3dc8b6cf	0.09800493
20	0xbd7eb907	-0.062188175
21	0xbe314dc4	-0.17314821
22	0x3e193982	0.14963344
23	0xbb8c33ed	-0.004278651
24	0xbe663dab	-0.22484462
25	0x3e21c653	0.15798311
26	0x3c73ce34	0.014880706
27	0x3ddf471d	0.10902236
28	0x3cb4a7a5	0.022052595
29	0x3b9384de	0.004501923
30	0x3e006187	0.12537204
31	0xbdf1fd09	-0.11815841
32	0x3d189797	0.037253942
33	0x3e1266d2	0.14297035
34	0x3cd89781	0.02643943
35	0x3da7945c	0.08182594
36	0x3bc1c9c3	0.0059139444
37	0x3cd3f291	0.0258725
38	0x3dc9d59b	0.09855195
39	0xbe2026fb	-0.1563987
40	0xba1c13d2	-0.0005953881
41	0xbd026c4e	-0.03184157
42	0xbc20b72c	-0.009809297
43	0xbced6f95	-0.02898387
44	0x3d3516ee	0.04421132
45	0xbc82f48e	-0.015985753
46	0xbd665cab	-0.05624072
47	0x3dc9c406	0.09851842
48	0xbd94fe31	-0.07275046
49	0xbd2927b6	-0.041297637
50	0x3c3d5351	0.011555509
51	0xbd94452c	-0.07239756
52	0xbce76676	-0.0282471
53	0x3ded0130	0.11572492
54	0xbdb9eea5	-0.09078721
55	0xbd12bd2a	-0.035824932
56	0xbc99bacc	-0.01876583
57	0x3d3b3e69	0.045713816
58	0x3dc5774f	0.09641897
59	0x3c9130df	0.017723499
60	0x3c9aec72	0.018911574
61	0xbd482b0c	-0.048869178
62	0x3dfc1046	0.123077914
63	0x3d62ab42	0.055339105
64	0xbd11e9e4	-0.035623446
65	0xbcc1be78	-0.023650393
66	0xbd411afd	-0.04714488
67	0xbda8ce38	-0.08242458
68	0xbd6d848a	-0.057987727
69	0x3b2d4508	0.002643885
70	0xbdf06915	-0.11738793
71	0xbdf77cbd	-0.12084339
72	0xbdf616de	-0.1201608
73	0xbd832cf4	-0.064050585
74	0x3d497c3f	0.049190756
75	0xbc845f30	-0.01615867
76	0x3d88c8b4	0.06678906
77	0x3d229d3b	0.039700728
78	0xbd3699b5	-0.04458018
79	0x3d3cf781	0.046134476
80	0x3e2adfb4	0.16686898
81	0x3d9c0e96	0.076199695
82	0xbdcf1b7c	-0.10112664
83	0xbe21bde0	-0.15795088
84	0x3e3316a4	0.17489105
85	0xbe41881a	-0.18899575
86	0xbd1dfc8d	-0.03857093
87	0xbd4b0efe	-0.049574845
88	0xbd9017f0	-0.07035816
89	0x3d7c523c	0.061601862
90	0xbe390f00	-0.18072128
91	0xbd6d12f8	-0.057879418
92	0xbc8cf2d0	-0.017205626
93	0xbe139721	-0.1441312
94	0x3cd25d9f	0.025679408
95	0x3dad34ff	0.08457374
96	0x3d8c7d1f	0.068598025
97	0x3d98f787	0.07469087
98	0x3d9617fc	0.073287934
99	0xbde1e1d3	-0.11029401
100	0xbd82ca23	-0.06386211
101	0xbda3155d	-0.07963059
102	0x3e0b0d0c	0.13579196
103	0x3dbf7845	0.093491115
104	0x3e692e8d	0.22771664
105	0x3d25b07d	0.040451515
106	0x3b994d31	0.0046783914
107	0x3d42218f	0.047395285
108	0xbdb0732e	-0.08615719
109	0x3cf15485	0.029459247
110	0xbe0bcee7	-0.13653146
111	0x3c1a1455	0.009404262
112	0xbd6cd73c	-0.05782245
113	0xbd6dace2	-0.058026202
114	0xbda08059	-0.078369804
115	0xbd23481b	-0.039863687
116	0xbe0deb3b	-0.13859265
117	0x3da56e4e	0.080776796
118	0xbd2f4b46	-0.042796396
119	0xbd396a28	-0.045267254
120	0xbd3bcf28	-0.045851856
121	0xbd20cfc3	-0.039260637
122	0xbe05b146	-0.13055906
123	0xbe2610fe	-0.1621742
124	0x3c958a30	0.01825437
125	0xbb18a706	-0.0023292913
126	0x3d93dab3	0.07219448
127	0x3d6910e9	0.056900892
128	0x3d0f573f	0.034995314
129	0x3dc6d9be	0.097095
130	0x3d39a64a	0.0453246
131	0xbca4254a	-0.020037312
132	0x3d741a78	0.059595555
133	0xbc265814	-0.010152835
134	0xbd3e352b	-0.046437424
135	0xbd2a2d07	-0.041546848
136	0x3c6b8ac2	0.014376344
137	0xbc16c925	-0.00920323
138	0x3d96ae82	0.073575035
139	0x3e03ccf6	0.12871155
140	0x3e0833f3	0.13301067
141	0xbb275967	-0.0025535466
142	0x3e3cf72c	0.18453664
143	0x3d4e8d85	0.050427932
144	0xbd2f3be8	-0.04278174
145	0x3d973773	0.07383623
146	0x3d3b15a9	0.045674954
147	0x3d3b5b81	0.04574156
148	0xbd75b199	-0.059983823
149	0x3dc192e1	0.09451843
150	0x3d8e6dba	0.069545224
151	0xbd1b7430	-0.037952602
152	0x3d0d20ef	0.034455236
153	0xbc281cac	-0.010260742
154	0xbdec5405	-0.11539463
155	0xbde8c5a3	-0.11365821
156	0xbe111784	-0.14169127
157	0xbdf9744a	-0.121803835
158	0xbe2d848f	-0.16945098
159	0xbd1d7dc5	-0.03845002
160	0xbd8722a1	-0.06598402
161	0xbd870dfc	-0.06594464
162	0x3d5781a1	0.052613858
163	0x3d6ca48a	0.057774104
164	0x3d161eb9	0.036650393
165	0x3d7b1cd5	0.061306793
166	0x3dcac19f	0.099002115
167	0x3d6799bf	0.056543108
168	0x3d9ac15b	0.07556411
169	0x3ce36c84	0.027761705
170	0xbdc738b5	-0.09727613
171	0xbdc9adfc	-0.09847638
172	0xbe16c624	-0.14724022
173	0xbe2658c8	-0.16244805
174	0xbdce3bd2	-0.100700036
175	0xbe3f9605	-0.18709572
176	0xbd9a63a9	-0.0753854
177	0x3d1930d6	0.03740009
178	0x3babc1dc	0.0052416157
179	0x3dacb021	0.084320314
180	0xbd6441c6	-0.05572679
181	0x3d986714	0.074415356
182	0xbdfebfb1	-0.12438906
183	0xbe459ec5	-0.19298847
184	0x3e3d97a7	0.18514882
185	0xbdc631f9	-0.096775
186	0x3e0d1f5c	0.13781494
187	0x3decdace	0.11565171
188	0xbd175a0e	-0.036951117
189	0x3d8616ba	0.065473035
190	0xbc3e6c5b	-0.011622514
191	0x3c1abe28	0.009444751
192	0x3bbdc91f	0.005791798
193	0xbb8f3341	-0.0043701236
194	0x3d9c3732	0.07627715
195	0xbc08eb96	-0.008356949
196	0xbd15a15d	-0.03653084
197	0xbd4401e9	-0.047853384
198	0x3b7c372d	0.0038485036
199	0x3d467e3c	0.04846023
200	0x3df43614	0.11924377
201	0x3cb17824	0.021663733
202	0x3d307225	0.043077607
203	0x3de3b8d5	0.11119238
204	0xbd874ee8	-0.06606847
205	0x3cbd6315	0.023118535
206	0xbcf44907	-0.029819978
207	0x3d7abfcb	0.061218064
208	0xbda6b38d	-0.08139715
209	0x3c0b6036	0.008506825
210	0x3dad7017	0.08468645
211	0x3cbc335a	0.022973705
212	0x3dae2e95	0.085049786
213	0xbc752f4b	-0.014964889
214	0x3dc137c1	0.09434462
215	0x3c819a3f	0.01582062
216	0x3d08b520	0.03337586
217	0x3c44907d	0.011997339
218	0x3cd34d6c	0.025793754
219	0x3d4b6546	0.04965713
220	0x3d0cb496	0.034351908
221	0x3a74c5f9	0.00093373616
222	0x3d0578be	0.03258585
223	0x3d961d4f	0.07329809
224	0xbd1d548d	-0.038410712
225	0xbcf66f7e	-0.03008246
226	0xbc1f2d3c	-0.009715375
227	0x3cdbd8bc	0.026836745
228	0xbd5bbc04	-0.053646103
229	0x3dc62cd2	0.096765175
230	0xbd879daf	-0.06621873
231	0xbda9fb63	-0.08299901
232	0x3d1645a1	0.036687497
233	0x3e333ec4	0.17504412
234	0x3c3490ff	0.011020898
235	0x3da45bd6	0.08025329
236	0x3d726a6f	0.059183534
237	0xbd4ab86c	-0.049492285
238	0xbd9bb4fb	-0.07602879
239	0xbd2bee46	-0.041975282
240	0xbda37f5b	-0.079832755
241	0x3c873e91	0.016509326
242	0xbdb640bf	-0.08899068
243	0x3d8c3d6e	0.06847654
244	0x3d12ba5c	0.035822257
245	0xba6410c7	-0.000870001
246	0xbd138e1b	-0.036024194
247	0x3d63c65b	0.05560909
248	0x3d1c3f42	0.038146265
249	0x3daddae0	0.08489013
250	0xbc9592e5	-0.018258521
251	0x3dc728ee	0.097246036
252	0x3d8761d8	0.06610459
253	0x3cad9fd4	0.021194376
254	0xbda03409	-0.07822425
255	0xbc3d1e50	-0.011542872

layers.0.conv_skip.bias f4 [32]
0	0x3e0a2d7b	0.13493912
1	0x3e27dd86	0.16393098
2	0xbe5b2f8f	-0.21404861
3	0x3e2c58a5	0.1683069
4	0x3e83f288	0.25770974
5	0x3e8052e8	0.25063252
6	0xbdcac0ae	-0.09900032
7	0x3cf1c9d1	0.029515179
8	0xbdb2e97c	-0.0873594
9	0xbd8a479a	-0.06751938
10	0xbe29203f	-0.16516207
11	0x3e3419b4	0.1758793
12	0xbe35210b	-0.17688386
13	0x3ecf1e93	0.40453014
14	0x3d308ea7	0.043104794
15	0xbcd74efd	-0.026282782
16	0xbdbf4629	-0.09339554
17	0xbd505142	-0.050858743
18	0x3e8a2f0d	0.26989022
19	0xbe47fb63	-0.1952949
20	0xbe6e8639	-0.2329339
21	0xbe46b0f6	-0.19403443
22	0xbe033227	-0.128121
23	0x3df38ffe	0.11892699
24	0xbe96a28f	-0.29420897
25	0xbda2ac93	-0.07943072
26	0xbd0aa7a9	-0.0338513
27	0x3e4bc48c	0.19899195
28	0x3e069f00	0.13146591
29	0xbe1d30bf	-0.15350626
30	0xbc12c33a	-0.008957678
31	0x3e632c1e	0.22184798

layers.0.norm_out.weight f4 [32]
0	0x3f80113d	1.0005261
1	0x3f7bbf37	0.98338646
2	0x3f4d9176	0.8030008
3	0x3f4dc082	0.8037187
4	0x3f84b1f6	1.0366809
5	0x3f50242d	0.813052
6	0x3f40ab2f	0.75261205
7	0x3fd058a5	1.6277052
8	0x3ff507fa	1.9143059
9	0x3f8a0df2	1.0785506
10	0x3f5d5b0e	0.86467063
11	0x3f469f4f	0.77586836
12	0x3f8ff743	1.1247333
13	0x3f3b1d9d	0.7309206
14	0x3f8b0c09	1.0863048
15	0x3f50794c	0.81435084
16	0x3f859808	1.0437021
17	0x3fc3f2e8	1.5308504
18	0x3f7e4bac	0.99334216
19	0x3f828eac	1.019979
20	0x3f8a7b9d	1.0818974
21	0x3f464dce	0.7746247
22	0x3f595922	0.8490163
23	0x3f97381a	1.1813996
24	0x3f9da5bd	1.2316204
25	0x3f585577	0.8450541
26	0x3f333fef	0.7001943
27	0x3f936ca9	1.1517535
28	0x3f40f9ce	0.7538117
29	0x3f1f86d8	0.6231513
30	0x3f6d9c1b	0.92816323
31	0x3f83c5a3	1.0294689

layers.0.norm_out.bias f4 [32]
0	0x3b2b7fc1	0.0026168677
1	0x3e0afb44	0.13572413
2	0x3cace10e	0.021103408
3	0xbe457dbd	-0.19286247
4	0x3e6485e7	0.22316705
5	0x3e77e710	0.24209237
6	0x3db68dfe	0.089138016
7	0x3ec75fda	0.38940316
8	0xbe27008b	-0.16308801
9	0x3d9ad7f1	0.07560719
10	0xbd975aed	-0.073903896
11	0xbe482d5b	-0.19548552
12	0x3e37b80a	0.17941299
13	0x3d6366c9	0.055517945
14	0x3e8ff422	0.28115946
15	0x3e8886fb	0.26665482
16	0x3e1635c1	0.14668943
17	0x3e95d352	0.29262787
18	0x3dd62d52	0.10457863
19	0x3e28be86	0.16478929
20	0xbe39fa99	-0.18162002
21	0xbdb85151	-0.08999885
22	0xbcd96770	-0.02653858
23	0x3ecad9c3	0.39619264
24	0xbd5ffab3	-0.054682445
25	0xbd14f40f	-0.036365565
26	0xbdf92c9c	-0.12166712
27	0x3e8a42ec	0.27004182
28	0x3e6524e9	0.22377361
29	0x3e537a18	0.20652044
30	0xbe026887	-0.12735187
31	0x3daf8525	0.08570317

layers.0.norm_out.running_mean f4 [32]
0	0x3e3767c3	0.17910676
1	0x3e6f6863	0.23379664
2	0x3f16dea4	0.5893347
3	0x3f49ff84	0.7890551
4	0x3d9c1e82	0.076230064
5	0x3f406a61	0.7516232
6	0x3e1f823c	0.15577024
7	0x3fe24835	1.7678286
8	0x3e8da8b2	0.27667767
9	0x3f5b20eb	0.85597104
10	0x3e0a7e69	0.13524784
11	0x3e5df549	0.216756
12	0x3f6e0208	0.9297185
13	0x3f47edf8	0.78097486
14	0x3ee41aad	0.44551602
15	0x3f47a6ca	0.77988875
16	0x3f8b5107	1.0884103
17	0x3f6ede95	0.93308383
18	0x3f6563d0	0.89605427
19	0x3dfe955d	0.124308325
20	0x3f6bc4f2	0.9209739
21	0x3f1beb59	0.6090599
22	0x3edaa2c8	0.42702317
23	0x3f87d98c	1.0613265
24	0x3e50c42f	0.20387338
25	0x3e234540	0.15944386
26	0x3ed202a4	0.4101764
27	0x3e06cb8e	0.13163587
28	0x3e93dba4	0.2887851
29	0x3e18839e	0.14893958
30	0x3e8af799	0.27142027
31	0x3eaf6484	0.34256375

layers.0.norm_out.running_var f4 [32]
0	0x3efe492a	0.49665195
1	0x3f32da3f	0.6986427
2	0x3fd0a088	1.629899
3	0x3fef0155	1.8672282
4	0x3e091ef3	0.13390712
5	0x407885aa	3.8831582
6	0x3eb1efa4	0.34753144
7	0x402dc6f0	2.7152672
8	0x3f1fadde	0.62374675
9	0x4004a0c4	2.0723124
10	0x3eb37f62	0.35058123
11	0x3f099be3	0.5375349
12	0x3fcde9bf	1.6086959
13	0x4081af6d	4.0526643
14	0x3f89f398	1.0777464
15	0x40053f65	2.0819943
16	0x3fa9bc71	1.3260633
17	0x3fa79eb5	1.3095309
18	0x403aece4	2.9207087
19	0x3e80cd85	0.251568
20	0x3f9c2061	1.2197381
21	0x4013fcce	2.312305
22	0x3fc95461	1.5728875
23	0x3fc5ce08	1.5453501
24	0x3f24d13c	0.64381766
25	0x3efddbcf	0.49581763
26	0x3f6503d6	0.8945898
27	0x3ea3c91e	0.31989378
28	0x3ecaf7ba	0.39642125
29	0x3ea51fa0	0.3225069
30	0x3f840aba	1.0315773
31	0x3f910d4b	1.1332182

layers.0.norm_in.weight f4 [64]
0	0x3f2076fd	0.6268156
1	0x3f1ebb5d	0.62004644
2	0x3f71cc47	0.9445233
3	0x3f305948	0.6888623
4	0x3f3905f1	0.7227469
5	0x3f4bf169	0.7966524
6	0x3f38a7c4	0.7213099
7	0x3f7264d0	0.9468508
8	0x3f35d818	0.7103286
9	0x3f55457b	0.83309144
10	0x3f59b51c	0.85041976
11	0x3f3fd890	0.74939823
12	0x3f5406a4	0.8282263
13	0x3f391b53	0.7230732
14	0x3f3a428e	0.72757804
15	0x3fad87bc	1.3557048
16	0x3f86d829	1.0534717
17	0x3f442585	0.7661975
18	0x3f588dc5	0.84591323
19	0x3f676398	0.90386343
20	0x3f458394	0.771539
21	0x3f732030	0.9497099
22	0x3f300b43	0.68767184
23	0x3ef650f8	0.4810865
24	0x3f6469a6	0.89223707
25	0x3f0dd0c9	0.55396706
26	0x3f07cf09	0.53050286
27	0x3f19193d	0.59804136
28	0x3f55f38a	0.83574736
29	0x3eee176c	0.46502244
30	0x3f6adc6f	0.91742605
31	0x3f45de87	0.77292675
32	0x3f37e697	0.7183623
33	0x3f2085c9	0.6270414
34	0x3f73c8d9	0.95228344
35	0x3feb5a90	1.8387012
36	0x3f8b9862	1.0905879
37	0x3f29b526	0.66292036
38	0x3f0ddc41	0.55414206
39	0x3f678321	0.9043446
40	0x3f807f5a	1.0038865
41	0x3efa4122	0.48877817
42	0x3f751466	0.9573425
43	0x3f2a8cb5	0.6662095
44	0x3f9f0600	1.2423706
45	0x3ef76612	0.4832006
46	0x3f207635	0.6268037
47	0x3f406f4b	0.7516982
48	0x3f163488	0.58673906
49	0x3f40bf48	0.7529187
50	0x3f135e2b	0.57565564
51	0x3f0fe9d0	0.56216145
52	0x3f45284f	0.7701463
53	0x3f26637a	0.6499554
54	0x3f03fb21	0.5155507
55	0x3f166f18	0.58763266
56	0x3f8781ef	1.0586528
57	0x3f04c644	0.5186503
58	0x3fbd91a2	1.4810069
59	0x3f314225	0.69241554
60	0x3f24e8f5	0.64417964
61	0x3f995de4	1.1981778
62	0x3ef68e0d	0.4815525
63	0x3f8b8f40	1.0903091

layers.0.norm_in.bias f4 [64]
0	0xbd34608a	-0.04403738
1	0xbbb2712a	-0.005445619
2	0x3eab9224	0.33509934
3	0xbcaa5a31	-0.02079496
4	0x3e644c43	0.22294717
5	0x3d803970	0.06260955
6	0xbe8a8b99	-0.2705963
7	0xbedf2f3a	-0.43590719
8	0x3e6a399a	0.22873536
9	0x3e6aa7a0	0.22915506
10	0x3ea79884	0.32733548
11	0x3d708d32	0.058728404
12	0x3d0632fa	0.03276346
13	0xbe5b94e7	-0.2144352
14	0xbde97d27	-0.11400824
15	0x3e26cdab	0.16289394
16	0xbe44cf71	-0.19219758
17	0x3e8240ca	0.25440055
18	0x3d62d759	0.055381153
19	0x3e37b0b5	0.17938502
20	0xbc39cc87	-0.011340267
21	0xbda4fd9d	-0.080561854
22	0x3e9e4d75	0.3091847
23	0x3b9eb1d9	0.0048429784
24	0x3e27fddb	0.16405432
25	0x3e5a8c59	0.21342601
26	0xbe81ca66	-0.2534973
27	0x3df59fed	0.11993394
28	0xbdeb1f75	-0.11480609
29	0x3c2b1e53	0.010444242
30	0xbecae76b	-0.39629683
31	0xbd1fae28	-0.038984448
32	0x3e1e4369	0.15455402
33	0x3e9e3342	0.30898482
34	0xbec5bbc5	-0.3861982
35	0x3e7cb5f9	0.24678792
36	0x3dd3f6bc	0.10349795
37	0x3e108978	0.1411494
38	0xbc91999a	-0.017773438
39	0x3d6bfb69	0.05761281
40	0x3e7fe642	0.2499018
41	0x3e27d25c	0.1638884
42	0xbea52a18	-0.32258677
43	0x3deea3a9	0.116523094
44	0x3e5c21da	0.21497288
45	0x3dfe99f2	0.124317065
46	0x3c79b961	0.015241952
47	0x3999a836	0.0002930776
48	0x3d2a5d28	0.041592747
49	0xbe21a3a7	-0.15785085
50	0x3d777650	0.060415566
51	0x3d985822	0.07438685
52	0xbeb259c9	-0.34834126
53	0xbd952a1c	-0.07283422
54	0xbe3113d5	-0.17292722
55	0x3e1c996d	0.15292902
56	0x3ed4cd20	0.41562748
57	0x3dec6661	0.11542965
58	0x3e38fedd	0.18065973
59	0xbe634110	-0.22192788
60	0x3db73b05	0.08946804
61	0xbe635a91	-0.22202517
62	0x3e0659c3	0.13120179
63	0x3e89a4fc	0.26883686

layers.0.norm_in.running_mean f4 [64]
0	0x3fbd7a7c	1.4803004
1	0x3ee9eb59	0.4568737
2	0x3f652853	0.89514655
3	0x3f8bd6d2	1.0924933
4	0x3fcf290c	1.6184402
5	0x3e7abc07	0.24485789
6	0x3e3eacd1	0.18620612
7	0x00000004	6e-45
8	0x3fb0c63b	1.3810495
9	0x3da6fa0b	0.08153161
10	0x3de6a3ab	0.11261686
11	0x3fbfcbd7	1.4984082
12	0x3c1456eb	0.009053926
13	0x3cb33951	0.021877917
14	0x3c2dd06d	0.010608775
15	0x3f3e5094	0.743417
16	0x3e447e60	0.19188833
17	0x3bdb7c75	0.006698186
18	0x3ba1b93d	0.004935412
19	0x3bdc589e	0.006724431
20	0x3f8c678c	1.09691
21	0x3f05cf0d	0.5226906
22	0x3f98d9d7	1.194148
23	0x3f89d927	1.0769395
24	0x3fe61e59	1.7978011
25	0x3fdabde1	1.7089196
26	0x3ff96e7b	1.9486841
27	0x3e9b9b19	0.30391768
28	0x3a505ea6	0.0007948674
29	0x3f895c46	1.0731285
30	0x188789c0	3.5035774e-24
31	0x3b08c6cd	0.0020870448
32	0x3f889af5	1.0672289
33	0x3ff8f60f	1.9450091
34	0x00000004	6e-45
35	0x3d308fdb	0.04310594
36	0x3e9f0b35	0.31063238
37	0x3e315181	0.17316248
38	0x3de0f851	0.109848626
39	0x3fc52f3e	1.5405042
40	0x00000004	6e-45
41	0x3fa87270	1.3159924
42	0x00000004	6e-45
43	0x3fe01c22	1.7508585
44	0x3dc9ca42	0.09853031
45	0x3fc240fa	1.5176079
46	0x3d5ab008	0.053390533
47	0x3c75aed5	0.0149952965
48	0x3fc02065	1.5009886
49	0x3f258461	0.6465512
50	0x3b058c86	0.0020377948
51	0x3fd98012	1.6992209
52	0x3caa0e1c	0.020758681
53	0x3fb452fb	1.4087824
54	0x3fd9656b	1.6984075
55	0x4003e4f0	2.0608482
56	0x3eb484c6	0.35257548
57	0x3e1e73b7	0.15473829
58	0x3ddd7f9c	0.10815355
59	0x3f983d65	1.1893736
60	0x3fdef4f4	1.7418504
61	0x3d8a0965	0.06740073
62	0x3fe2f802	1.7731936
63	0x3e027432	0.12739637

layers.0.norm_in.running_var f4 [64]
0	0x3e151c30	0.14561534
1	0x3e3713ff	0.17878722
2	0x3f2b6b07	0.66960186
3	0x3e2acc4d	0.16679497
4	0x3df5563a	0.11979337
5	0x3e9577fd	0.29193106
6	0x3db0b231	0.08627737
7	0x00000004	6e-45
8	0x3f24ec58	0.6442313
9	0x3d8b00ff	0.06787299
10	0x3db54777	0.088515215
11	0x3ea3f336	0.32021493
12	0x3bce0452	0.006287136
13	0x3c4f929d	0.012669233
14	0x3c0db666	0.008649444
15	0x3eaf32be	0.342184
16	0x3dcdfbda	0.100578025
17	0x3bac7f58	0.005264204
18	0x3b544cc8	0.0032394398
19	0x3bbd65ad	0.005779943
20	0x3dd7c432	0.10535468
21	0x3d7c3555	0.0615743
22	0x3f1a18e9	0.6019426
23	0x3e8d1975	0.27558485
24	0x3ed39c68	0.41330266
25	0x3eaf1c4a	0.3420127
26	0x3f4e3858	0.80554724
27	0x3ea7e9e2	0.32795626
28	0x39df7763	0.00042622825
29	0x3ec943fc	0.3930968
30	0x167986dd	2.0156615e-25
31	0x3aa72155	0.0012751023
32	0x3e116db5	0.14202006
33	0x3e7ba5c8	0.2457496
34	0x00000004	6e-45
35	0x3bf8b0ac	0.0075894203
36	0x3e067873	0.13131885
37	0x3e095d48	0.1341449
38	0x3d950c5d	0.07277749
39	0x3fa921b4	1.321341
40	0x00000004	6e-45
41	0x3e3ae588	0.18251622
42	0x00000004	6e-45
43	0x3e3557bf	0.17709254
44	0x3d22eeb4	0.039778426
45	0x3e84d852	0.2594629
46	0x3cea8a69	0.028630452
47	0x3c0eeac8	0.008722968
48	0x3e5d4ac7	0.21610557
49	0x3e894528	0.26810575
50	0x3a9afdb8	0.0011824882
51	0x3e862230	0.26197958
52	0x3c8e3b1e	0.017362174
53	0x3e16a148	0.14709961
54	0x3e8b0a7a	0.2715643
55	0x3edd0c88	0.43173623
56	0x3e0d0ca5	0.13774355
57	0x3d86e106	0.065858886
58	0x3d385ede	0.045012347
59	0x3e324d79	0.17412366
60	0x3e50c352	0.20387009
61	0x3ccb9f35	0.02485619
62	0x3e64120f	0.22272514
63	0x3df38080	0.11889744

layers.1.conv_in.weight f4 [16, 32, 3, 3]
0	0x3d4e3f81	0.05035353
1	0xbd39dc5e	-0.045376174
2	0x3dccd527	0.10001593
3	0xbdaa4e26	-0.08315687
4	0x3ad2e646	0.0016090355
5	0x3e01efc8	0.12689126
6	0xbdd5aefd	-0.10433767
7	0x3d59bdd6	0.053159557
8	0xbd82d31d	-0.06387923
9	0x3cf072dd	0.029351646
10	0x3d960674	0.073254496
11	0xbe0e404f	-0.1389172
12	0x3daaae24	0.08333996
13	0xbd0a0cec	-0.03370373
14	0x3d71e69f	0.059057828
15	0x3cc1ee45	0.023673186
16	0x3cb38f5a	0.021918941
17	0x3b27a36b	0.0025579582
18	0xbd0c12d6	-0.03419765
19	0xbe0963aa	-0.13416925
20	0xbcb0ccb0	-0.021581978
21	0xbd8678f8	-0.06566042
22	0xbe369408	-0.17829907
23	0x3d9a7e50	0.075436234
24	0xbe1d1afd	-0.15342326
25	0xbb4ce404	-0.0031263838
26	0x3d5bfef9	0.053709958
27	0x3d994d3c	0.074854344
28	0x3db61adb	0.08891841
29	0xbdac3fd2	-0.0841061
30	0xbe06f743	-0.1318026
31	0xbe09b5a9	-0.13448204
32	0x3e27ca02	0.16385654
33	0x3d55ef67	0.052230265
34	0x3d8b412d	0.06799541
35	0x3e1ca838	0.15298545
36	0x3d97adcf	0.07406198
37	0x3e202390	0.15638566
38	0x3e5dec1b	0.21672098
39	0x3da58471	0.08081902
40	0xbb93a9ba	-0.004506317
41	0x3e0e044f	0.13868831
42	0xbcdba9d0	-0.026814371
43	0xbe23ceba	-0.15996829
44	0x3c28a57b	0.01029336
45	0xbd65a04b	-0.05606107
46	0x3d4f7646	0.050649904
47	0x3c817b2e	0.015805807
48	0x3db36bf9	0.087608285
49	0x3de65b0e	0.11247836
50	0xbdb8b65f	-0.090191595
51	0x3dd4bef7	0.10387986
52	0xbdb030f6	-0.086030886
53	0xbc962d4a	-0.018332142
54	0x3d84bbc3	0.06481125
55	0xbd2663fd	-0.0406227
56	0xbd8953bb	-0.067054234
57	0x3c87c647	0.016574038
58	0x3e0e67ba	0.13906756
59	0x3e207927	0.15671216
60	0x3d7a2ea2	0.06107963
61	0x3d8b96ea	0.06815894
62	0x3bb19893	0.0054197996
63	0xbd084a58	-0.033274025
64	0xbe38e1a6	-0.18054828
65	0x3d2fbd7f	0.042905327
66	0xbe06ca80	-0.13163185
67	0x3e5b01c5	0.21387394
68	0x3d66a449	0.05630902
69	0xbcc56593	-0.024096286
70	0xbd10c8ef	-0.035347875
71	0xbb8fdf75	-0.004390652
72	0x3d1ae922	0.03781999
73	0xbe38a57c	-0.18031877
74	0x3df7aa45	0.12093023
75	0x3d1129f0	0.035440385
76	0x3dce9ab1	0.10088099
77	0x3d2e48e4	0.042549983
78	0x3e31afa3	0.17352156
79	0x3dd49b20	0.1038115
80	0xbe08d41e	-0.13362166
81	0x3d23be44	0.039976373
82	0xbc2d8c60	-0.01059255
83	0x3cb707cf	0.02234259
84	0x3d2fe142	0.042939432
85	0xbb8788b7	-0.0041361707
86	0x3b584e46	0.003300564
87	0x3d0c665c	0.034277305
88	0x3c323e13	0.010879057
89	0x3d1e425d	0.038637508
90	0xbe88d07a	-0.26721555
91	0xbea7ef5d	-0.32799807
92	0xbb3632eb	-0.0027801346
93	0xbd79209f	-0.060822126
94	0x3e524210	0.20533013
95	0xbcbb3520	-0.02285248
96	0x3d1efd34	0.038815692
97	0x3de6d4e0	0.112710714
98	0x3bc1d32f	0.0059150676
99	0x3d307893	0.04308374
100	0xbd900ea1	-0.0703404
101	0xbdd6001d	-0.1044924
102	0x3cfd487b	0.03091835
103	0x3d5fdbdb	0.05465303
104	0x3cacd933	0.021099662
105	0xbccdc73b	-0.025119415
106	0x3e201a93	0.15635137
107	0x3b55d3ef	0.0032627543
108	0x3de9a3d3	0.114082
109	0x3e474328	0.19459212
110	0xbd2ce2c2	-0.04220844
111	0x3d7d16bd	0.061789263
112	0xbd9d7d7a	-0.076899484
113	0x3ca8149e	0.020517644
114	0x3d3e3b4c	0.04644327
115	0xbdb8b1a8	-0.0901826
116	0xbcc7cd89	-0.024389999
117	0x3d80f2b9	0.06296296
118	0x3d37900e	0.044815116
119	0x3d72260c	0.059118316
120	0xbd0f1ffd	-0.034942616
121	0xbd4d00e7	-0.05004969
122	0xbde43fbd	-0.111449696
123	0xbc8734cd	-0.01650467
124	0xbd849096	-0.0647289
125	0x3d63221c	0.05545245
126	0x3d1345db	0.03595529
127	0x3ca71e58	0.020400211
128	0x3e0301ed	0.12793703
129	0x3d15fc8c	0.0366178
130	0xbe17ebd8	-0.14836061
131	0xbb090800	-0.002090931
132	0x3c80b67d	0.015712017
133	0x3e0fc4ae	0.14039871
134	0x3e10b6ff	0.14132307
135	0x3b52ad71	0.0032146836
136	0x3d9a657d	0.075388886
137	0xbbc38881	-0.0059672003
138	0xbd7ecc79	-0.06220672
139	0x3cf11e7c	0.029433481
140	0x3cddb868	0.02706547
141	0xbb27f90a	-0.0025630617
142	0xbce7412c	-0.028229319
143	0x3c9ede0f	0.019392995
144	0xbd89a182	-0.06720258
145	0xbc3ebcdc	-0.011641707
146	0xbd91a7e8	-0.07112104
147	0xbc654e41	-0.013995708
148	0x3b3084ca	0.0026934617
149	0xbd914fd5	-0.07095305
150	0x3d265539	0.04060862
151	0xbe68b8fc	-0.22726816
152	0xbd5aa22d	-0.05337732
153	0xbc78bcde	-0.015181748
154	0x3de2ea2d	0.11079822
155	0x3c2c1144	0.010502163
156	0x3cb80cb9	0.022467004
157	0xbd7b8621	-0.061407212
158	0x3e33790f	0.17526649
159	0xbd82dc8f	-0.063897245
160	0x3d5b7446	0.053577684
161	0xbca2c097	-0.019867225
162	0xbc2079a4	-0.009794626
163	0x3d4f0442	0.05054117
164	0xbd39569b	-0.04524861
165	0x3d39babc	0.0453441
166	0xbe003c16	-0.12522921
167	0x3d6738cd	0.056450654
168	0xbcaa2093	-0.020767486
169	0xbdd4025b	-0.10352012
170	0x3dd25b2e	0.102712974
171	0x3e58944e	0.21150324
172	0x3dcda7f1	0.10041798
173	0x3d8f0b4e	0.06984578
174	0x3dfb7442	0.12278034
175	0x3e3db0d4	0.18524486
176	0xbd78f7bf	-0.060783144
177	0x3e750280	0.23926735
178	0xbd7ecfbe	-0.062209837
179	0xbd56ca1b	-0.052438837
180	0x3d50027b	0.050783616
181	0xbdb42e46	-0.087978885
182	0x3e4abbc0	0.19798183
183	0x3c679a60	0.014135927
184	0x3de0cfb3	0.109771155
185	0x3d6ccf69	0.05781499
186	0x3d015488	0.031574756
187	0xbd7394da	-0.059468128
188	0x3ad559fc	0.0016277428
189	0x3d39e685	0.045385856
190	0xbe1e00b4	-0.15429956
191	0xbd85aed5	-0.06527487
192	0xbe34e1d6	-0.17664275
193	0xbd64190d	-0.055687953
194	0xbe126c1b	-0.14299051
195	0xbe59154c	-0.2119953
196	0xbe342d14	-0.17595321
197	0xbc545119	-0.012958788
198	0x3c4492a3	0.011997852
199	0xbda127fd	-0.07868955
200	0x3de93fde	0.11389135
201	0x3d0339ef	0.03203767
202	0xbc62f3ad	-0.013852042
203	0x3d8a1e16	0.0674402
204	0x3e070cd9	0.13188495
205	0x3cad2be2	0.021139089
206	0x3d98ae74	0.07455149
207	0xbd21b941	-0.039483313
208	0xbe43379c	-0.19064182
209	0xbd21c34c	-0.03949289
210	0xbd1c3c3c	-0.03814338
211	0xbe69d989	-0.2283689
212	0x3d7e4f98	0.062087625
213	0xbe79d570	-0.24397826
214	0x3d9ec4a2	0.077523485
215	0xbd2ad586	-0.041707538
216	0x3e395795	0.18099816
217	0x3b0c1e85	0.0021380496
218	0xbd1bcb22	-0.03803552
219	0xbca2be08	-0.019866005
220	0x3ddecc61	0.10878826
221	0x3d5f3c61	0.05450094
222	0xbe4df6b2	-0.20113638
223	0xbe4bfd20	-0.19920778
224	0x3e010cf7	0.12602602
225	0x3dcbf700	0.09959221
226	0x3e52eee2	0.20598939
227	0xbe050d90	-0.12993455
228	0x3d825ec0	0.063657284
229	0x3e3849a5	0.17996843
230	0x3d07d059	0.03315768
231	0x3d8e495d	0.06947587
232	0x3d0b465d	0.03400265
233	0xbcc63ae1	-0.024197998
234	0x3dc33ce9	0.09533102
235	0x3e5514d2	0.20808724
236	0x3e002d3e	0.12517259
237	0xbdeaca88	-0.11464411
238	0xbc9862d9	-0.018601822
239	0xbd7954a5	-0.06087174
240	0x3dadfa6f	0.08495032
241	0xbd0a30f0	-0.033738077
242	0x3d40f511	0.047108714
243	0xbcf623b2	-0.030046318
244	0xbde77ed4	-0.113034874
245	0x3d9baf52	0.07601799
246	0xbde06f22	-0.10958697
247	0xbe52eb5c	-0.20597595
248	0x3d4a5936	0.049401484
249	0xbda9078f	-0.08253395
250	0xbdb85a43	-0.09001591
251	0xbb654b24	-0.0034987414
252	0x3c3e8f80	0.011630893
253	0x3d0f410c	0.034974143
254	0xbda31eb3	-0.0796484
255	0x3ae7a3f0	0.0017672759

layers.1.conv_in.bias f4 [16]
0	0xbe540fd4	-0.20709163
1	0xbea96a97	-0.33089134
2	0xbe8d0321	-0.2754145
3	0xbd91ba78	-0.07115644
4	0xbe9960bc	-0.29956615
5	0xbe652b83	-0.2237988
6	0xbeaa4a29	-0.33259705
7	0xbe39829b	-0.18116228
8	0xbea69b08	-0.32540154
9	0xbe04c647	-0.12966262
10	0xbefd8922	-0.49518687
11	0xbda654d5	-0.08121649
12	0xbec361cc	-0.3816055
13	0xbed03fbe	-0.4067363
14	0x3e861f90	0.26195955
15	0xbcd8b077	-0.026451332
