weights/conv_5x5_64.pth (torch, 360314 bytes, 73 tensors)

conv_in.weight f4 [64, 13, 5, 5]
00000000: 1e20 42be 4347 3d3e 9f63 41be 95b1 d63c
00000010: 6be1 98bb 77a6 17bd a86e 84bc 9699 c9bd
00000020: 7b65 ec3d 20d2 60bc 63ca a6bc 52bf 2cbf
00000030: 05ae 1d3e 837c 27be 988c 593e 20d6 853e
00000040: d39b a1be 878e aa3e 8497 e43c 1d02 08be
00000050: f28e 3bbe e5ec 84be 5c5d 34bd fcab 26be
00000060: b655 c6bd d0d5 b93c c2cf c5bd b36b bbbc
00000070: 8049 dbbd 74d2 03be 4b95 9abc e6d2 9ebe
00000080: 76a8 a83c 1220 4abe 1cab 02be 26b5 2cbd
00000090: 2776 1fbf eb03 0cbf 4294 78be 39ec 75bd
000000a0: c5a1 5fbd 7ea5 0abf 94ab 3b3e 98b7 163c
000000b0: 2f24 0fbe 36c2 603c cbfc 11be 22f2 b63c
000000c0: b772 fabd f3b1 05bd 2e05 fabd bded 95be
000000d0: dcfb 48bd 978b f93c 13a3 fbbd 3576 b4bc
000000e0: 1285 0cbe 2e6a 17be 2d0b bebd f829 9a3d
000000f0: 0e4f 2ebd 2f62 9ebd 23ff cbbe 4201 f7bd
00000100: f23f bdbe c2d7 fabc e8b6 543b 41e9 6c3d
00000110: b0bc 143e 1bc4 36be c1fc 073c 6eb8 03bf
00000120: db22 debd e598 37be 40ca 69bc 7c80 8fbc
00000130: 47b0 74be 8415 0ebe 03d6 a1be 4483 04bd
00000140: b36f 91be 6e8a 53be 43cf 43be 78ab 573d
00000150: 2725 0c3d 1316 85be d24c 35bc 6742 763b
00000160: e351 13be 6fc9 8fbe b520 aebe ba80 f73d
00000170: 738f 88be c28d d6bc c814 64be 1120 4fbe
00000180: 56e9 3cbe 9ffd 33be 4eab 82bd a423 b8bd
00000190: 143e 4ebc fcb5 3cbd 793a 82be 0c0a 6bbe
000001a0: eea3 8bbe 710b f5bd bf2e 42be 69ac dbbe
000001b0: a7c6 0abd 7c2b 3abe 9a4d 98be 62a0 ffbe
000001c0: 1745 823e b5c6 583d bf17 ddbe 3ca8 393e
000001d0: 3c4f 9f3e a63f 8abe eda4 26be 9438 c73d
000001e0: adf2 86bd 7072 d23d 9dec b5be c3eb 4cbe
000001f0: 18d6 113d c4a4 87be f981 183e c706 183c
00000200: 631e cfbd 1388 44be df8e 0abe 54f1 a1be
00000210: f2ba cfbe def3 91be dd63 013e 9f38 1ebf
00000220: c414 ccbe 773b 983d 6c0a b7bd 6e98 90be
00000230: 9c74 1f3d 5612 803d cb9e bebd 57a6 423d
00000240: 68f9 b23c f8f2 cebd 8450 37be ec51 d33c
00000250: 5c1e c1bd 1f75 66be ed27 1d3e 5b6a 71be
00000260: 544f 11be 81dd d73d 82e5 febe c266 9d3e
00000270: 8b94 693a f9b9 c4be 1ce4 4a3e 3ec2 13be
00000280: ed38 bdbe 6dd8 643d 52de 25be afe6 793c
00000290: 50cb 24be 3ee0 85be ab0a cbbe ec00 04bf
000002a0: 5f1f d7bb 1afe e4be deda d73d 13fc 953e
000002b0: 10df fbbe 0bab fabb e36c ae3e 912b e0be
000002c0: dbbe 77be 3d3f acbe 96e8 95bc 6181 073e
000002d0: d1ee 78bd 0c32 07bf 189d 1abf 145d 03bf
000002e0: 8baf 67be 228a 53be f423 38bf 3dd2 9bbe
000002f0: 2b82 63bf 1e26 88bd 26fd 91bd 6ae1 4bbf
00000300: 05d2 7ebf 9f12 0bbf 0c64 acbe 5536 e4be
00000310: 8759 28be f6bb aebe 7cd1 6ebe 4540 b3be
00000320: dc8a b3be 975f 33bf 2605 3dbf a265 9cbe
00000330: 6633 d8be 8db4 a83e ed64 1ebe a99a d0be
00000340: 51f0 2bbf 63db 6bbf 9304 1e3f 08de 163f
00000350: fe2b 083f e85a 0ebf e43e 01bf cfed 453f
00000360: abdc 0a3f 5711 7e3f 4b60 14bf 2346 14bf
00000370: 5115 eebe cf27 5d3e 2edb 183d 27e7 a7be
00000380: f258 3d3e 46a7 a13d 8741 ccbd 3981 6bbd
00000390: 8576 b13c 8326 9cbb 4589 f1bc cd81 f23d
000003a0: d966 36bd 03e6 ad3d 6e0b 15ba 8b9b 84bd
000003b0: 6526 643e 5021 e23d 5475 093e ae27 bf3d
000003c0: 88ed e7bd 2c45 9bbb b4f4 75be 6f98 d2bc
000003d0: 9a86 183d 89ca e2bc 9b93 1d3e 3759 073d
000003e0: a6d9 7e3d 9262 a9bd b3e1 a3bd 3d5b 4d3e
000003f0: 86bb 383e 46b4 063d 4402 2dbd 41e0 e63d
-0.18957564 0.18484215 -0.18885659 0.026207725 -0.004665544 -0.037023988 -0.016166046 -0.09843747
0.11542793 -0.013721973 -0.020360177 -0.6747943 0.15398414 -0.16356091 0.21245039 0.26139927
-0.31564197 0.33311865 0.02790428 -0.13282056 -0.18316248 -0.25961986 -0.044034347 -0.16276544
-0.09684317 0.022684962 -0.09658767 -0.022878503 -0.107073784 -0.1287325 -0.018870017 -0.31020278
0.020588141 -0.19738796 -0.12760586 -0.042164944 -0.6228966 -0.5469348 -0.24275306 -0.060039733
-0.054597635 -0.5415877 0.1832717 0.009199046 -0.13978647 0.0137181785 -0.14256589 0.022332255
-0.12228911 -0.03264041 -0.12208019 -0.29282942 -0.049068317 0.03046207 -0.12286963 -0.022029022
-0.13722637 -0.14786598 -0.09279475 0.07527536 -0.04255586 -0.07733571 -0.3984309 -0.12060787
-0.3696285 -0.03062046 0.0032457653 0.057839636 0.14525104 -0.17848246 0.008300007 -0.5145329
-0.10846492 -0.17929418 -0.014269412 -0.01751732 -0.2389537 -0.13875395 -0.3160859 -0.032351747
-0.28405532 -0.20658275 -0.19122033 0.05265376 0.03421512 -0.25993404 -0.011065679 0.00375762
-0.14386706 -0.2808337 -0.34009328 0.120850995 -0.26671943 -0.026190642 -0.22273552 -0.20227076
-0.18448386 -0.17577218 -0.0638033 -0.08991173 -0.012588043 -0.04607199 -0.25435236 -0.22953051
-0.27273506 -0.11965073 -0.18963145 -0.42904976 -0.033880856 -0.1818065 -0.29746705 -0.4992705
0.25443336 0.052923877 -0.4318218 0.18130583 0.3111514 -0.27001685 -0.16273852 0.09727588
-0.065892555 0.102757335 -0.35532084 -0.20011811 0.035604566 -0.26492894 0.1489333 0.00927896
-0.10113218 -0.19192533 -0.13531063 -0.3162943 -0.40572315 -0.28506368 0.12635751 -0.61805147
-0.39859593 0.07433217 -0.08937535 -0.28241295 0.038929567 0.06253497 -0.09307631 0.047521915
0.021847442 -0.10104936 -0.17901808 0.0257959 -0.09429619 -0.22505616 0.15347262 -0.23575728
-0.14190418 0.105402954 -0.49784476 0.3074246 0.0008910379 -0.38423136 0.1981358 -0.14429566
-0.36957493 0.055870462 -0.1619809 0.015252753 -0.16093183 -0.26147646 -0.39656577 -0.51563907
-0.006565019 -0.44725114 0.105397925 0.2929388 -0.4919362 -0.0076497844 0.3406745 -0.4378324
-0.241939 -0.33641997 -0.018299382 0.13232948 -0.060774628 -0.5281074 -0.60395956 -0.513139
-0.22625558 -0.20658162 -0.7192986 -0.30433837 -0.88870496 -0.06647895 -0.07128362 -0.7964083
-0.99539214 -0.5432529 -0.3367008 -0.44572702 -0.16440402 -0.34127778 -0.233221 -0.3500997
-0.3506688 -0.70067734 -0.7383598 -0.3054629 -0.42226714 0.3295025 -0.15468188 -0.40742996
-0.6716357 -0.9213163 0.6172573 0.5893254 0.53192127 -0.5560746 -0.5048659 0.7731599
0.5424296 0.9924521 -0.5795943 -0.5791952 -0.46500638 0.21597217 0.0373184 -0.32793543
0.18490961 0.07893233 -0.09973436 -0.057496283 0.02166296 -0.004765333 -0.0294844 0.11841164
-0.044531677 0.08491137 -0.0005685602 -0.0647498 0.22280271 0.1104151 0.13423663 0.0933374
-0.11324602 -0.0047384705 -0.24019128 -0.025707452 0.03723774 -0.027684467 0.15388338 0.033044066
0.062219284 -0.08270754 -0.08002033 0.20054336 0.18040285 0.032886766 -0.04223849 0.11273242

conv_in.bias f4 [64]
00000000: 871a 1ebe 745f 723d ddd9 1a3f 787c 10bd
00000010: 123e b53e 8cfe cd3d f291 a43e e8ae 043f
00000020: 7d94 3e3e 14c6 ec3d 7f17 d23e 63e5 fdbb
00000030: 6791 533f 533f 16bd cb39 633d 41ea d73d
00000040: 3b68 aebd 7465 12bd db5f 3abe 5167 bbbd
00000050: a71a b23d fcd6 863f 85c1 e83e a312 223f
00000060: 92cb 9dbd b86d a2bc b893 a8bd bb5b f03c
00000070: a133 e83e 3ec8 503e 9e56 bd3e dff1 08bd
00000080: 9dbf cd3e 4aaa 8e3d e116 773c 935f 633d
00000090: 3cd3 e8bd 0959 993b 3a20 443e 6e2e 443f
000000a0: 5e52 52bd 5162 f73d d097 233d 64d3 253e
000000b0: 7e2b 103f 9e35 3bbc cbe2 673d 8904 9e3e
000000c0: 7046 bbbd 0ec3 1f3d 1695 053e 96ef a53e
000000d0: 1a3f 133f 928f 0d3f fc64 713d 0ea2 423b
000000e0: bcb0 adbc 1f8b 4f3c fa64 1a3f 1671 ae3b
000000f0: 1b8b a8bc e084 093f c58f 15be af54 40bd
-0.15439807 0.059173062 0.60488683 -0.035274953 0.35398918 0.100583166 0.32142597 0.51829386
0.18611331 0.11561218 0.4103355 -0.0077482923 0.8264374 -0.036681484 0.055475038 0.10542727
-0.08515974 -0.035741284 -0.18200628 -0.091505654 0.0869649 1.0534358 0.45460144 0.6330969
-0.077048436 -0.019827709 -0.082313 0.029340615 0.4535189 0.20388886 0.36980146 -0.03343379
0.40185252 0.06966074 0.015081138 0.05551107 -0.11368415 0.0046798033 0.19152918 0.76633346
-0.051348083 0.12079299 0.0399397 0.1619392 0.56316364 -0.011426358 0.05661277 0.30862835
-0.09144294 0.039004378 0.13045153 0.32409352 0.5751816 0.55297196 0.058934197 0.0029698643
-0.021202438 0.012667446 0.6031033 0.0053235395 -0.020574143 0.53718376 -0.14605625 -0.04695576

layers.0.conv_in.weight f4 [32, 64, 3, 3]
00000000: 5ba0 84bd 7f6c 06be eac9 a9bd 69d2 59be
00000010: b248 53bd 762a 093e 1a6e 85be 1843 35bd
00000020: 0c05 323e 9b4c 933d 9a32 0c3e 5ccc c9bd
00000030: 9ffc d4bd 0fd8 1c3e 5750 a4bd d4fa 2bbe
00000040: f06d 22be 2a0c 81be 887c 0d3e e39a 24bd
00000050: 2f2a 0ebe 4406 fb3d 404d 4abe ad9d 833e
00000060: 2cd0 9dbd aea4 c2bd 933b abbc 7b03 30be
00000070: 847f 14bd 026e 8dbe 4e85 723c c175 e7bd
00000080: bf53 883c c50a f339 bb8a 103e 8c5e da3c
00000090: f513 21be 785c 233d 7725 373e 0acc ac3d
000000a0: 511d 19be 697c 283e 123c d3bc 8999 983e
000000b0: b1d9 4d3e d17f 69be a808 21bd 97b4 df3b
000000c0: 3db9 693e 8889 db3c f7e6 b83e 0a53 523e
000000d0: bfa5 ea3d 8ee0 153d d90d c83d 9fc6 1f3e
000000e0: 003d 0c3e c80c 313e b4d8 1cbe df80 dbbd
000000f0: 0192 0abe 2f02 d4bd b20b 8fbe cabb 953d
00000100: ce1f afbd 181d 9d3d 85f7 583e 4e6e 99bd
00000110: 7f27 123e 9b19 a63c c532 53be 9b7b 78be
00000120: c2af 30be 63b0 e33c 3b28 aeba 6137 943e
00000130: 08c3 363e c23f 28be de5b df3d cb60 513e
00000140: 1d48 09be 48b6 103e ec71 96bb a546 41bd
00000150: 5127 823c d403 b1bb 4dcc 233e facb 5bbd
00000160: 03f3 8d3e 020b 563e 7500 733e b057 153e
00000170: c621 d2bd 5e99 89bc d1f7 e4bd ad23 6dbe
00000180: 11ab 2bbc 3739 583e 218a 1bbe ffd4 063c
00000190: 5351 57bc 1ec9 3bbd 5f8c e13c a9fc 2abd
000001a0: d01a 58bd b8e2 74be b9d5 143d da96 d6be
000001b0: 7743 673d 1a51 6a3e cf44 8ebe c577 fd3d
000001c0: 32a8 803e de82 d53d 8de4 593d 91f0 093e
000001d0: 05d7 183d 5b99 65bd 1a17 adbc b657 23be
000001e0: 084a 033e a112 753e 580e be3d a529 be3d
000001f0: ce70 22bd f817 b23e cc29 9f3d bba4 213d
00000200: 3f1e 89bd 3e40 a53d 673c b6bc 6f56 22bf
00000210: 04b8 1c3e a856 c6bd 235f d7bd 2eaa 8ebe
00000220: a9b2 66be ddc4 7dbd dd01 8a3d ec18 19be
00000230: eb38 20bc 6fea 36be 45d1 58be 399a f33d
00000240: 7733 dbbd 247b 01be 45b6 9abd e78c c6be
00000250: bf9e 343c 6442 be3d 8806 1bbc 32e9 9ebd
00000260: 4edd 02bd fd55 cfbe 4705 403e 0ea4 4b3e
00000270: c297 0dbe 00bc 9abe 4f59 9fbe 21c7 a2be
00000280: 32b0 afbd d29b 83bd 76f4 843b 7a45 ebbd
00000290: b07d 753e cd20 fcbd c1e9 d6bd 3b7b f1bd
000002a0: a8d7 0abe ab77 c23b c463 61bd 5894 febc
000002b0: ef88 8e3d 2ffb b5bc 5b11 4bbd 2ba7 bdbd
000002c0: 5577 163e ca8f 10be f89b 61bc 0a06 093c
000002d0: 79d4 3c3d 3b76 093e e058 82bd 40e2 72be
000002e0: 62d5 8dbe e809 64be 869f a4bc f69c eebd
000002f0: 3bed 253e bd12 68bd 50f3 9e3e e6cc 853e
00000300: 75fa c03d 8751 1a3c 3812 2b3e 481c 833d
00000310: 8114 00be b236 90bd 94b0 ddbd 9c83 59bd
00000320: 73d3 c2bc 5653 2a3e c5f1 b4bd b5d3 0e3e
00000330: c5f5 953e 0628 1e3d 35ec ef3c 2e14 4f3e
00000340: ffaf 0a3e ef70 ac3c c022 2c3d 2430 6c3c
00000350: 7961 943e 4004 733e 0a54 c43e ad5b cf3b
00000360: b8c8 30be bc8c 1f3e 4312 143e efe5 04bf
00000370: 9713 ffbd 68fc 8d3d 09af 2bbe 48ba 5dbd
00000380: 7364 a6bd 7559 bf3c bac0 863c 5574 d13d
00000390: ee55 e33c 56ce e53c 6574 5bbe a8b9 e4bc
000003a0: 7739 3bbe b64c 8fbd db3d 28be d728 6d3e
000003b0: 0a12 643d 6b25 56be cec9 9bbd 7232 433e
000003c0: 6a0f 16be ed93 0fbd e843 843d cf88 2ebd
000003d0: aaa5 92bc 6007 183e 8577 d3bd 3d2c 123e
000003e0: fc0e d1bb 7175 ae3d fd43 213d 781b 603d
000003f0: 4003 a1bd 0dee 4cbb a48d c5bc 6820 10be
-0.06475898 -0.13127325 -0.08290465 -0.21271671 -0.051583 0.13395104 -0.26060563 -0.04425344
0.17384738 0.07192346 0.13691178 -0.098534316 -0.10399746 0.15316795 -0.08023136 -0.16794902
-0.1586225 -0.25204593 0.13817036 -0.040186774 -0.1388328 0.122570544 -0.19756031 0.25706235
-0.07705721 -0.095040664 -0.02090243 -0.17188828 -0.03625442 -0.27622992 0.01480229 -0.11301757
0.016641496 0.00046356596 0.14115421 0.026656412 -0.15730269 0.039883107 0.17885385 0.08437355
-0.1495259 0.16453709 -0.02578548 0.29804638 0.20102574 -0.22802664 -0.039314896 0.006826948
0.22824569 0.026798978 0.36113712 0.2053949 0.11457395 0.036591105 0.09768266 0.15603112
0.13695145 0.17290032 -0.1531704 -0.107179396 -0.13532259 -0.10351979 -0.2793861 0.073112085
-0.08550988 0.07671565 0.21188171 -0.07491742 0.14272879 0.020275882 -0.20624836 -0.24265902
-0.17254546 0.027794069 -0.0013287136 0.289485 0.17847836 -0.16430572 0.10906194 0.2044708
-0.13406415 0.14132035 -0.0045912173 -0.047186513 0.015887888 -0.0054020677 0.15995903 -0.053661324
0.27724466 0.20902637 0.23730643 0.14584231 -0.10260348 -0.016796764 -0.1118008 -0.2315814
-0.010477797 0.21115576 -0.15189411 0.008229493 -0.013141948 -0.045846097 0.027532754 -0.04174486
-0.052759945 -0.23914611 0.036336634 -0.41911966 0.056460824 0.228825 -0.27786872 0.1237636
0.25128323 0.104253516 0.05319648 0.13470675 0.037314434 -0.056054454 -0.02112918 -0.15951428
0.1282121 0.23932888 0.092800796 0.09285287 -0.03965836 0.34783912 0.07771644 0.03946374
-0.06695222 0.08068894 -0.022245599 -0.6341314 0.15304571 -0.09684497 -0.10516193 -0.27864212
-0.22529091 -0.06195532 0.06738637 -0.14950913 -0.009779195 -0.17862867 -0.2117358 0.1189465
-0.107031755 -0.1264463 -0.075542964 -0.38779375 0.011024176 0.09290007 -0.009462006 -0.07759322
-0.031949334 -0.4049529 0.18752013 0.198868 -0.13827422 -0.30221558 -0.31122825 -0.31792548
-0.085785285 -0.06426205 0.0040574623 -0.11487861 0.23973727 -0.12310944 -0.10493804 -0.117910825
-0.13558829 0.0059346757 -0.055026785 -0.031076595 0.06959712 -0.0222145 -0.0495771 -0.092604004
0.14693959 -0.14117351 -0.013770096 0.008363256 0.046101067 0.13424008 -0.06364608 -0.2371912
-0.2770186 -0.22269404 -0.020095598 -0.11651032 0.16203777 -0.056658495 0.31045008 0.26132888
0.09422771 0.009418852 0.16706169 0.064018786 -0.12507822 -0.07041682 -0.10824695 -0.053104028
-0.023782467 0.16633353 -0.088351764 0.13947947 0.2928907 0.038612388 0.029287437 0.20222542
0.135437 0.021049945 0.042025328 0.0144157745 0.28980616 0.2373209 0.38345367 0.0063280673
-0.17264068 0.1558103 0.14460091 -0.5191335 -0.12454908 0.06932908 -0.1676599 -0.05413273
-0.08124628 0.023358086 0.016449321 0.10227267 0.027750935 0.02805249 -0.2143112 -0.027920559
-0.1828364 -0.06997053 -0.16429846 0.2316011 0.055681266 -0.20912711 -0.076068506 0.19062212
-0.14654317 -0.035053182 0.064582646 -0.04261094 -0.01790126 0.14846563 -0.10325531 0.14274688
-0.00637996 0.08518494 0.03937148 0.054713696 -0.07861948 -0.003126982 -0.024115391 -0.14074862

layers.0.conv_in.bias f4 [32]
00000000: 2440 3dbd f966 edbd d033 b9be d532 52be
00000010: 2ca7 10bf adba b8be 02ee 42be 30ae 50be
00000020: 36e2 79be f589 0ebe db76 e4bd f228 17be
00000030: db3e 1dbe d7d9 3cbe ce32 07be 5499 21bf
00000040: ab33 0fbf 47a5 9bbe c729 8abe f6ad dfbe
00000050: 48c1 6cbd be12 8cbe c839 a0bd 4b6d b3be
00000060: fe7e 4bbe b78f 32bf 9424 b0be 3da3 69be
00000070: 1c4e b6be 9b39 1abd b493 acbe af7a 3dbe
-0.046203747 -0.11591906 -0.36172342 -0.20527203 -0.56505084 -0.36079922 -0.19036105 -0.20378947
-0.24402699 -0.13919814 -0.111554824 -0.14761713 -0.15356009 -0.18442474 -0.13202974 -0.63124585
-0.55938214 -0.30399534 -0.26985 -0.4368741 -0.057801515 -0.2735805 -0.07823521 -0.3504432
-0.19872662 -0.6975054 -0.34402907 -0.22816177 -0.35606468 -0.037652593 -0.3370644 -0.18503831

layers.0.conv_out.weight f4 [32, 32, 3, 3]
00000000: aadc 383d 13d7 c73d dca9 ff3c 437e ca3d
00000010: 5c6e 75bc 83df 6d3d 10ca 5e3d 3555 063d
00000020: efef 413e dcc2 373d edb3 1f3e 9c64 123e
00000030: 54ef 17be 7362 a13c 183c dfbd 1963 40be
00000040: 8c5d 67bd f16d 333e 3332 4d3e 89bb ef3d
00000050: 24bb 8fbe 0287 b33c 825b 00be 877d ebbc
00000060: c4e6 b03d 1385 49be 63bf 79be 0c80 92be
00000070: b331 b5be 6665 7a3e ce56 0fbe 3b1b fa3c
00000080: d0f2 9bbe d584 c03b 1e75 e43d c538 a4bd
00000090: 9194 ec3c db9e 1d3d 6fd8 a7bd 76ba 303d
000000a0: bd8d 313c 4ddc 4b3d b19d 76bd 9329 21be
000000b0: 798f c0bd e224 eebe 4100 6c3d 4a60 a9bd
000000c0: 9adf 7dbe cdcc 723d 4c2c 003e 9204 7abe
000000d0: e27d 33ba 020a bfbc 1c5b 833e 7e88 a13c
000000e0: bd6a 14be 292b b53e d14d 933d 3ec5 16bd
000000f0: 106a e93d 34b3 14bd d707 19be 9bc3 c3be
00000100: 460c 313d 4a2a 6bbe aad4 a5be 52a1 a03e
00000110: f568 91be b041 36be 801a 81bd 8482 14be
00000120: a9a6 80bc 8ea0 19be 25e1 893e 0915 c9bd
00000130: f512 53be 154d cf3d 76d5 58be c66b 8fbd
00000140: bb87 ce3a 5e24 67bc 7a9c a6bd a986 ae3d
00000150: eaac 29bf 5452 10be 8db7 16be 7fe8 36be
00000160: 7aec 073d b142 5ebc 49d0 073e 92c4 a33c
00000170: 541b ee3d 3924 6bbe 9434 60bf 2eb8 0a3d
00000180: 5957 093e 6734 70bd 5fe3 9c3d 4f4e d7be
00000190: df96 edbc 68f1 c6bb b25f 053d 4fab 2a3c
000001a0: 4752 90bc 6ee7 ebbe cccf 263e 0600 c9bd
000001b0: 7314 35be 5256 c2bd 6068 c3bd dd83 a5be
000001c0: 690d 5b3d eea8 943d 01b6 3c3d d861 a6bd
000001d0: 3412 e63d 2179 8e3c 3f82 b5bd 4711 2dbc
000001e0: 347f 673d 5a7b ddbd 0123 65bc ca53 8bbd
000001f0: 0b09 1ebe 4a6b 02bc f56c b2bd ae45 393d
00000200: 3da1 28be 2fc2 bdbd 05a8 3e3d bd07 f1bd
00000210: a885 1ebd b6de 483e 79ef 97bc 5c33 b83e
00000220: 6f62 053f 7565 9a3d 0aaa c2bd 7b79 30bb
00000230: 99a0 49bc e5a8 0dbd 6d6a b13d 3acc 273e
00000240: 2700 d23d a7be c23d e297 fe3d b035 da3e
00000250: 0134 263e 53d7 493e 50be a7bd 88e8 5bbb
00000260: d7f7 533e 5478 c53d ce41 bc3e fcae 903c
00000270: 30a5 d4be e0af bbbe b650 9f3e b5a3 66bc
00000280: 9b2b b93c c33f 313d a7cd 973d 53de 243d
00000290: bc4b 9bbd 9920 9cbe 7930 09bd 4e02 c53d
000002a0: 523a d63d c407 afbe b675 1bbe 1838 b5be
000002b0: 557a 0cbe ef94 543e f294 2abe beff b0bc
000002c0: 0b86 25bd 1184 1dbe 3274 f3bd 092f 863e
000002d0: 07f4 3fbe c2e3 96be 6afc 093e 3f12 31be
000002e0: bba4 ab3d f9df 713e 3a77 07bc d588 c8bd
000002f0: d668 bcbb d0cb 9abe dd35 5c3d bdcf d5bd
00000300: 7a99 40be 0075 2a3e b6ec 503e edfb 56be
00000310: 85c2 cebd 37c1 bf3d ee48 33be d0d6 77be
00000320: ff78 03bd 38b1 a43e fcf7 8b3d b201 093e
00000330: 937d e33d 1749 81bc 0233 203d 5f25 60be
00000340: c2f2 d9bc b2f8 2c3e fa10 373c 5303 0e3e
00000350: 1d91 d83c f389 8f3d 6119 f13d 9c65 efbd
00000360: 41ef 043c 76ec 1c3e b616 013e c3d8 653c
00000370: 3713 0cbe 24be 9f3d 7d5a 61be 1bb9 8e3c
00000380: 9995 bc3d 6145 54be 110d cbbd b8ab d6bc
00000390: c9d8 99bd 271c bdbd 4d77 443d 64f1 4d3e
000003a0: 5986 7b3e e79d 893c 34ec 1e3b 27cd dcbd
000003b0: 5494 59bd 1d41 6abd 81d2 df3d bc93 9b3d
000003c0: ea9c 45be 2b47 943e 9453 0abd 9f9a 773d
000003d0: 1013 673d 7a51 8c3d 9b33 9dbe ea2d e5be
000003e0: 3e52 613d 79cf 193e 1730 7d3d 1fa2 a0bd
000003f0: 45fa a23e 510f 9a3e 6f8d 7bbc f3f7 8c3e
0.045132317 0.09757819 0.031208925 0.09887364 -0.014979925 0.058074486 0.05439192 0.032796104
0.18939184 0.044863567 0.1559598 0.14296192 -0.1483739 0.019700265 -0.10900134 -0.18787803
-0.056485698 0.17522408 0.2003868 0.11705691 -0.28072464 0.021914963 -0.12534907 -0.02874638
0.08637765 -0.1967967 -0.24389414 -0.28613317 -0.3538948 0.24452743 -0.13997957 0.030530563
-0.3045869 0.00587521 0.11155151 -0.080186404 0.028879436 0.038481575 -0.08195578 0.043146573
0.010837016 0.049770642 -0.06020898 -0.15738516 -0.09402365 -0.46512514 0.05761743 -0.08270319
-0.24792328 0.059277344 0.12516898 -0.24415806 -0.0006847066 -0.023320202 0.25655448 0.019718405
-0.14493842 0.3538449 0.07192577 -0.0368092 0.11397183 -0.036303714 -0.14944397 -0.38235173
0.043224595 -0.22965351 -0.32388812 0.31373078 -0.28400388 -0.17798495 -0.063038826 -0.14502913
-0.01570447 -0.15002653 0.26929584 -0.09818465 -0.206127 0.10122124 -0.21175179 -0.07002978
0.0015757004 -0.014107792 -0.08135314 0.08521778 -0.6627947 -0.14093906 -0.14718457 -0.17862128
0.033184506 -0.013565705 0.13263048 0.019991193 0.11626306 -0.22963037 -0.8758023 0.033867054
0.13412227 -0.058643725 0.07660555 -0.42051932 -0.029002605 -0.0060712583 0.032561965 0.01041682
-0.017617358 -0.46075004 0.16290206 -0.098144576 -0.17683582 -0.094891205 -0.09541392 -0.32327166
0.053479586 0.07258783 0.04607201 -0.08124131 0.11233941 0.017391743 -0.08862733 -0.010563201
0.056517795 -0.10814543 -0.013985396 -0.06803091 -0.15433137 -0.00796015 -0.08712188 0.045232467
-0.16467758 -0.09265553 0.046546955 -0.11769054 -0.038701683 0.19616207 -0.018546807 0.35976684
0.5210332 0.07538883 -0.095050886 -0.0026927877 -0.012306356 -0.0345849 0.08662877 0.163865
0.10253935 0.0950902 0.12431313 0.42619085 0.16230775 0.19711046 -0.08190596 -0.0033555347
0.20700012 0.096420914 0.36768955 0.017661564 -0.41532278 -0.3665762 0.31116265 -0.014077117
0.0226038 0.0432737 0.07412272 0.040251087 -0.075828046 -0.3049362 -0.033493493 0.0961958
0.104603425 -0.34185612 -0.15181622 -0.3539436 -0.13718541 0.20759939 -0.1665838 -0.021606322
-0.040411036 -0.1538241 -0.11887397 0.2620776 -0.18745433 -0.2947064 0.13475195 -0.17292117
0.08381029 0.23620595 -0.008268172 -0.09791724 -0.005749802 -0.30233622 0.053762306 -0.104400136
-0.18808547 0.16646194 0.20402798 -0.2099454 -0.100956954 0.09363025 -0.17508289 -0.24203038
-0.032097813 0.32166457 0.06834409 0.13379553 0.11107936 -0.015781922 0.039111145 -0.21889256
-0.026605014 0.16891745 0.011173481 0.13868456 0.026436383 0.070087336 0.11772419 -0.11689302
0.008113683 0.15324578 0.1260632 0.014028731 -0.13679205 0.07799938 -0.22007175 0.01742225
0.09208221 -0.20729591 -0.099146016 -0.026204929 -0.075120516 -0.09233885 0.047965337 0.20111614
0.24562968 0.016798927 0.0024249675 -0.10781317 -0.053119972 -0.057191003 0.10928822 0.075965375
-0.19298139 0.28960547 -0.033771113 0.060450193 0.056414664 0.06851478 -0.30703434 -0.44761592
0.055010073 0.15020551 0.06181344 -0.07843422 0.31831565 0.3008981 -0.015353545 0.2753292

layers.0.conv_out.bias f4 [32]
00000000: 3558 213e 2ef0 7fbd b0c6 6c3b 7426 0b3e
00000010: 7e7d 683e ec46 5abe 1269 993e 0269 01be
00000020: b6c4 acbe ffc2 84bd 1d47 8ebd 2836 883d
00000030: aa5e 423d 32c1 6dbd ae74 7cbd 6262 153d
00000040: 5aa7 fbbd fa96 f1bd 78d1 13be 1509 46bd
00000050: 936e 933c 09dd 24be fd17 ca3d f803 1f3f
00000060: e782 1abc 30fd 8fbe 0ce4 a63d 488f 643d
00000070: 02b8 9b3c 6207 9abe 42a6 013d e9f8 77be
0.15756305 -0.062484913 0.003612917 0.13588887 0.22704121 -0.21316117 0.29962975 -0.12637714
-0.3374383 -0.06482505 -0.069471575 0.066509545 0.04745356 -0.058045574 -0.061634712 0.03647078
-0.12287779 -0.117963746 -0.14435375 -0.048348505 0.017997062 -0.16099943 0.09867857 0.6211543
-0.009430624 -0.28122854 0.08148965 0.055800706 0.01900864 -0.30083758 0.031652696 -0.24216045

layers.0.conv_skip.weight f4 [32, 64, 3, 3]
00000000: d583 2abd 072d b8bd 980c a3be e6ba 50be
00000010: da96 f5bd 30c6 72bd 6d91 59be 54f6 e9bd
00000020: e118 33be cd0f d83c 6244 15be 9817 8b3d
00000030: 60d4 4fbd 14e3 d9bd 5f21 993d b67c ecbc
00000040: dadf fb3d 31ad fe3d ac4a 1bbd b12c d23d
00000050: 8827 903c 56de 24be fa25 23be 7c92 f6bc
00000060: 6299 ca3d 7d88 5fbd 64fd 023e 03d9 8bbd
00000070: f5da 5abe 2028 6ebe 4e49 bc3c a2be 733d
00000080: 16e6 41bd 0578 adbe 1eb3 aabd d07c b03e
00000090: 8761 e23d 6b8a 0e3e c6ae 693e 3c78 e4bd
000000a0: 1244 683d 6e20 4dbe 7bbd 703c f6a7 033e
000000b0: 70cd 053d 32c6 0dbe dbde 3a3e 5ee1 dc3d
000000c0: 5c99 68bc 4019 c43a fe8d 94bd 436c 04be
000000d0: 993d 4e3e e108 6e3e c9cd 233e d5c7 67be
000000e0: de17 7fbd ddf5 52bd 9400 8cbe 8dee 853c
000000f0: e93f e9bd 3758 1dbd fa7b bbbd 8bbc debd
00000100: 832c 03be 29c4 21bd e447 3e3e cdbd 85bb
00000110: 94de d23d f261 27be b71b d0bc e5f5 9dbd
00000120: 2771 a33d a44b c8bb 325b ce3d c4c3 2dbe
00000130: a5fc a13c 5edb 3c3e 7f6e 0f3d 5937 763c
00000140: 3225 683e a4fc 24be de76 173e 72e9 b4bd
00000150: e8c6 f6bd 8314 cf3d b9a6 bf3d 3170 27be
00000160: 6e2f 1f3b 038a 223c 3601 9b3d de2c 1ebd
00000170: 9904 753e a485 73bc d5de 89be 3ac6 19be
00000180: 43e3 6bbd 431c 12be 98ad cfbc b89d ff3d
00000190: 9ef7 053e a0df 313e 71ee 063e 91ad 883d
000001a0: 19f9 ae3d 9f52 193c 8bf3 dcbc 3210 1a3c
000001b0: a285 3a3e e6b7 143e d105 22bd 72ad 23bd
000001c0: d3d2 4a3d 9aab 973c d204 003c 4a3c 02be
000001d0: 701f 49bd fd3c 503e eaff b2bd 5737 60bd
000001e0: a73c 12be 7f37 663d a98e c53b 0056 3dbd
000001f0: 17e9 dd3d 76e7 4e3e 2daf c1bc 958c 0abe
00000200: c38c aa3c 5b4e 4dbd 1656 8cbe b61b bc3a
00000210: 35a3 84ba 06b4 d3bc 8a71 15bd b57c 63be
00000220: e7fe 61be 6cbc b9bd c371 0ebe 1911 2fbe
00000230: f29e 92be 7a20 90be 8ff5 5abe 6b3f 29be
00000240: 61e4 22be 4161 6abd b969 4d3e a290 61be
00000250: 5f1e edbb 03ec 353e 7669 23be d746 e1bc
00000260: 5e66 203e 85f1 7c3e 54f0 c43d 43ed 27bd
00000270: 8c24 993d a962 e5bd 37e6 e03d f6c6 243e
00000280: 8c52 d03c bd1c 6f3d a8aa 453e 95bb e23c
00000290: 1413 a93d 9c5a 1abe 2e0c a53d 18ef 79bd
000002a0: 4f33 153d 67f1 2dbe 4a69 d1bd dd7d 6fbe
000002b0: 1b3b 4abe 5b1f bebd b113 5abe 670f a4be
000002c0: 83df 783d d9e9 58be c7c5 dbbd e263 71be
000002d0: 163d 1ebd 9047 a9be 8d68 79bd 062a 76bd
000002e0: 7f91 bfbe 121c 323e 422d a8be 7e07 26bc
000002f0: aa38 4ebe 95b3 5cbd 2967 c03c 1fe2 693e
00000300: 3ca8 e3bd 8c45 ee3c 6db1 aa3e c076 debd
00000310: 6503 28be b45e 3b3d ea05 1939 5d34 c0bc
00000320: 7ea0 24be 9ba0 ec3c aced 153b 4d26 90bc
00000330: 9dae 03be 4977 d13c e330 0abd eac0 aa3d
00000340: cf17 14be cbea ab3d f71e 52be ace5 a63d
00000350: 33ba 61bd 4f41 c5bc 566e 87be f254 e3bd
00000360: 7a99 273d dfc7 9fbd 6a13 cf3d 054d 503e
00000370: be5c 113d 78f4 793e 9eeb f43d aa75 f43d
00000380: 1874 60bd 1bf2 b83d 6ea5 f03d d3e3 99be
00000390: f01d 44be db76 be3d cd52 08be 8692 833d
000003a0: f918 91be 3176 55bd 0ee9 033e 3206 cdbe
000003b0: 4dd2 3b3e 3832 2fbb 34d8 ccbe e9b7 903e
000003c0: 5727 7ebc 32ec 53bd 3b77 893d 4821 93bd
000003d0: d26e 4b3e 4527 933d cfad 063e d97c 1abe
000003e0: 1f4c 89be 7495 f13d cabb 8dbd ec0b a83d
000003f0: fdbb 57bc a6ff 643d b77d 683d aa00 cbbd
-0.04162963 -0.08992963 -0.31845546 -0.20383796 -0.11991663 -0.059271038 -0.21246882 -0.114239365
-0.1748996 0.026374722 -0.14576867 0.067916095 -0.050739646 -0.10639015 0.07477068 -0.02886806
0.12298556 0.124353774 -0.03791301 0.102624305 0.017596975 -0.1610044 -0.15932456 -0.030099146
0.09892537 -0.054573525 0.12791973 -0.06828501 -0.21372588 -0.23257494 0.022984173 0.059507973
-0.047338568 -0.3388063 -0.08334945 0.34470224 0.11053758 0.1391999 0.22820577 -0.111557454
0.056705542 -0.20031902 0.014693613 0.12857041 0.032666624 -0.13845137 0.18249075 0.10785173
-0.01419672 0.0014961138 -0.07253645 -0.12931924 0.20140685 0.23245575 0.1599647 -0.22634824
-0.06227862 -0.051504005 -0.2734419 0.016349101 -0.11389143 -0.038414206 -0.09154506 -0.108758055
-0.12809949 -0.039493714 0.18582112 -0.004081464 0.1029636 -0.16345957 -0.02540384 -0.07712916
0.079805665 -0.0061125327 0.10075988 -0.1696921 0.01977379 0.18443057 0.035017487 0.015027844
0.22670439 -0.16112 0.14791438 -0.08833589 -0.12049657 0.10111334 0.09357972 -0.16351391
0.0024289745 0.0099206 0.0756859 -0.038617007 0.23927535 -0.014863405 -0.2692782 -0.15017024
-0.05758978 -0.14268593 -0.02535133 0.12481254 0.1308274 0.17370462 0.13176896 0.0667373
0.08543605 0.009358077 -0.0269716 0.009403275 0.1821504 0.14523277 -0.03955633 -0.039960332
0.049517464 0.018514443 0.007813649 -0.12718311 -0.049102247 0.20335765 -0.08740218 -0.054740276
-0.1428095 0.05620527 0.0060289693 -0.046224594 0.10835474 0.20205483 -0.0236431 -0.1353019
0.020819074 -0.050123554 -0.27409428 0.001435152 -0.001011944 -0.025842678 -0.036485232 -0.2221554
-0.22069894 -0.09069142 -0.13910584 -0.17096366 -0.2863689 -0.28149778 -0.21382736 -0.16528098
-0.15907432 -0.057221655 0.20059861 -0.2202783 -0.0072362865 0.17765813 -0.15958199 -0.0274996
0.1566405 0.24701507 0.096161515 -0.040997755 0.07477674 -0.112004586 0.1098141 0.16091523
0.025429986 0.058377016 0.19303381 0.027677337 0.08255592 -0.15073627 0.08058964 -0.061019033
0.036425885 -0.16986619 -0.102251604 -0.23387857 -0.1974911 -0.09283324 -0.21296574 -0.32043
0.060760032 -0.21182956 -0.107310824 -0.23573259 -0.038632475 -0.3306241 -0.060890723 -0.06009867
-0.37415692 0.1739352 -0.3284703 -0.010133622 -0.20138803 -0.0538822 0.02348669 0.22840165
-0.111160725 0.029085897 0.3333849 -0.108624935 -0.16407545 0.045744613 0.0001459342 -0.023462469
-0.16076848 0.028885176 0.002287726 -0.017596388 -0.12859578 0.025569575 -0.03373803 0.08337577
-0.14462207 0.083943926 -0.20519625 0.08149275 -0.055109214 -0.024078993 -0.26451367 -0.111001864
0.04091785 -0.07801794 0.10111125 0.2034188 0.035488836 0.24409664 0.11959003 0.11936505
-0.054798216 0.09030553 0.11750303 -0.3005663 -0.19152045 0.09300014 -0.13312836 0.064244315
-0.28339365 -0.05211467 0.12881872 -0.4004379 0.18341942 -0.0026732814 -0.400087 0.28265312
-0.015512309 -0.051738925 0.067121945 -0.07184082 0.19866493 0.071852244 0.1315224 -0.15086688
-0.26815888 0.11796084 -0.069205835 0.08205399 -0.0131673785 0.055907868 0.056760516 -0.09912236

layers.0.conv_skip.bias f4 [32]
00000000: 8858 f63d 849b e9bc 22e7 933d ee07 2e3e
00000010: bb19 7a3e 1d98 61be 8978 953e d5ec 27be
00000020: 45b7 a3be c200 00bd 3ae9 04be 6aa5 a73d
00000030: 6940 3c3d ef62 9dbd eb20 01be 9f9f 6f3d
00000040: 557e 02be 5ff7 30be 5c5b 4abe ac2d edbc
00000050: bdb2 55bd c413 0cbe fc35 a43d 7294 223f
00000060: ffc4 d8bc 41a4 89be 31a7 c53d 5432 a03c
00000070: 5cbb 81bd b8d9 b0be 0cc1 bf3c 9ae0 54be
0.12028605 -0.028516538 0.072218195 0.16995212 0.24423878 -0.22030683 0.29193524 -0.16398938
-0.3197576 -0.031250723 -0.12979594 0.08185847 0.045959864 -0.07684886 -0.12610213 0.058501836
-0.12743504 -0.17281865 -0.19761413 -0.028952442 -0.05217241 -0.13679415 0.08018109 0.6350776
-0.026461123 -0.26883128 0.0965103 0.019555248 -0.06334564 -0.34541106 0.023407482 -0.20788804

layers.0.norm_out.weight f4 [32]
00000000: d8bc 583f 4e47 5f3f 52cd 223f 604c 2e3f
00000010: 3fee fa3f 43d5 5b3f d463 4d3f 2660 473f
00000020: 61b7 913f 489a 793f 79af 713f 5164 913f
00000030: 58d5 873f 5683 8b3f ba30 693f f6a0 a93f
00000040: c9d2 dd3f 6775 d33f 483d 4a3f f7ee c53f
00000050: 15d8 6a3f fa39 8b3f 7242 4d3f fe42 723f
00000060: 939f 573f 0913 aa3f e9d1 923f 1333 b43f
00000070: eb05 d93f 493c c23f 4668 473f 5669 663f
0.8466315 0.8721818 0.63594544 0.6808529 1.9603957 0.85872287 0.8023045 0.77881086
1.1384088 0.9750104 0.94408375 1.1358739 1.0611982 1.0899456 0.91089976 1.3252246
1.7329952 1.6520203 0.7899976 1.5463551 0.91735965 1.0877068 0.8017951 0.9463347
0.84227866 1.3287059 1.147031 1.4078087 1.6954931 1.5174648 0.77893484 0.9000448

layers.0.norm_out.bias f4 [32]
00000000: 02f3 d1bd cb96 113d 34c1 4ebe 163b 963d
00000010: aca3 393e 158a e7bd cb19 ebbd 933b 03bd
00000020: b77c b53e 2839 973e c7b2 123e b595 493d
00000030: 0d3c b1bb 9972 bd3b 59dc 503e bf6d 453e
00000040: f8a0 6c3e d822 8b3d de4e c93d 7711 a43d
00000050: e1fc 4a3e d497 e43d d40f b7bd 1cd1 253e
00000060: 953e b73d a04f 1e3d 83bf dd3e 2c82 7d3e
00000070: 7d57 273e 9b9d 893d c7ec 3c3c 3de4 493e
-0.10251428 0.035544198 -0.20190889 0.073354885 0.18128842 -0.11305634 -0.11479529 -0.032039236
0.35446712 0.29535794 0.1432601 0.049215037 -0.00540877 0.0057814834 0.20396556 0.19280146
0.2310828 0.06793755 0.09829496 0.08011144 0.19823028 0.111617714 -0.08938566 0.1619305
0.089474835 0.038650155 0.43310174 0.24756688 0.16341968 0.06719514 0.0115310615 0.19715972

layers.0.norm_out.running_mean f4 [32]
00000000: 4293 293f e84c d73e a1b5 053e 3738 5a3e
00000010: 5aa8 ac3e ba05 613d a06f 273e 5075 3a3e
00000020: a262 913f dbde f23f a7ac 373f 53da eb3e
00000030: e370 cd3f e4d6 483f 0f89 3d3f 4ca3 763d
00000040: 44c5 633e 5805 913e 3cda c43d e03e 073f
00000050: de32 e23f ee83 263e 2f44 5e3f 1965 c13e
00000060: 7f0d ce3e f0bd fa3d b308 243f ee60 303f
00000070: eefb ec3e 55e7 fa3e d22a 5a3e 8242 9c3e
0.6624032 0.42050862 0.13057567 0.21310507 0.33722192 0.054937102 0.16351175 0.18208814
1.1358225 1.897426 0.7174782 0.46065006 1.6050075 0.784529 0.7403726 0.060214326
0.2224322 0.2832439 0.096119374 0.52830315 1.7671773 0.16261265 0.8682279 0.37772444
0.40244672 0.12243259 0.64075774 0.688979 0.46285957 0.49004617 0.21305397 0.3051949

layers.0.norm_out.running_var f4 [32]
00000000: 5edd 2640 f04e b33f a8df d73e 40d4 163f
00000010: 4740 b73f a0a0 423e 2b44 173f ea8f 243f
00000020: 42f3 1e40 f4bc 6840 9566 0340 0f39 1440
00000030: 6418 7440 6185 6a40 27a6 e13f 5548 293e
00000040: d4cc 4a3f 41ec b23f 2a5e b33e d3a0 1840
00000050: 1f64 6c40 f161 023f 7cef 0040 a553 b03f
00000060: 7767 bc3f 580f 8c3e 1dcd 7e3f 10c7 ef3f
00000070: 01f4 f33f 7b94 2e40 9344 483f 1807 9c3f
2.6072612 1.4008465 0.42162824 0.5891762 1.4316491 0.19006586 0.5908839 0.64282095
2.4835973 3.6365328 2.053136 2.3159826 3.8139887 3.6643908 1.7628831 0.16531499
0.7921879 1.3978349 0.3503278 2.384816 3.693611 0.50930697 2.014617 1.3775526
1.4719075 0.27355456 0.9953173 1.8732624 1.9058839 2.7278125 0.78229636 1.2189665

layers.0.norm_in.weight f4 [64]
00000000: 5b07 1f3f 929b 7e3f 0125 153f c093 b13e
00000010: 7f0a 0c3f 5f63 143f dd29 033f 95e2 e13e
00000020: 98c1 d23e 47c4 103f 9475 2a3f 6fe0 253f
00000030: 4ff1 103f 323c 8b3f 667b f03f cb7e 903f
00000040: 6714 0b3f 2d33 8d3f f66c 003f b34f 533f
00000050: 99ea 2a3f 5824 023f 61ab ea3e 22e1 993e
00000060: f9bd 0a3f 5105 373f 9e2b 803f 4953 643f
00000070: a0b4 2e3f 5d2b d23e 256a 113f d01d a33f
00000080: 59ef fa3e 784c 603f b218 023f 1603 073f
00000090: ef9f 933f da1c 683f f395 cc3e 1caf 0f3f
000000a0: ed78 6f3f f3af 563f bca5 6c3f 5e31 c43e
000000b0: 2337 f53e 2293 603f 51e9 653f e7f0 0c3f
000000c0: 2a89 343f 8a9c 833f 996e 773f 5fd4 093f
000000d0: 46e4 f13e 4385 2c3f 589d 3a3f 5810 883f
000000e0: 9bab 423f 9b3f 423f 1da4 123f 610e 423f
000000f0: 4a5b 523f 09bc 043f a60c 093f acc3 1b3f
0.621206 0.9945613 0.5825959 0.34683037 0.54703516 0.5796413 0.51235753 0.4411818
0.41163325 0.56549495 0.6658566 0.64795583 0.5661821 1.0877745 1.8787658 1.1288694
0.54328007 1.1031243 0.5016626 0.82543486 0.6676422 0.50836706 0.45833877 0.30054575
0.54196125 0.7149249 1.0013311 0.89189583 0.6824436 0.4104871 0.5680259 1.2743473
0.49010733 0.8761668 0.5081893 0.52739084 1.1533183 0.90669024 0.39958152 0.5612657
0.93543893 0.8386223 0.9244039 0.38318914 0.47893628 0.87724507 0.8980914 0.5505509
0.70521796 1.0282147 0.96653134 0.5383968 0.4724447 0.6739084 0.7289634 1.0629988
0.760431 0.75878304 0.57281667 0.7580319 0.82170546 0.5184942 0.53534925 0.60845447

layers.0.norm_in.bias f4 [64]
00000000: 620c 663e 485b 123f 07f2 ca3b af57 81bd
00000010: 9964 3d3e 4208 2b3d 566a d43c a64a 65be
00000020: 5940 313e 3099 b4bc d428 73bd cb25 51bc
00000030: 1dd3 2fbe f17c b73d ccc9 a3bd 5600 a63e
00000040: b270 013f 3603 483e 7b3b 3fbf be3c 913c
00000050: ef1e 333e 8ce6 ceba 1e20 923e 7067 0dbe
00000060: 0bdf 253d 197d 9e3e a839 41bd 25ad 4c3e
00000070: 45dd 683e 6929 10be 87ab 4dbc a0b3 143e
00000080: 8b01 2aba 4fe2 913d 2eb6 e3be 6f18 493e
00000090: 4fca 1a3f 612f 0d3f a243 1f3e 9c8a aabd
000000a0: 7d90 223c 1b16 c13d ca57 9a3e 6961 763d
000000b0: 2d27 08bd 0a1c 3c3d c131 b13e 82c0 7b3e
000000c0: bf5c 8e3d 4ef9 c23e c4f3 933e 8474 4e3d
000000d0: 71cd 1fbe 7043 ac3e d69f ce3c 92d0 043f
000000e0: 1eff 64be 7cef 643e da37 213e 9b91 41bf
000000f0: d78e 163f 4ab5 bcbe 2ac7 94be 9061 40bf
0.22465661 0.57170534 0.0061934027 -0.063155524 0.18495406 0.041755922 0.025929611 -0.22391757
0.17309703 -0.022045702 -0.05936511 -0.012765358 -0.17170377 0.089593776 -0.07997474 0.3242213
0.50562584 0.19532475 -0.74700135 0.01772916 0.17492269 -0.0015785261 0.28540128 -0.1380899
0.040495913 0.30954817 -0.047174126 0.19987924 0.22740658 -0.14078297 -0.012553102 0.14521646
-0.0006485215 0.07123243 -0.4447493 0.19638227 0.6046495 0.5515042 0.15553144 -0.08327219
0.009922144 0.094280444 0.30145103 0.06015149 -0.033240486 0.045925178 0.34608272 0.24585155
0.06951284 0.3808083 0.28896916 0.050404087 -0.15605713 0.336452 0.0252227 0.51880753
-0.22362944 0.22356981 0.15743962 -0.756128 0.58811706 -0.36857063 -0.290582 -0.7514887

layers.0.norm_in.running_mean f4 [64]
00000000: 309f 0f3f bf4d 263e 4356 e63f 59c1 6e3e
00000010: 28fb c33f 4f3f e13e 119d a03f 08b9 b73f
00000020: 4e6b 9b3f f02e c73d fb94 a73f 0142 c23d
00000030: 81ab 0840 4601 063d 3885 c03d 4919 5a3e
00000040: 2177 143f c721 4d3d 566b 5d3d 311c b83f
00000050: e765 133e d10a 0a40 3c77 d83f ca0c b33f
00000060: cb0b 693d f3b0 953e aa1e 433d ded0 1c3e
00000070: 5b45 d83f 032b 203f 3e9c 673f 71ac b13d
00000080: c3a6 ac3f a81d f43d 6069 153e f0d6 6f3f
00000090: d661 a03e 39f3 ea3e 54c0 9c3f 8178 ba3f
000000a0: a45c da3c 4a88 dc3e 069b 1d3e f27c 9e3f
000000b0: f592 9f3f ac41 df3c 1bc8 463f 1fc5 a73f
000000c0: 173a e83c ce54 1d3e 8b96 543f 3253 aa3f
000000d0: 5ce9 cf3f cd72 db3f 4b6a d53e f1dd 8e3e
000000e0: 755c a93d 4c7c 083d 88ec c23f e052 de3e
000000f0: 28d4 9b3e 6d1d b73f 933d c73c 5c11 a93c
0.56102276 0.16240595 1.7995075 0.23315944 1.5311022 0.43993613 1.2547933 1.4353342
1.2142122 0.097257495 1.309234 0.094852455 2.1354678 0.03271606 0.094004095 0.21298708
0.57994276 0.05008104 0.05405744 1.4383603 0.14394341 2.1569102 1.6911387 1.3988278
0.056896012 0.29236564 0.047636665 0.15314052 1.6896166 0.6256563 0.9047278 0.08675469
1.3488392 0.11919719 0.14590979 0.93687344 0.31324643 0.4588869 1.2246194 1.4568025
0.026655503 0.4307273 0.15391168 1.238188 1.2466723 0.027252994 0.77649087 1.3107032
0.028348012 0.15364382 0.8304221 1.3306639 1.6243091 1.714441 0.41682658 0.27903703
0.08269588 0.033321664 1.5228434 0.43422604 0.304353 1.4305855 0.024321353 0.02063816

layers.0.norm_in.running_var f4 [64]
00000000: 6b03 8a3e edcc 953d 93de 713e 3a33 dc3d
00000010: 8c2e 803e 9510 583e 2b12 3e3e 430d 863e
00000020: 3049 9a3e 307c 9e3d c14f 3c3e 499c 603d
00000030: 6cbf 843e de16 233c 6198 3c3d a9e2 803e
00000040: 76f8 733e 0e01 8c3c c969 163d 9c28 913f
00000050: 769c 0f3e 919e 503e d9d0 a53e 86e7 593e
00000060: 2ba0 0d3d ac20 db3d f9fc 8e3c 4e06 943d
00000070: 0124 923e 94f4 633e b522 0b3e 28aa 893d
00000080: 9a74 ad3e 714d 793d a1af ee3d 4bb1 a03e
00000090: 8099 f53d e4fd 413e b671 493e ede3 4d3e
000000a0: 33ba e93b b165 0c3f 1596 0b3e 5165 7f3e
000000b0: 171e 723e e639 f23b b998 d33e 7ae4 6d3e
000000c0: 2f0b 943c 3e60 223e c0c3 d93e 480e 2f3e
000000d0: 6bac 9c3e c442 b43e e33c 373e 8354 cb3d
000000e0: 6d1c 2c3d c9fc 233c f5b7 3d3e 23ed 133f
000000f0: b0f9 dd3d 734a a93e 4023 a73c 0aef 643c
0.26955733 0.07314477 0.23620062 0.10751958 0.25035512 0.21100076 0.18561618 0.26181993
0.30133963 0.07738531 0.18389799 0.054836545 0.25927293 0.009954182 0.046043757 0.25172928
0.23825249 0.017090347 0.03672198 1.1340518 0.14024529 0.20372988 0.323859 0.21279725
0.034576576 0.10699591 0.017454611 0.07227765 0.28543094 0.22261268 0.13587458 0.06721908
0.33878022 0.06086487 0.11654592 0.31385264 0.119921684 0.18944508 0.19672284 0.20106478
0.0071327924 0.5484267 0.1363147 0.24940993 0.23644291 0.007392156 0.41327456 0.23231688
0.018071739 0.15857026 0.42532158 0.17095292 0.30600294 0.35207188 0.1789432 0.09928229
0.042019296 0.010008999 0.18527205 0.57783717 0.1083864 0.33064613 0.02040255 0.013973007

layers.1.conv_in.weight f4 [16, 32, 3, 3]
00000000: cc4f e13c 87c9 a33d 436f 2e3e 1398 5bbd
00000010: 9cea c9bd 1c12 16be 0bfc 49bd 259f 153d
00000020: cd13 6f3e ea80 87bd 33b9 fcbc 3619 42be
00000030: b373 f13b 63da 1cbe 8dbc f9bd 842b 59bd
00000040: 1b83 023e 5743 f93c e974 0e3b 5c93 11bf
00000050: 7b17 9d3d d8b5 95bc 6a08 a9bf 3fab a7bd
00000060: aef5 203d 6780 33bd 4d3b 8cbc 542b f43d
00000070: 85b8 af3d 3cbe 16bc e8ab 0b3e ebdf b33d
00000080: 13d2 473e 023c 5bbd 9489 43bd 6fb8 81bd
00000090: 62f5 bbbc 98e2 683e fe0f 003d 1eee c83c
000000a0: 170a 8d3d 0912 933d 7500 6a3d cf9e cc3d
000000b0: 6a01 953d 3cb5 9abd 387c ef3c fe2e 80bd
000000c0: ba5c 26be 6307 a3bd 3089 b4bd 117b 9cbc
000000d0: 12c4 193d ab53 52bd a22c 7d3d a3d0 4f3e
000000e0: 7a84 e3bd 42a8 813c 07ed 9d3e 88c4 203e
000000f0: 1369 1ebe 2a6e a63d afda 19bd dc76 0e3d
00000100: 886b 8bbe 3883 823e 3715 373d 543d 39bd
00000110: 7864 fe3d daf6 293e de46 ba3b 3c28 a33d
00000120: 652c cd3d fedf 523e 1147 833e f72f a93d
00000130: c18a 1a3e 9f87 fa3d 8adf b53b 590e 87bc
00000140: 2d62 7d3d ecac fc3d 5664 28bd 6d0c 493d
00000150: 9485 f3bd e277 9e3c 2c60 d63d ab40 0b3e
00000160: 513c 3abd ea2b aabc b5dc f5bc b9a1 5ebd
00000170: 356b 46bd b6a0 5d3d 330a 8a3e 9ba4 35be
00000180: a11b be3d d14b aabd 5dad 9f3c 966d 6b3e
00000190: d08c 443e 021e eebd e3f3 0c3d 49b8 293e
000001a0: 1c95 23bd 2431 1ebe f146 54bd cae5 083e
000001b0: 30c1 03bd 6ddd 8d3e d4f0 8f3d 42b2 af3c
000001c0: e65f 8b3e 2fa3 123d e165 f73b de98 59bc
000001d0: 8b15 71bd 3095 00be 3428 263d 0f43 f8bd
000001e0: 4e4c 15bc 961b 953e 4177 abbd 7e6b 69bd
000001f0: e27c 7bbd 6e7c e33d b975 423e 44dd 163d
00000200: 5ef2 153e 6227 6d3e fe68 d73c 489f e13d
00000210: 748a d63d 6f39 953b 9cd2 c73c c055 4d3e
00000220: 3fd0 02be c456 74bd e110 be3d e74e 533e
00000230: b04d f13d f20b 08bd b27e 16bc 232a e63d
00000240: 9ec8 bebd d038 81bd 7406 8abd c950 bf3b
00000250: 36df 8d3d ed71 2fbc adac 23bd 3d59 793c
00000260: 7bf1 13bb f850 0fbe f5e7 dcbd 9fb1 62bd
00000270: e0b7 1cbe c85e 22be e898 c7bd a705 2c3c
00000280: 276f 2d3d 958b dd3d 133e 7fbd 743c dc3d
00000290: 583c 333d f8df 013d becc 58bc 7ca8 3e3d
000002a0: 00ce f8bd 31c0 883d 9bee 16bd 2796 b63d
000002b0: 1dba 10be f2c6 04bd 20cc 623e 0265 953d
000002c0: 2802 3c3e 32e1 c0bc 795b 593c 53b8 a7bd
000002d0: 4bbb 0f3e 65f8 2fbe cff9 e13d 35a6 34bd
000002e0: 0c4f 1fbe 58fa e73d da0c c4bc 5636 7bbc
000002f0: 6324 5a3d 40fc 1abd 14da 98be f349 7fbd
00000300: 97b8 b6bd 2dfc 91be 4b08 c73c 0c1f 0dbe
00000310: b287 88be 305d 753e 4f0c 6abd e6c6 b8bb
00000320: 033b 67bd 5e48 93bd a40a f73a d95a fd3c
00000330: 6b30 20bc adb4 d239 aa0b 5bbc dc9f 6cbd
00000340: dc8c 8abe 16a0 57bd 8a1d 04be 382b b9bd
00000350: 4a3f 65be 523e cf3d 689b 54bc cd25 71be
00000360: 37c8 113e c8e8 0e3e 888d 1a3e 2b2f 293d
00000370: 1ead cdbd be43 453c 88f9 923d cc58 75bd
00000380: 6fa9 be3c c828 92bc b8b7 f43c d155 2d3e
00000390: 3993 9fbd b399 9fbd 7f29 623e 59ef 083d
000003a0: 8e6e 673e 556a 36bd e4a6 923d bcdc b2be
000003b0: 850d 063e 26a7 7c3d 391d 71be 107c 263c
000003c0: fb19 e1bd 4cc6 133e a963 2cbd 8eae 403e
000003d0: 9298 f5bb 85a9 04bd cd9f 4bbe b9f9 2fbe
000003e0: 5edd 1cbe a507 de3d 7ca5 ba3d 5929 2dbd
000003f0: 2364 273e 6a1e 603e 0b32 52bc f345 063e
0.02750387 0.07997423 0.1703463 -0.053611826 -0.09859201 -0.14655346 -0.049312633 0.036528725
0.23347397 -0.06616385 -0.030850029 -0.1895493 0.0073685287 -0.15317683 -0.12194166 -0.053020015
0.12745325 0.030427618 0.0021737164 -0.5686548 0.07670494 -0.018275186 -1.3205693 -0.081869595
0.0392968 -0.043823626 -0.01711812 0.11922327 0.08580116 -0.009200629 0.13639796 0.08782943
0.1951373 -0.053524025 -0.047738627 -0.06334006 -0.022944156 0.22742689 0.03126525 0.024527606
0.0688669 0.07181174 0.057129342 0.09991228 0.0727566 -0.07554099 0.029234037 -0.06258963
-0.1624631 -0.07960393 -0.08815229 -0.019101651 0.037540503 -0.051349323 0.061810143 0.20294432
-0.11109252 0.015827302 0.308449 0.1569997 -0.1546977 0.08126481 -0.03756207 0.034781322
-0.27230477 0.25490737 0.044697966 -0.045224503 0.12421507 0.16598073 0.0056847176 0.079666585
0.10018233 0.20593259 0.25640157 0.08261102 0.15091993 0.12232899 0.0055503296 -0.016486334
0.061861206 0.1233767 -0.041111313 0.049084116 -0.118907124 0.019344274 0.10467562 0.13598888
-0.04546768 -0.020772893 -0.030012468 -0.05435345 -0.048442084 0.054108344 0.26960906 -0.17738573
0.092826135 -0.08315242 0.019491846 0.22991022 0.1919434 -0.11626817 0.034412276 0.16574205
-0.039937124 -0.15448433 -0.051825467 0.13368908 -0.03216666 0.27707997 0.07028356 0.021447305
0.27221602 0.035800155 0.0075499867 -0.013281075 -0.058858436 -0.1255691 0.040565684 -0.121221654
-0.009112431 0.2912261 -0.08372355 -0.05698728 -0.061398394 0.111077175 0.1899022 0.03683211
0.14643237 0.23159555 0.026295181 0.110167086 0.104756266 0.0045539658 0.024392419 0.20052242
-0.12774752 -0.05965306 0.09280563 0.20635568 0.11782396 -0.033214517 -0.00918548 0.11238506
-0.093156084 -0.06309664 -0.06739512 0.0058384878 0.0692734 -0.010708314 -0.0399596 0.01521903
-0.0022574353 -0.13995731 -0.1078643 -0.055345174 -0.15304518 -0.15856469 -0.097459614 0.0104993945
0.04234233 0.10817639 -0.062315058 0.10753718 0.04375872 0.031707734 -0.013232408 0.046547398
-0.121486664 0.066772826 -0.036848646 0.08915358 -0.14133497 -0.03241629 0.2214818 0.07294656
0.18360198 -0.023544881 0.013266438 -0.08189454 0.1403629 -0.17184599 0.11033975 -0.04410382
-0.15557498 0.11327046 -0.02393191 -0.015332779 0.053257357 -0.03783822 -0.2985388 -0.062326383
-0.089219265 -0.28512707 0.024295947 -0.13781375 -0.26666027 0.2396133 -0.057140645 -0.005638945
-0.056452762 -0.07191537 0.0018847776 0.030927109 -0.009777169 0.00040188935 -0.01336948 -0.05776964
-0.27060592 -0.052642904 -0.12901893 -0.090414464 -0.22387424 0.101193085 -0.012976505 -0.23549576
0.14236532 0.13955986 0.15093052 0.04130475 -0.10042785 0.012040077 0.071765006 -0.059899136
0.023274152 -0.017841712 0.02987276 0.16927268 -0.07791752 -0.07792988 0.22086142 0.033431385
0.22600767 -0.044535 0.07160738 -0.34934032 0.13091095 0.061682843 -0.23546304 0.010161415
-0.109912835 0.14431113 -0.04208723 0.18816587 -0.0074949944 -0.03238823 -0.19885178 -0.17185105
-0.1531882 0.10841302 0.09113595 -0.04227576 0.16346793 0.21886602 -0.012829314 0.13112621

layers.1.conv_in.bias f4 [16]
00000000: 35d5 ef3c bbc6 a8be 331b 06bf 2f59 0a3e
00000010: c652 05bf db41 17bf aed7 59be 0ea7 9a3e
00000020: 62d6 3cbf f405 4a3e e1f4 f1bd f17b 08bf
00000030: e13c 223e 021e 5bbe ace6 83be 6850 6b3d
0.02927647 -0.3296412 -0.5238525 0.13510583 -0.5207943 -0.5908486 -0.21273682 0.30205578
-0.7376462 0.19728833 -0.11814285 -0.5331412 0.15843536 -0.21398166 -0.25761926 0.05744973
