weights/conv_3x3_64.pth (torch, 307242 bytes, 73 tensors)

conv_in.weight f4 [64, 13, 3, 3]
000000 ef 92 b5 3d 31 2f 3d 3e 55 da d3 3d 04 71 37 3d
       0.08865916 0.18475033 0.10344378 0.044785514
000010 90 f8 96 3e 23 8e 42 3e 3a 76 e5 bd ff a9 3b be
       0.29486513 0.18999533 -0.112041906 -0.18326567
000020 69 41 dd 3d 44 8c eb bd 21 87 d3 3d 3e 0b 2d 3d
       0.108034916 -0.11501363 0.10328508 0.04224705
000030 24 68 4d be d9 72 9e 3c 7c c6 0f 3c f0 b6 18 be
       -0.20059258 0.019341873 0.00877535 -0.14913535
000040 ef d1 a5 bd d6 46 8a b7 40 6a 82 3c 99 35 be 3d
       -0.08096682 -1.6483868e-05 0.015919805 0.09287567
000050 f6 92 53 3d c1 3b 0b 3d ff 1d 71 bc 49 b9 a5 bb
       0.051653825 0.033992533 -0.014716624 -0.005057488
000060 a9 03 35 be b5 94 1a 3e c5 59 25 3b ef 95 fd bc
       -0.17677177 0.1509579 0.0025230509 -0.030955283
000070 50 cb e1 3b d1 b1 0c 3e 21 fd ca ba 21 68 1e bd
       0.006890692 0.13739707 -0.0015486815 -0.038673524
000080 a4 6a d1 3d e5 d7 24 bb 5e 6d 06 3e ae c9 a5 3d
       0.10225418 -0.0025153097 0.13127658 0.08095108
000090 fa 88 b7 bd c0 72 1b bd 90 be 5a 3d 12 48 bd bc
       -0.08961673 -0.03795123 0.05340439 -0.023105655
0000a0 d3 bf 3a be af 32 1b 3d 30 7d 84 bd 6a e1 b8 3d
       -0.18237238 0.037890133 -0.0646919 0.09027369
0000b0 26 7c 8f 3d 69 b6 1d 3e 3c 72 e1 3d b8 5b 55 bd
       0.07006101 0.15401615 0.110081166 -0.052089423
0000c0 6c 29 33 be fd c8 a5 be 41 19 0f 3d 57 ec b5 3d
       -0.1749627 -0.32379904 0.034936193 0.08882969
0000d0 38 30 5a 3e 04 42 ac 3d e3 4a 50 3c c4 19 1c 3d
       0.21307456 0.08411029 0.012713167 0.03811051
0000e0 10 89 19 3d 03 67 09 be 73 7c 0e bf af 52 20 3e
       0.03748423 -0.13418202 -0.55658644 0.15656541
0000f0 c1 d4 d4 bc bd c7 d0 3e e8 93 6a 3e 64 24 00 3f
       -0.025980355 0.40777388 0.22907984 0.5005553
000100 95 26 e5 bd 3a 4b 9a be 98 46 e3 be 0d 05 29 bf
       -0.111889996 -0.30135518 -0.44389796 -0.6602333
000110 69 dd 90 bb 2e c6 73 3e c4 49 b6 3d 0f a8 93 3d
       -0.0044209254 0.23806068 0.089007884 0.07209789
000120 b6 9c 06 3e 3f 78 72 be 31 1e 8a be 50 14 6e be
       0.13145718 -0.23678683 -0.2697616 -0.23249936
000130 a8 29 22 be 71 55 83 bd ca ea d6 3e d1 40 6e 3e
       -0.15836203 -0.06412781 0.41976005 0.23266913
000140 55 a1 97 3d d6 3f c0 3d 11 b8 5c bd bf 8b 7c bd
       0.074038185 0.09387176 -0.053886477 -0.06165671
000150 1d e8 f4 3d 75 4c 00 3d 62 5e 18 be 4e 1a bc 3d
       0.119583346 0.031322915 -0.14879754 0.09184705
000160 cb 6f 2d bd f5 83 ef 3d 9d 61 f3 bc 87 69 26 bd
       -0.042342942 0.11695091 -0.029709632 -0.040627982
000170 c8 ea 15 3e bf c9 65 3d f2 7e b0 bc 1f 40 e0 3e
       0.14640343 0.056100603 -0.021544907 0.4379892
000180 40 6d bb 3e 60 0a d4 3b 58 d2 36 be 81 29 0c 3e
       0.3660679 0.0064709634 -0.17853677 0.13687707
000190 1e 21 ef 3d 2d 00 3b bd ee c9 97 3e 82 cb 96 3d
       0.116762385 -0.045654465 0.29646248 0.07363035
0001a0 fa 77 06 bd f3 a8 46 3e c5 f5 8d 3d 1d eb c3 bd
       -0.032829262 0.19400387 0.069316424 -0.09566329
0001b0 35 5d 0b be 90 28 ef bd 8e 7a 84 bd f0 8d 59 bd
       -0.13609774 -0.116776586 -0.06468688 -0.053113878
0001c0 d4 bc 28 be 6a ae 8c bd 17 68 4c bd 2b 6f 0d be
       -0.16478282 -0.06869204 -0.049903955 -0.13811938
0001d0 9a f4 0a be 18 0b cf be e2 d2 eb be 3e 32 dc be
       -0.1356987 -0.4043815 -0.46059328 -0.43007082
0001e0 eb 16 ac 3e 79 e8 d8 be 22 1f ea be 6e 90 81 3d
       0.33611235 -0.42364863 -0.45726877 0.06326376
0001f0 10 90 8a be 27 2c 48 be 26 1a 44 3d 3b 6e f2 bd
       -0.27063036 -0.19548093 0.0478765 -0.11837431
000200 26 e4 e3 be ac ca 43 3e 34 49 5e be 3a cc ed be
       -0.4451 0.19120282 -0.21707612 -0.46444875
000210 04 5e d5 3c ad f9 f6 bd ae 54 b0 bd 19 64 ee 3c
       0.026045807 -0.120593406 -0.08609901 0.029100465
000220 f3 81 2a be cc 19 28 be ce 35 9e 3d 27 cb f9 bd
       -0.16651134 -0.1641609 0.07725106 -0.12196951
000230 99 e3 b1 be 67 3f fb ba 6e 16 43 bd 5a b7 a9 3d
       -0.34743956 -0.0019168676 -0.047628812 0.08286925
000240 2b e2 6d bc d9 c1 1b be 44 ba 0e bd 45 d6 fd 3c
       -0.014519255 -0.15210666 -0.034845605 0.03098596
000250 2e e5 0b be b3 ce 71 be 61 72 bf 3c 0b 53 81 bd
       -0.13661644 -0.23614006 0.02336997 -0.06314667
000260 51 0e a8 3d fe 8f 09 bd 7c c7 05 be bf 8d c8 bc
       0.08205856 -0.033584587 -0.13064378 -0.024481652
000270 71 d3 85 bd bc 1d 4c bc 0e 3f 49 be 14 3a e0 3d
       -0.0653447 -0.012458261 -0.1965296 0.109485775
000280 0f 07 91 bd 45 a9 0e bd c5 92 4b bd c3 9b c2 be
       -0.070814244 -0.034829397 -0.049700517 -0.38009462
000290 e4 4f b4 3c ef be 2c bd 89 b8 b1 3c de 1c d1 bc
       0.022010751 -0.042174276 0.021694439 -0.02552646
0002a0 89 2d a4 3d a4 de e1 3c 40 bc 93 3d 21 37 61 3e
       0.08016498 0.027571984 0.0721364 0.21993686
0002b0 95 e9 80 be b2 4d 3a 3d 8c 3a 1e 3c 5d 6a f4 bd
       -0.2517821 0.045484252 0.009657513 -0.1193435
0002c0 fd ff b2 bd e7 9a 11 3e 40 bb 0c 3e 5f 5a 67 3d
       -0.08740232 0.14219247 0.13743305 0.05648267
0002d0 17 83 80 3d 57 d6 0d bd c8 7f 11 3d b6 87 34 bb
       0.062750034 -0.03462824 0.035522252 -0.002754671
0002e0 0a ef a6 bd 88 5f e2 bc cd f8 6d bd c5 fa 6b 3d
       -0.08151062 -0.027633443 -0.058098603 0.0576122
0002f0 29 9d 92 3e 45 c1 dc 3e 1f 67 45 3f d6 a6 1f 3f
       0.2863553 0.43116203 0.77110475 0.62363946
000300 f5 91 9d 3b 64 77 10 3e 3f 97 ab 3e f7 92 cb be
       0.004808659 0.14108044 0.3351383 -0.39760563
000310 73 f0 91 3d 8f 1d 8f 3e 51 66 85 bd a6 f8 30 3e
       0.0712594 0.2795224 -0.06513656 0.17282352
000320 3d 56 54 3d b4 8a 10 be 19 50 d5 3d bd 50 47 3e
       0.051840056 -0.14115411 0.10415668 0.19464393
000330 29 7b 76 bd d9 d3 6c bd d4 b2 61 bc b4 aa bb 39
       -0.06017605 -0.05781922 -0.013775546 0.00035794603
000340 3d f4 82 3d 75 a7 d2 bb d2 b9 de bd 12 5e 12 bd
       0.06394241 -0.006428654 -0.10875286 -0.035734244
000350 1e aa 01 3e fe e0 79 bd c2 3f a3 3d 78 37 df bc
       0.12662551 -0.061005585 0.07971145 -0.02724813
000360 08 10 90 bd 8b a3 2a 3e 55 0d bc 3d ed 92 cb bd
       -0.07034308 0.16663949 0.091822304 -0.09940133
000370 67 8f af 3d 96 f0 e4 3d fb 1a d2 bc 7f 60 85 bd
       0.08572274 0.111787006 -0.02564763 -0.06512546
000380 71 aa 0b bd a4 8e d3 3d fb ef e1 ba 21 82 0a 3e
       -0.034098092 0.10329941 -0.0017237657 0.13526203
000390 31 64 fc bc ab b4 d6 3d e1 e2 03 3e f9 d2 cc bc
       -0.030809494 0.104836784 0.12879516 -0.025002943
0003a0 b7 3d 15 3d 98 c7 85 3d 79 2a 9d be ae ff 9a be
       0.03643581 0.0653221 -0.30696467 -0.30273193
0003b0 d0 8b 08 bf e8 96 84 be 03 08 9e be dc 9f d4 be
       -0.53338337 -0.25896382 -0.30865487 -0.41528213
0003c0 b4 1e 0c bf 7e 28 bb be af ae 1e bf 2c 13 a2 bd
       -0.5473435 -0.3655433 -0.61985296 -0.07913813
0003d0 62 c9 a1 be ec 63 9c be 52 9e 7e be f6 b2 02 bf
       -0.31598955 -0.30544984 -0.24865082 -0.5105432
0003e0 f6 a4 e5 be 8f 5c 22 be cd e3 eb be 75 92 19 bf
       -0.44852418 -0.15855621 -0.46072236 -0.599891
0003f0 97 4c f0 bb a1 6f ff bd 74 17 c2 bd 28 a4 9d bd
       -0.007333349 -0.124724634 -0.094771296 -0.07697326

conv_in.bias f4 [64]
000000 22 3e 3b 3e 94 9c b3 bb c2 39 0d be d6 be 5d bc
       0.1828542 -0.005481312 -0.13791564 -0.013534268
000010 c8 f7 bf 3e a3 72 cc 3e c9 3e 5e 3e bf 4e 0e 3e
       0.3749373 0.3993121 0.21703638 0.13897227
000020 ae 44 a1 3c c6 00 1e be fc 8b 54 3e 79 ee 5c bd
       0.01968607 -0.15429983 0.20756525 -0.053938363
000030 04 87 2f bd 01 e0 8b bd 00 71 04 be ea 4d c9 3d
       -0.04285337 -0.06829835 -0.12933731 0.09829314
000040 44 9d 2f 3e c1 eb b8 bd 17 be 71 3e e1 8e a4 3d
       0.17149836 -0.090293415 0.2360767 0.080350645
000050 e8 d3 7e bc a9 cc 0b 3e 5e 99 1f bd 05 41 78 bc
       -0.015553452 0.1365229 -0.03896462 -0.015152221
000060 fe 56 92 bd 7a 71 88 bd 5c 4f b0 3d c8 85 6e bd
       -0.07145499 -0.06662269 0.086088866 -0.058233052
000070 0f 6c f7 bc a7 fb 23 3f d9 85 eb bd f3 05 d4 bc
       -0.030202894 0.64055866 -0.11500139 -0.025881743
000080 0b 0c 9e bd 1b 20 93 3d 54 80 bc bc 2e 14 02 3d
       -0.07717141 0.07183858 -0.02301041 0.031757526
000090 ba ee 53 bd b2 2e 0e 3e 69 dc 27 3d 26 e0 e4 3d
       -0.05174134 0.13885 0.040981684 0.111755654
0000a0 42 81 b3 bd 61 89 5c 3c 85 df dd 3d 35 e9 32 be
       -0.08764888 0.013460488 0.108336486 -0.17471774
0000b0 c8 d7 bc 3c 6f 93 04 be 12 29 d7 3e b9 4c bd bd
       0.023052111 -0.12946866 0.42023522 -0.09243149
0000c0 00 d8 62 bd 00 91 5f 3d a4 d9 5f 3d 6e fd f3 3e
       -0.055381775 0.054581642 0.054650918 0.4765429
0000d0 db a2 85 3d d2 e1 7d bd be 3c cb bc a3 07 2f bc
       0.06525203 -0.061982937 -0.024809238 -0.010682973
0000e0 69 e5 fe bd 69 53 47 bd d5 d8 c9 bc cb 4e 7e 3b
       -0.124461 -0.04866353 -0.024639526 0.0038804288
0000f0 31 e3 50 3c fa f4 a8 3c 55 4a 42 bd c1 3c 05 3d
       0.012749479 0.020624626 -0.04743417 0.032528643

layers.0.conv_in.weight f4 [32, 64, 3, 3]
000000 f0 17 2b be 67 fa 82 bd bc f3 ab bd 8c 05 fe 3c
       -0.1670835 -0.06395417 -0.08396098 0.031008504
000010 26 ec 3c 3d 7c 65 5e bb be 48 9e bd 12 89 b8 bc
       0.046123646 -0.0033935 -0.07728718 -0.022526298
000020 1e f1 55 3d 24 6b 6e 3d 7a 0a 02 3e a4 c4 e3 3d
       0.0522319 0.058207646 0.12699309 0.111214906
000030 ed 8f d5 3c 4e 6e 85 bd 39 b2 c3 3b 79 bb db bc
       0.026069606 -0.065151796 0.0059721735 -0.026822792
000040 89 73 34 be e1 78 53 3d 9a c5 ed 3d 7b 76 15 bd
       -0.17622198 0.05162895 0.11609955 -0.036489945
000050 de 6e 3b bd db d6 fd 3d 08 08 be 3c 42 62 ea 3d
       -0.045760028 0.12394496 0.023197189 0.114445224
000060 d7 5a 31 be 92 f7 1e bd 0b ab a5 bc 84 5b f8 bc
       -0.17319809 -0.03881032 -0.020223161 -0.030317076
000070 be e8 d4 3d be 63 0e 3d b2 69 e1 bb 43 b1 07 bd
       0.103959545 0.03476309 -0.006879055 -0.033128034
000080 a8 bc d1 bd fe e9 0a 3e dc 94 95 3e b8 7b 9b 3d
       -0.102410614 0.13565823 0.29215133 0.07591957
000090 86 af a7 3d 49 bf af bd 2e 00 11 bd 96 a5 b0 3c
       0.08187775 -0.085814066 -0.035400562 0.021563333
0000a0 01 02 07 3d e8 21 14 bd ef 63 7d 3b 4a 59 d9 3d
       0.032960895 -0.036165148 0.0038664301 0.10612734
0000b0 61 aa 3d ba 7e 84 ab 3d 4f 5f e3 bd 8b 40 16 3e
       -0.0007235166 0.0837488 -0.11102163 0.14673059
0000c0 7f 34 8b bd 2e 01 ab 3d 56 53 91 3d e4 80 d7 bd
       -0.06797122 0.083498344 0.07095973 -0.10522631
0000d0 ac 4b 88 bd 47 f0 c0 3d ef d5 ad 3d ae 2c 04 3e
       -0.06655058 0.09420829 0.0848807 0.12907669
0000e0 bd a3 69 3e 86 88 cc bd 0f ed 32 be fe 02 40 3c
       0.22816367 -0.09986977 -0.17473243 0.011719463
0000f0 01 fd 00 3c 76 84 b3 bc 91 96 3a 3d f6 14 3f bb
       0.007872821 -0.021913748 0.045553748 -0.002915678
000100 ff 5c db bb 37 e7 ba bd 0c 64 1d bd be 9e 32 be
       -0.0066944356 -0.09126132 -0.03842549 -0.17443368
000110 f1 6d 21 be 1e 77 5b 3b f1 40 f9 bb d8 ce 8c bd
       -0.15764596 0.0033487747 -0.0076066186 -0.0687539
000120 cb ea 0b be 85 2a ee bd 58 03 3b 3d 53 93 2a be
       -0.13663785 -0.11629204 0.045657486 -0.16657762
000130 f0 76 d1 3c c9 a7 12 bb 4d c8 26 3d 57 5b 5c bd
       0.02556941 -0.002237784 0.040718365 -0.053798046
000140 c1 80 68 bd aa 2f 7b bc e5 d8 a0 3e d0 a2 53 3e
       -0.056763414 -0.015331188 0.31415477 0.20667577
000150 62 ed cf 3c 09 c4 cf bd 99 32 b8 3d 7d a1 7b bd
       0.025381748 -0.101448126 0.08994026 -0.061433304
000160 0a 75 36 3e d1 c8 5f 3c ec 6d 1a be 52 fd 00 be
       0.17818084 0.013658718 -0.15080994 -0.12596634
000170 22 22 0a be 9e 01 a8 3c 96 2a ab bd 44 6e 77 bd
       -0.13489583 0.020508584 -0.08357732 -0.060407892
000180 45 c0 66 3c 3d 24 33 3d dc 2c cf bd e8 36 58 3d
       0.014083927 0.04373573 -0.10115978 0.052786738
000190 cf a8 94 3e 5a 2a 35 3e 42 ea 8a 3e ce 96 4f bc
       0.2903504 0.17691937 0.2713185 -0.012670232
0001a0 79 94 32 3e dc 01 ed bd c1 df 13 bd c9 21 e3 bd
       0.1743945 -0.1157262 -0.03610206 -0.110904284
0001b0 a8 13 13 bd 41 6e 1e bd fe 03 c4 bd c7 db 97 bd
       -0.035907418 -0.038679365 -0.09571074 -0.07414966
0001c0 42 27 6b bd 11 32 3f 3d 28 7d 49 3d 6f 8c 10 bb
       -0.057410486 0.046678606 0.049191624 -0.0022056361
0001d0 3c 4c 9f 3d dc 49 6d bd 2b 34 01 3e 9e 87 1a 3d
       0.077782124 -0.057931766 0.12617557 0.03772699
0001e0 fa 8c 32 3c 3d 5c ad 3d 84 62 4f be 03 b5 42 be
       0.010897869 0.08464859 -0.20252424 -0.19014363
0001f0 bb 16 93 be f4 a4 56 bd c0 f5 72 3e 85 e8 6c be
       -0.2872828 -0.052403405 0.23726559 -0.23135574
000200 49 be 56 be 66 a9 4b 3e f7 f3 20 bd a7 f3 a5 3d
       -0.20971026 0.19888839 -0.039295163 0.081031136
000210 c2 98 a8 bd d3 7e 80 bd 23 c3 de 3c 44 a2 ee bd
       -0.08232261 -0.0627419 0.027192658 -0.116520435
000220 12 fd c5 be 0f 29 a6 be be ba d1 3d c4 ca fc ba
       -0.3866964 -0.324532 0.10240696 -0.0019286503
000230 b4 3e f0 3d 4b 01 70 bd 3b ca e8 bd cf e1 fb 3c
       0.1173071 -0.058594983 -0.113666974 0.030747322
000240 aa 3a 8f 3d 94 bf 67 bc 05 b4 0b be d4 57 eb 3c
       0.06993611 -0.014144797 -0.13642891 0.028728403
000250 e3 8d 61 bd 03 3c 5f bd 52 af e6 3c 66 6c 01 3e
       -0.055066954 -0.05450059 0.028159771 0.12639007
000260 00 69 95 3d 50 8f 37 be e6 bb 0e bd 95 ac 12 3e
       0.07295418 -0.17925763 -0.034847163 0.14323647
000270 e8 f9 a0 bd e9 90 bb bd 8e e2 bb 3d e5 77 8a 3d
       -0.07860166 -0.09158499 0.09174071 0.06761149
000280 75 73 00 3e fe d4 a1 bd 65 ac 89 3d 4d 47 15 3e
       0.12544043 -0.07901953 0.06722335 0.1457798
000290 26 80 ee 3a 6f 70 25 3d 2d 25 10 bd b5 f3 4a bd
       0.001819615 0.04039043 -0.035191704 -0.049548823
0002a0 58 dd 24 be b7 b8 1d bd b3 42 3e bd 14 aa a7 bc
       -0.16100061 -0.038506236 -0.046450328 -0.020466842
0002b0 37 45 32 3e 69 96 90 bb 1e 7e 9b bd c7 b0 36 3e
       0.17409216 -0.0044124615 -0.07592414 0.17840873
0002c0 69 c8 7e 3d 1f 57 8d bd 00 37 a3 bd 7c 3f cc bd
       0.062202845 -0.06901383 -0.07969475 -0.09973046
0002d0 cb cb c7 bd 85 7f 8b be 5f 8f 36 be 1a d6 89 bd
       -0.09755667 -0.27245727 -0.17828129 -0.0673029
0002e0 b3 26 42 bd 7c 63 1d bd 0c 93 f4 3d 6e 59 39 3d
       -0.047400188 -0.038424954 0.119421095 0.045251302
0002f0 fc 57 07 3e 0d 17 33 3e dc 84 27 3e 92 65 4c 3d
       0.13217157 0.17489262 0.16359276 0.049901552
000300 42 2d bb bd 92 cd a0 3c 39 c5 08 be 1e 53 5f bd
       -0.091394916 0.019629274 -0.13356484 -0.054522626
000310 59 c5 41 be da 10 bf bd df 85 a4 bc 0c b1 fa 3b
       -0.18922938 -0.09329386 -0.020083366 0.0076505
000320 8f b3 cd bd 1c ac 29 bd 8b f4 89 3d 0e ec 2b 3c
       -0.10044014 -0.041423902 0.06736096 0.010493292
000330 11 50 05 bd ed 2d bb bc 96 1e fd bd b7 fc 62 3d
       -0.03254706 -0.022849048 -0.123593494 0.05541679
000340 56 5e f0 3d 38 f8 a4 3d 73 d7 4d 3d f0 87 4a be
       0.11736743 0.080551565 0.050254297 -0.19778419
000350 ee d2 dc 3d 97 8b 0e bc 70 e3 21 b9 cb 50 ba bc
       0.10782419 -0.008700273 -0.00015438884 -0.022743603
000360 b0 6f a8 3d 73 d7 14 bd 3c 4f 3d 3c c6 ac 0d 3d
       0.08224428 -0.03633828 0.0115545355 0.034588598
000370 d3 40 33 3e c3 c0 7b 3d 71 5b 37 bd 89 10 ea 3d
       0.17505197 0.06146313 -0.04476494 0.11428935
000380 80 a2 c9 3d e4 f6 65 3d 93 b1 39 3d 16 a9 07 be
       0.098454475 0.056143656 0.045335364 -0.13248095
000390 65 63 88 3d 43 2d 57 bd 95 73 e9 bc 38 22 94 bd
       0.06659583 -0.0525334 -0.028497497 -0.07233089
0003a0 b2 5f c5 3c 27 b1 05 bd 4f a3 21 bd 3d 76 1f 3e
       0.024093483 -0.03263965 -0.039462384 0.15572448
0003b0 f8 3e 21 be d6 2a 9f bd d4 53 9f 3c 39 63 c8 bc
       -0.15746677 -0.07771842 0.019449152 -0.024461376
0003c0 ce d0 17 3b 1b 70 8d bc 01 4b a1 bd 8d 82 22 bd
       0.0023165229 -0.01726537 -0.07875634 -0.039675284
0003d0 eb 81 98 3d e6 0f 9d bd bf 43 18 3d 78 22 1a 3d
       0.07446655 -0.07669048 0.037173983 0.03763053
0003e0 b3 12 26 bd e0 43 00 3d 4d 1e 33 3d 6c 12 1e 3d
       -0.040545177 0.03131473 0.04373007 0.038591787
0003f0 5e cb 16 3e 50 4c 03 3d 96 12 03 3e f4 3b b2 3d
       0.14726016 0.0320552 0.12800059 0.087028414

layers.0.conv_in.bias f4 [32]
000000 6a c5 65 bd ad dd 74 bd 35 85 42 be ea f9 13 be
       -0.05609647 -0.05978172 -0.18996127 -0.14450803
000010 e5 a6 d0 be 77 0d b2 3e f3 48 45 3c 41 b2 45 bd
       -0.4075233 0.34775898 0.012041318 -0.0482657
000020 68 18 ce 3c e2 f1 51 be b3 a6 61 be 24 f6 db bd
       0.025158122 -0.20502427 -0.22036247 -0.10740307
000030 b2 3b ca be 24 e3 86 be a2 d0 63 bd 56 91 c7 bd
       -0.3949867 -0.2634517 -0.05561889 -0.097445175
000040 d6 6c 17 be 8f 3d 3c bd e3 bf 39 bd bc 38 cb bd
       -0.14787611 -0.045957144 -0.045349013 -0.099229306
000050 f1 49 b4 bd 72 ef cc be 88 ed 0e 3d 45 22 5b be
       -0.08803166 -0.40026432 0.034894496 -0.21399792
000060 5e d0 aa be a1 4e e6 be 3c a4 99 be 98 c8 f2 be
       -0.33362097 -0.44981864 -0.30008113 -0.47418666
000070 38 d6 25 3d d0 6e 68 bd 73 76 05 be 0f a6 01 be
       0.040487498 -0.056746304 -0.13033466 -0.12661003

layers.0.conv_out.weight f4 [32, 32, 3, 3]
000000 f1 72 9d 3d e6 26 e5 3d 4f 35 07 3e e6 0b f5 bc
       0.07687939 0.1118906 0.1320393 -0.0299129
000010 54 16 73 bd 13 25 e8 3c ab ae b0 3d d4 84 04 3e
       -0.059347466 0.02833799 0.08627065 0.12941295
000020 53 45 03 be b5 0f 1b 3d c3 64 18 bd c5 e2 b3 3d
       -0.12819414 0.037856776 -0.03720547 0.08783487
000030 2e 7f d5 3d ef be b6 3c 0e 89 17 3e e7 75 07 3e
       0.10424648 0.022307841 0.14798376 0.1322857
000040 ce 33 6b 3d 3a 7a 7a 3d 2b 1b 05 3d 0b 17 98 3d
       0.05742245 0.06115172 0.032496613 0.0742627
000050 87 4a 0a 3e 4c c1 0e bd d4 b8 34 be 80 32 8c bc
       0.13504992 -0.03485231 -0.17648631 -0.017113924
000060 93 9a b3 3d ba b5 ac 3c f1 07 9e bc 99 eb a8 3d
       0.08769717 0.021082748 -0.019290896 0.08248062
000070 32 f7 59 3e 1e e7 08 3d e2 10 94 3d e8 8c e3 bc
       0.21285704 0.033423536 0.07229783 -0.02777715
000080 bb 79 66 bd 95 69 76 3e 0e 0c 8e 3e 94 54 81 3d
       -0.056268435 0.24063714 0.27743572 0.0631496
000090 40 f3 92 bc c9 c0 c1 bd 0d e2 d0 bd 2f d4 51 bd
       -0.017938256 -0.09460599 -0.10199366 -0.051227745
0000a0 78 94 02 3e 95 37 1e 3d 1f fa df bc f0 ca 3a be
       0.12751949 0.038627226 -0.027340947 -0.18241477
0000b0 71 59 c7 bd 6e 40 0e 3d 91 dd 00 3e 44 a8 fe 3d
       -0.097338565 0.034729414 0.12584521 0.12434438
0000c0 82 c4 03 be 42 6a d1 be c9 bd 6f 3d a9 8f 80 3d
       -0.1286793 -0.4090138 0.058530603 0.06277401
0000d0 7a 4f 7d be de c5 3c 3e 65 04 95 3d e1 d2 3b bd
       -0.24737349 0.18434855 0.07276229 -0.045855407
0000e0 0c d7 50 3d 68 4c 6c 3e 3c bc d1 3d 91 f5 ea bb
       0.050986335 0.23076022 0.10240981 -0.007170387
0000f0 59 2d ad 3d 38 69 b3 3d e3 10 c8 3c f6 82 5a be
       0.08455915 0.08760303 0.024422115 -0.2133902
000100 58 35 bf 3b 63 e6 15 be dc 1c c0 3d 46 66 04 bd
       0.0058352165 -0.14638667 0.093805045 -0.032324098
000110 da dd 87 bd 50 18 a4 bc 19 f8 04 3e 16 0c 1a be
       -0.06634112 -0.020031124 0.12985267 -0.15043673
000120 41 3c 24 3d 5a ce 42 3d 82 f6 fb 3d 74 23 86 bd
       0.040096525 0.047560073 0.12302877 -0.06549731
000130 3a 74 a3 3d 1c f4 3d be d9 a7 19 be 24 7f a4 bd
       0.07981153 -0.18550152 -0.15005435 -0.08032063
000140 bd fb b2 bd af 39 46 3d 4c 28 a2 3c cb fa 0f 3c
       -0.087394215 0.048394855 0.019794606 0.008787821
000150 d2 29 09 3e 1c ca 9e 3d 0f 9b 54 bd d3 d7 e7 3d
       0.1339486 0.07753393 -0.051905688 0.11320462
000160 60 64 37 bd a9 e2 f8 3d ab c0 f4 3b 76 f7 89 bd
       -0.04477346 0.12152607 0.007469257 -0.067366526
000170 8d 80 91 3d cc 72 04 be 8d 89 b0 bd 54 6a 6f be
       0.07104597 -0.12934417 -0.08619986 -0.23380405
000180 41 36 96 bd 35 42 02 3d b9 64 cd bd 6b 69 f7 bd
       -0.07334567 0.03180142 -0.10028977 -0.12080654
000190 89 ed bd bc 90 a6 d4 bd b0 59 ba bd ca 89 9e bd
       -0.023184555 -0.10383332 -0.09099138 -0.07741125
0001a0 2d f8 f3 bd 8e 52 af 3c c1 2c b4 bd e1 da 81 3c
       -0.1191257 0.02140167 -0.08797599 0.01585144
0001b0 66 a0 22 3c d0 4f 9c bd 1e 33 c8 3b 0d c9 34 3d
       0.009925937 -0.076324105 0.0061096093 0.04413705
0001c0 3a ce 9e 3d 3e 69 b3 3d cc d6 de bd a0 6b a0 be
       0.07754178 0.08760308 -0.10880813 -0.3133211
0001d0 df ac 37 3e 21 d2 bc bd 7b 5c 26 3d bd 57 51 3d
       0.17937039 -0.092197664 0.04061554 0.051109064
0001e0 51 f3 fb bc a7 f3 71 be 99 cf 01 bc 64 16 72 bd
       -0.03075567 -0.23628102 -0.00792303 -0.059103385
0001f0 28 57 5a bd b4 8c 25 3e 62 ba 54 bd 12 88 4a 3d
       -0.053305775 0.16166955 -0.05193556 0.049446173
000200 6b 38 70 bd 6b cf 50 bd 73 44 af 3d e3 20 55 be
       -0.058647554 -0.05097906 0.085579775 -0.20813327
000210 4c 6c 36 be 7a 0d 9c bd 41 06 9a bd 38 d4 eb 3d
       -0.1781475 -0.07619758 -0.07520724 0.11515087
000220 14 09 1a 3d bd e4 a4 bc f8 e8 44 3e 7a 6a 27 3e
       0.037606314 -0.020128602 0.19229496 0.16349211
000230 fc fd 7b bc 47 c6 55 3e 65 63 1b 3d b4 73 21 bd
       -0.015380379 0.20876418 0.037936587 -0.039416984
000240 90 0f 57 bd 48 b9 7a bd 38 c5 e7 3d 76 51 9c be
       -0.052505076 -0.061211854 0.11316913 -0.305309
000250 6f 7e ca bd d9 13 3d bd 5a a0 35 be b6 1a 20 3e
       -0.098873965 -0.046161506 -0.1773695 0.1563519
000260 7f 97 c0 3d 18 25 8f 3d e3 22 71 bc dc d5 76 bb
       0.094038956 0.06989497 -0.01471779 -0.0037664091
000270 a3 01 54 3e d6 3c bb 3e 31 89 57 be e8 e8 f2 bc
       0.2070375 0.36569852 -0.21048428 -0.029652074
000280 35 72 23 3d 12 7a 84 3c 27 75 23 3e 64 37 ac 3c
       0.03990384 0.016171489 0.15962659 0.021022506
000290 f4 99 b4 bd 59 15 21 bd fb 4c 0e 3e 3e da c0 bd
       -0.08818427 -0.039327 0.13896553 -0.094166264
0002a0 31 85 27 3e 87 aa 82 3d 4e 38 05 bc c4 54 94 bd
       0.16359402 0.06380182 -0.0081311 -0.0724273
0002b0 5b d8 59 3d 18 26 74 3c c7 59 c6 bd 12 0a 55 bd
       0.05318485 0.01490166 -0.096850924 -0.052011557
0002c0 d1 9e 5a 3c 38 e7 42 be 29 ec 84 bd 6b fc cd bd
       0.013343529 -0.19033515 -0.064903565 -0.100579105
0002d0 6d f9 5b 3e 02 7a 3f bd 3b 9f 2e 3d e8 77 b5 3c
       0.21481867 -0.046747215 0.042632323 0.022151902
0002e0 87 7b c1 bd 93 11 b1 3c 8c f9 c4 3c a0 86 5d bd
       -0.09447389 0.021614825 0.024044774 -0.054083467
0002f0 46 9f 42 3e 10 f5 19 3e 29 65 c4 bb c0 6f 9b bd
       0.1900607 0.1503489 -0.0059935045 -0.07589674
000300 b8 66 68 3e 27 a6 a1 3d 41 18 21 3d fe c9 3d 3d
       0.22695434 0.07893019 0.03932977 0.046335213
000310 d7 6c 42 be 8b 5c 05 be e4 45 15 3e 85 5e 8e 3b
       -0.18986832 -0.13023584 0.14577442 0.0043447637
000320 01 d6 aa 3d 90 68 1d 3e 41 f5 ad bc 8c de ee bb
       0.08341599 0.15371919 -0.02123511 -0.0072897132
000330 42 ff c2 3d e7 b2 e1 3b 07 ba 3d b8 dd 42 27 3e
       0.09521343 0.006887782 -4.5234363e-05 0.163341
000340 62 ab 8e 3c 4a f9 de 3d 4d 77 0a bc 38 60 5c 3e
       0.017415706 0.10887392 -0.008451295 0.2152108
000350 c5 cb 03 3e c2 ed 4b 3d b7 b7 e8 3c 54 a4 35 3e
       0.128707 0.04978729 0.028407915 0.17738467
000360 ed 6e e9 bd f7 c9 85 3d 7b f1 12 bd 7b 3a b6 3d
       -0.113981105 0.06532662 -0.035874825 0.08897873
000370 c2 ae a4 be 4c 5a 8c 3d b5 3e 29 3d 6c be 95 bd
       -0.3216458 0.0685316 0.041319568 -0.07311711
000380 fa d0 cf 3b 35 20 4e bd 6d a6 17 3d 79 06 bc bc
       0.0063420506 -0.050323684 0.03702395 -0.022952305
000390 a9 33 39 be f5 a2 b8 be 55 18 31 3e 1f 4c 07 be
       -0.18086113 -0.36061826 0.17294438 -0.13212632
0003a0 f9 5e 1c be 32 ba 06 3e ad 5e a1 bd 22 10 d5 bd
       -0.15270604 0.13156965 -0.07879386 -0.10403468
0003b0 57 6f 10 be 33 d5 83 3e d5 a1 fb 3d 9f 15 23 be
       -0.14104973 0.25748596 0.122867264 -0.15926217
0003c0 25 fc 53 3d 04 f2 e1 bb b7 3a de bd eb 82 85 bd
       0.051754136 -0.0068953056 -0.10851043 -0.06519111
0003d0 ac f9 1e 3e 47 c5 f3 3d 98 84 93 3d 09 82 66 3d
       0.1552493 0.11902862 0.072030246 0.056276355
0003e0 9e 40 c2 3d 8d a3 2a be 30 a2 58 bd 0d ee 70 bd
       0.09484981 -0.16663952 -0.05288905 -0.058820773
0003f0 13 a6 a9 bd a8 31 ee 3c 49 15 02 3d 69 6b e9 bd
       -0.08283629 0.029076412 0.03175858 -0.1139744

layers.0.conv_out.bias f4 [32]
000000 8f bc e3 3c f8 48 74 3d 8b 80 63 3e 21 bd 57 be
       0.027799873 0.0596399 0.22217004 -0.2106824
000010 20 16 1c 3d 22 a9 9f 3d 9f 6e fe 3d 2f 81 86 bd
       0.038107038 0.077959314 0.12423443 -0.065676086
000020 8d cc 64 be 78 ea 72 be 78 d5 85 bd b4 51 b2 be
       -0.22343655 -0.23722255 -0.065348566 -0.3482796
000030 40 51 f7 3c e1 42 b3 be e6 36 dc 3a c0 82 c0 3b
       0.03019011 -0.35011962 0.0016801029 0.0058749616
000040 4c 61 81 3c b9 0b ac bd 8d fe 35 bd 5a a3 34 be
       0.015793465 -0.084006734 -0.04443221 -0.17640439
000050 4d 10 80 be bb 84 77 bc af 9b b8 be 76 fc 94 bc
       -0.25012437 -0.015107329 -0.36056277 -0.018186789
000060 c6 75 49 3e 3b b7 51 be 13 ff e6 3d b4 d2 50 3d
       0.19673833 -0.20480053 0.1127912 0.050982192
000070 a1 bd a3 bd 58 05 58 bd 1d 5c d5 3d c8 93 19 3d
       -0.07995153 -0.05273947 0.1041796 0.03749445

layers.0.conv_skip.weight f4 [32, 64, 3, 3]
000000 96 f0 9f bd c5 e4 a3 3b 61 86 b1 bc f0 c6 aa bd
       -0.0780956 0.0050016367 -0.021670522 -0.083387256
000010 a9 90 88 bc 01 ed a8 bd 35 1f 5c bc 9f ad f3 bd
       -0.016670542 -0.0824833 -0.013435175 -0.1189835
000020 e8 53 ff 3c 53 af 2a 3b 39 49 e5 3c a4 fe e3 3c
       0.03116794 0.0026044443 0.027989017 0.027831383
000030 86 73 f5 3d f7 b2 29 3e 21 61 65 3c a4 7e 64 bd
       0.11984925 0.16572176 0.014000208 -0.055784836
000040 97 f8 9e 3d f5 f6 51 3d 9e 3d 9d bc 1a 0a 3d 3c
       0.077622585 0.051260907 -0.01919442 0.011538053
000050 90 b1 c3 3c 52 a4 5f 3e ca c1 80 3e cd 8f 92 3d
       0.02388838 0.21840027 0.2514785 0.07156334
000060 e1 d4 9b 3d 09 37 d8 3d ee a5 00 3d 97 08 4b 3d
       0.07608963 0.10557372 0.031408243 0.04956874
000070 88 0b e9 3d 00 51 50 bd f1 52 e1 3d 91 f8 ff 3d
       0.113791525 -0.050858498 0.11002148 0.12498582
000080 71 ec a8 bd 53 2c ed bc 17 d7 ca bd 5d d8 12 3d
       -0.082482226 -0.0289518 -0.099043064 0.03585087
000090 76 da e0 bd 31 79 1a 3e 28 a4 af 3d 09 ea 40 3d
       -0.10979168 0.15085293 0.08576232 0.047098193
0000a0 1c d0 ec 3e 22 d3 60 3d ae cf 4b bd d5 a2 94 3e
       0.46252525 0.054888852 -0.049758606 0.2903048
0000b0 bd c6 64 bd bb 54 10 be 5b 63 38 bc 1e f5 8e bd
       -0.055853594 -0.14094822 -0.011254157 -0.06980346
0000c0 44 5b 22 be 80 b2 b9 3b 66 50 8c 3d 6a d7 48 bd
       -0.15855128 0.005667031 0.06851272 -0.04903356
0000d0 97 36 05 bd ac d9 b2 bd 6a 86 bc 3d 52 94 9e 3d
       -0.032522764 -0.08732924 0.09205325 0.077431336
0000e0 84 b7 58 3d 42 44 2a be 15 87 b4 3c 79 59 61 bd
       0.05290939 -0.16627601 0.022037068 -0.05501697
0000f0 53 4b 9e bd a2 79 85 3d e0 1d a3 bd 8d ee d9 bc
       -0.07729211 0.0651734 -0.079646826 -0.026603008
000100 1d f1 41 bd 04 a3 25 bc 17 75 9b 3c 4f 16 d9 3d
       -0.047349084 -0.010109667 0.018976731 0.10599958
000110 6f 9b 20 3c 8e 93 90 bd 5a 47 a3 3d 92 33 87 bd
       0.009802683 -0.07059394 0.079725936 -0.06601633
000120 9c fe b3 bb cb f3 05 bc 9f ba 9a bd 74 f5 1c bb
       -0.0054929983 -0.008175801 -0.075551264 -0.0023950012
000130 09 60 3b be f1 7b f6 3b 21 e0 b5 3d 08 4e 0d be
       -0.18298353 0.007522099 0.0888064 -0.13799298
000140 b3 a9 36 bd 0e b9 eb 3a bb bf ae bd ce 43 d0 bd
       -0.04459543 0.0017984228 -0.085326634 -0.10169183
000150 51 cf 7f bd 02 6c 59 3e 10 78 2b 3d f3 f8 bc bd
       -0.06245357 0.21232608 0.041862547 -0.09227171
000160 3a e0 3b 3d f4 b9 16 be 6c 6a fa bc dd e0 63 3d
       0.045868136 -0.14719373 -0.030568324 0.05563437
000170 63 e4 83 3d e0 14 97 bd 8d 3e 62 3e d8 1e 8e 3e
       0.06440046 -0.073770285 0.22094174 0.27757907
000180 e4 1e d4 bd 2c 02 04 3e d2 0d 5b 3e be e8 7d be
       -0.103574544 0.12891454 0.21391991 -0.24795815
000190 c0 d0 f2 bd f7 39 54 bd 52 28 29 3e 2e ac 2b 3e
       -0.11856222 -0.051813092 0.16519287 0.167649
0001a0 ed a3 25 be 84 3f 44 3d c3 18 b2 3d 73 8d a1 3d
       -0.16175814 0.047912136 0.08696129 0.078883074
0001b0 f9 67 00 be 6f 54 16 3d a8 20 13 bd 00 65 17 3c
       -0.12539662 0.036701616 -0.035919815 0.009240389
0001c0 65 aa 82 3e 9d be 07 3e 42 44 08 be 7f 39 8b bc
       0.25520626 0.13256307 -0.13307288 -0.01699519
0001d0 06 83 ba 3c 2d 51 14 bd 20 44 48 bd 6a d0 96 bd
       0.022767555 -0.036210228 -0.048893094 -0.073639706
0001e0 66 54 47 bd f3 0f 02 bd 04 5e 1a 3d 72 c5 59 3d
       -0.048664473 -0.03175349 0.037687317 0.053166814
0001f0 af 7e 07 be f8 1f 57 bd 00 d9 86 3d 9b 18 91 3c
       -0.1323192 -0.052520722 0.06584358 0.017711928
000200 2f 20 d1 3c 0a 7c 63 bd 63 71 60 be 70 a3 60 3c
       0.025528042 -0.055538215 -0.21918254 0.013710842
000210 da 70 03 bd 7e f7 f7 bc 88 09 d2 bd 2d d6 09 be
       -0.032090046 -0.03026938 -0.10255724 -0.13460608
000220 22 be 23 bd a8 b9 81 3d 43 db 09 be cd 3c 1d 3d
       -0.039976247 0.06334239 -0.13462548 0.038388062
000230 e1 db ac bd e9 20 44 3d 24 86 17 3d 42 e7 c5 3d
       -0.08440376 0.047882948 0.03699316 0.096632496
000240 e3 b5 19 be 6e 4a 94 bb f5 88 2c 3e 1c 6d 81 3d
       -0.1501079 -0.0045254743 0.1684912 0.06319639
000250 d8 05 43 3c 80 ee 14 3e 58 a4 34 3e 5a 02 09 3d
       0.011903249 0.14544106 0.17640817 0.03344951
000260 2d 5e 81 bd 69 b1 90 bd c7 6b 20 bd 20 32 86 3d
       -0.06316791 -0.07065088 -0.039165284 0.06552529
000270 fd 6c cb bd ad 24 b4 3d c2 f0 f9 ba d3 8b be bd
       -0.09932897 0.08796058 -0.0019068944 -0.09304013
000280 e1 6c 2f 3d 55 e1 9d bd 93 be 0c 3d cd 12 41 bd
       0.042828444 -0.07708994 0.034361433 -0.04713707
000290 47 2a 5d bd df 5a 88 3d 2f 94 07 be d0 57 01 be
       -0.053995397 0.06657957 -0.13240121 -0.12631154
0002a0 e9 f4 78 3d d6 36 ac bd e2 90 af bd e4 ca 28 bd
       0.06078044 -0.084088966 -0.08572556 -0.041209117
0002b0 6b cb e9 3c fd 1c 01 3d a3 1d 55 be 19 c8 52 3c
       0.02853938 0.031521786 -0.20812087 0.01286509
0002c0 d6 d9 d5 bd 83 78 8a bd f1 eb 7f 3b 73 53 09 bd
       -0.104419395 -0.06761267 0.0039050544 -0.03352685
0002d0 a1 61 f6 bd a8 90 30 be b6 bd c4 bd 81 65 1e 3d
       -0.1203034 -0.17242682 -0.09606497 0.03867102
0002e0 ac 2c 1a be 63 fc 90 bd 07 58 12 be ea da 87 bc
       -0.15056103 -0.07079389 -0.14291392 -0.016583879
0002f0 20 e5 e4 bd 7b d1 11 3e a8 a5 37 bc 09 fe 1c 3b
       -0.111765146 0.14240067 -0.011208929 0.0023955128
000300 42 a5 12 bd 3f f4 00 3e 0b 74 1e 3e 77 27 20 be
       -0.035802133 0.12593172 0.15473954 -0.15640055
000310 38 ef 02 bd e4 a3 57 bc 37 85 70 bd ed 54 b0 bd
       -0.031966418 -0.013161633 -0.058720794 -0.08609948
000320 02 5a 8d bd 56 06 01 bd ae 39 16 3d 01 f8 09 3d
       -0.06901933 -0.031500183 0.0366761 0.03368378
000330 ef b8 b0 bd bf 19 05 3d 93 cb d0 3c 32 c6 bb bd
       -0.08629023 0.032495257 0.025487697 -0.09168662
000340 19 8d 7a 3d 71 e8 c1 bd 27 64 e3 3d 67 46 85 3e
       0.061169717 -0.09468163 0.11103087 0.26030275
000350 6f ba 1c bd 24 00 08 be 2c da 0c bd 69 15 13 bd
       -0.038263734 -0.13281304 -0.034387752 -0.03590909
000360 0b 6c c1 bc a1 37 84 3d 51 d7 87 bd 09 39 0f 3d
       -0.02361109 0.06455923 -0.06632865 0.034966502
000370 e8 e9 dc 3e 16 81 79 3d d3 46 08 be 36 f0 64 3e
       0.43147206 0.06091412 -0.13308267 0.22357258
000380 96 2a a2 bd 58 5f b5 bc b9 e9 97 bd c0 97 2b bd
       -0.07918279 -0.02214019 -0.07417626 -0.041892767
000390 56 43 c5 3d c9 4d f5 3d 0b 3a 05 bd 29 d1 05 3d
       0.09631984 0.11977727 -0.032526057 0.032670174
0003a0 95 eb c5 3c a5 d5 b3 bd 85 ed 4d 3d f5 23 f6 3d
       0.024160186 -0.08780984 0.050275344 0.12018577
0003b0 bf 35 1d 3e 6a 08 30 3b 4e 51 20 3e 35 54 b9 3d
       0.15352534 0.0026860484 0.15656015 0.09049264
0003c0 2f 08 ca 3d 5e ef 00 3e 68 0d 51 3d f8 46 88 bd
       0.09864842 0.12591311 0.051038176 -0.06654161
0003d0 22 df 0d 3e 1e 72 b4 bd 17 73 0e 3e 99 ea ce 3e
       0.1385465 -0.088108286 0.13911091 0.4041336
0003e0 3e 96 98 3d 13 2e 29 3e 44 1b fb 3d 76 ff 6d 3c
       0.074505314 0.16521482 0.1226106 0.014526239
0003f0 1e 18 43 3d 8d 8f 95 bd 38 16 01 3b 52 18 b5 3c
       0.04763042 -0.07302771 0.0019697081 0.022106323

layers.0.conv_skip.bias f4 [32]
000000 59 29 a7 3d b9 77 8b 3d ad ce 4a 3e 54 74 65 be
       0.08162183 0.06809945 0.19805403 -0.22407657
000010 8e d9 93 3a 5d ce 38 bc 6e 76 b2 3d db 34 85 3c
       0.0011280046 -0.01127967 0.08713995 0.016260555
000020 cf 50 45 be 41 d9 89 be 8a 7a 0b be 97 23 8c be
       -0.19269107 -0.26923564 -0.13620964 -0.27370903
000030 54 81 3f bd e4 e3 a5 be 22 37 b9 bc cd a6 35 3d
       -0.046754196 -0.3240043 -0.022609297 0.044348527
000040 02 cb d6 3d 6e d8 0b be be 5f 88 bc e5 60 ed bd
       0.104879394 -0.1365678 -0.016647216 -0.11590747
000050 8e 77 76 be 8d bb 77 bd 55 3e aa be 6e 82 eb bc
       -0.24069044 -0.060481597 -0.3325068 -0.028748717
000060 e6 1d 1d 3e 56 a3 84 be c4 fa eb 3d 58 e7 8b 3d
       0.15343437 -0.25905865 0.11522439 0.06831235
000070 9a 7b cf bc 3e 5a 5a bd 40 33 74 3c c0 54 67 3d
       -0.025327493 -0.053308718 0.014904797 0.05647731

layers.0.norm_out.weight f4 [32]
000000 c9 b7 51 3f 1e 8f 4b 3f 53 d9 80 3f fd 7c 2c 3f
       0.8192106 0.79515254 1.0066322 0.67378217
000010 ca 4e 9b 3f e3 56 b0 3f b0 08 2f 3f 2e 6e 4d 3f
       1.213342 1.3776516 0.6837263 0.80246246
000020 93 f1 f9 3e ee 87 88 3f b7 97 c3 3f 69 ac 84 3f
       0.4881712 1.0666482 1.5280675 1.0365115
000030 31 c6 6e 3f 61 8b ea 3f 2f be 9d 3f a2 d0 61 3f
       0.93271166 1.8323785 1.2323664 0.88208973
000040 f0 00 61 3f 44 10 31 3f e1 d6 54 3f 5e 10 35 3f
       0.87892056 0.69165444 0.8314038 0.707281
000050 25 f1 68 3f b1 62 43 3f 9c 31 83 3f 85 d7 68 3f
       0.9099296 0.76322466 1.0249515 0.90953857
000060 5b df 62 3f b7 5e dc 3f 76 7d c9 3f 48 c0 bd 3f
       0.88622063 1.7216405 1.5741413 1.4824305
000070 e0 1d 3d 3f 70 94 6f 3f 41 05 73 3f 7f 4a 71 3f
       0.7387371 0.9358587 0.9492989 0.94254297

layers.0.norm_out.bias f4 [32]
000000 03 bc 74 3e 5d 1d e0 bd 37 f7 32 3d 63 a5 d0 3d
       0.23899846 -0.109431006 0.043692794 0.10187795
000010 dc 85 54 3d 49 d2 44 3e 29 f7 0a 3e 02 e4 6e 3e
       0.05188547 0.19220842 0.13570847 0.23329166
000020 bc b0 23 3e 50 9d c7 3d 1c 74 74 3e 08 99 83 3e
       0.15985388 0.09746802 0.23872417 0.2570269
000030 fa fb 3d 3e 90 ba 36 3e 4a 91 02 3f ce 04 47 be
       0.18553153 0.17844605 0.51002944 -0.19435427
000040 a2 38 a2 bc 15 9e 43 3e 76 e1 aa bd 1e ed d1 bb
       -0.019802395 0.19103272 -0.083437845 -0.0064064404
000050 d7 04 1d bd 48 2e 00 3e aa 43 0d 3e d8 43 21 3e
       -0.038334694 0.12517655 0.13795343 0.15748537
000060 ff 4d 2e 3e a5 99 52 3d 68 dc 0c 3c f6 0b 27 3e
       0.1702194 0.051416058 0.008597471 0.16313156
000070 44 d6 6c 3e 0d 9c 6d be 79 37 3b 3e 1e 2a 6e 3c
       0.23128611 -0.2320406 0.1828288 0.014536409

layers.0.norm_out.running_mean f4 [32]
000000 81 89 90 3e 6a c2 fc 3e a3 c4 a9 3e 7f a9 ed 3e
       0.28229907 0.49367076 0.33157834 0.46418378
000010 8b 8e 10 3d 51 3b 3d 40 89 75 a2 3f 38 fc 02 3f
       0.03529219 2.9567454 1.2692119 0.51166105
000020 df 8c a8 3f 15 06 8c 3e 61 c9 29 3f 42 1d 8a 3f
       1.316799 0.2734839 0.66322905 1.0790179
000030 91 05 95 3d 19 04 8a 3e 2b 09 2e 40 ba 50 01 40
       0.07276452 0.2695625 2.7193096 2.0205522
000040 f9 c6 3a 3e 36 8e 13 3e ba 8c 0c 3f f3 28 85 3e
       0.18239965 0.14409718 0.5490223 0.26007804
000050 19 95 bd 3e 09 8a 39 3d ff f4 df 3f 4b 25 09 3e
       0.37027815 0.045297656 1.7496642 0.13393132
000060 71 28 85 3e a6 12 ca 3e df ff 9e 3e 05 94 3e 3e
       0.26007417 0.39467353 0.3105459 0.18611152
000070 04 da 55 3f b5 7d ba 3f 80 cc 69 3e 81 4b ee 3e
       0.8353579 1.4569613 0.22831917 0.4654198

layers.0.norm_out.running_var f4 [32]
000000 be 57 6b 3f 25 73 94 3f 32 c5 84 3f e0 fe ce 3f
       0.9193076 1.1597639 1.0372679 1.6171532
000010 07 9e 92 3d af a1 e8 40 4c ad 12 40 1b fb c8 3f
       0.071590476 7.269737 2.2918272 1.5701631
000020 df 0f 19 40 54 eb 80 3f 35 5c c2 3f 8c 36 82 40
       2.3915937 1.0071816 1.5184389 4.0691586
000030 22 ec 30 3e b3 9a 76 3f 41 03 e2 40 f2 15 c7 40
       0.17277578 0.963298 7.062897 6.221429
000040 fe 6c 1b 3f 76 29 aa 3e 71 5e be 3f 83 06 3c 3f
       0.60713184 0.33234757 1.4872571 0.73447436
000050 41 89 6e 3f 86 4c 16 3e bc d0 48 40 9f 29 a1 3e
       0.9317818 0.14677629 3.1377401 0.31477067
000060 9b 3d 23 3f ac f8 b5 3f d1 e5 91 3f f9 9a fb 3e
       0.6376588 1.4216514 1.1398259 0.49141672
000070 c5 13 e9 3f 74 98 6c 40 56 c0 09 3f 67 09 ec 3f
       1.8209158 3.696805 0.53809106 1.8440369

layers.0.norm_in.weight f4 [64]
000000 36 33 01 3f 14 a0 22 3f 6c 1b 93 3f 33 58 04 3f
       0.50468767 0.6352551 1.1492743 0.5169708
000010 a3 58 34 3f 5c 3c 0c 3f f3 26 13 3f 9c cd f5 3e
       0.7044775 0.547796 0.57481307 0.4800843
000020 b5 fb 58 3f df 54 90 3f 3c 08 17 3f ab b9 1c 3f
       0.84759074 1.1275901 0.5899694 0.61220807
000030 e5 69 06 3f 42 c2 18 3f bc da 2e 3f 15 48 e2 3e
       0.5250533 0.59671414 0.6830251 0.4419562
000040 ff a9 1d 3f 43 89 1e 3f aa ac 15 3f de 96 33 3f
       0.6158752 0.61928195 0.5846659 0.7015208
000050 17 48 9f 3f d3 86 ee 3e de 31 2c 3f fe 60 41 3f
       1.2443875 0.46587238 0.6726359 0.75538623
000060 a5 94 0a 3f 83 99 1e 3f 09 79 0e 3f 9f a9 f9 3e
       0.54133064 0.6195299 0.55653435 0.48762223
000070 ed 00 cf 3f d6 98 2d 3f a5 e5 0a 3f 4e e9 1c 3f
       1.6172158 0.67811334 0.5425666 0.61293495
000080 3a 74 20 3f 41 c3 5c 3f 49 15 8d 3f 39 7b 0e 3f
       0.6267735 0.86235434 1.1022121 0.5565677
000090 5d 85 f1 3e cb 38 33 3f b2 d0 4e 3f 5a 87 f9 3e
       0.4717206 0.70008534 0.80787194 0.48736078
0000a0 24 af 0b 3f 5c d3 1d 3f d0 bd ec 3f 34 c0 1e 3f
       0.5456412 0.61650634 1.8495426 0.6201203
0000b0 c5 53 f9 3e 30 9a 76 3f 35 8d 62 3f c0 37 28 3f
       0.48696724 0.9632902 0.88496715 0.6571007
0000c0 93 2b 16 3f 6b 0e 8a 3f 1e 2e 1d 3f 57 af 3e 3f
       0.5866024 1.078565 0.61398494 0.744863
0000d0 af 35 0e 3f 53 52 59 3f 93 4c 9f 3f ff 20 23 3f
       0.55550665 0.8489124 1.2445244 0.63722223
0000e0 aa 5b 15 3f 91 fc 1e 3f 94 1e 11 3f 65 d0 2e 3f
       0.58342993 0.62104136 0.56687284 0.68286735
0000f0 1a f1 fb 3e 80 fa e9 3e 1c 51 32 3f 8e 49 f4 3e
       0.49207383 0.4569893 0.69655013 0.47712368

layers.0.norm_in.bias f4 [64]
000000 b3 47 10 be 92 10 2a 3f c2 ad 6a 3e a1 4b b4 bd
       -0.14089851 0.66431534 0.22917846 -0.088034876
000010 d2 07 07 3d 0b 06 88 3e 05 b4 fa 3d cd 2d 51 3f
       0.032966442 0.2656711 0.12241367 0.8171051
000020 08 2b 53 be 7a c8 92 3e e4 a1 0c 3b f4 e2 6c bd
       -0.20621884 0.28668576 0.00214588 -0.057833627
000030 7f 06 a5 3e e1 e6 ab bd 33 05 8a be 59 ec 99 3a
       0.3223152 -0.08393646 -0.26957092 0.0011743411
000040 ce 3e 83 3e 46 5c 95 3d 46 d1 73 3e 01 61 7c 3e
       0.25633854 0.072929904 0.238103 0.24646379
000050 f5 b6 68 3e 27 da a8 3d a3 16 a4 3e 16 b8 c5 be
       0.22726043 0.08244734 0.3204852 -0.3861701
000060 45 0b e7 be ab 7d 2e 3e 71 8e dd 3d df 65 fd 3c
       -0.45125785 0.17040126 0.10818184 0.030932365
000070 e3 8d 1f be cd 26 0f be cc 5c 43 3e b1 b9 98 3e
       -0.15581469 -0.13979645 0.19078368 0.2982917
000080 20 6b f9 bd 75 53 c8 be 75 9c 6b be 87 f2 26 3f
       -0.121786356 -0.39126173 -0.23008902 0.6521382
000090 ee 0d 2f 3e e9 33 51 3e 97 39 0a 3f a7 a0 b9 3e
       0.17095158 0.20429958 0.53994125 0.3625538
0000a0 86 77 00 3e e8 44 1b 3e 21 86 82 bd 2a 14 0c 3d
       0.12545595 0.15163004 -0.06373239 0.034198917
0000b0 0f 56 6b be e1 0a 0d 3c 93 ee 35 3e be ea 8b 3e
       -0.22982047 0.008608551 0.1776679 0.27327532
0000c0 e6 6f cc 3e 0c c6 da 3e ec e0 6a 3e 88 81 b8 3d
       0.39929122 0.42729223 0.22937363 0.09009081
0000d0 3a 84 35 be e8 72 c0 bd fa 0c e1 3e a5 5e 43 3e
       -0.17726222 -0.09396917 0.43955213 0.19079073
0000e0 1e 8c 16 3e 46 42 ef be a5 e5 be bc 60 72 cc 3e
       0.14701888 -0.4673025 -0.023302862 0.3993101
0000f0 5a fd 9f bd f2 96 cf 3d 8a 9c db 3e 26 dc cf bd
       -0.07811995 0.101362124 0.42892867 -0.10149412

layers.0.norm_in.running_mean f4 [64]
000000 e3 72 58 3e 7f da 3b 3e 80 22 09 3e 57 f8 c0 3d
       0.21137576 0.18345068 0.13392067 0.09422367
000010 7b 58 5e 3f 95 9d 17 3f 0e 5f 2c 3e 7d e8 2a 3f
       0.8685376 0.59224826 0.16833135 0.66761
000020 69 94 fc 3d 55 ed 16 3e 12 74 34 3f 3d 97 38 3c
       0.123329945 0.14738972 0.7048961 0.011266527
000030 24 5b aa 3e f1 3b 73 3c 1c 21 9c 3b ac 03 91 3e
       0.3327266 0.014845834 0.004764689 0.28323114
000040 2d 39 58 3f 82 55 0a 3d 30 ca 1d 3f 59 f4 3b 3e
       0.84462243 0.033772953 0.6163664 0.1835493
000050 cc 5f 8f 3d 38 87 3e 3e 51 23 8f 3e bf 96 b4 3c
       0.07000694 0.1860627 0.27956632 0.022044538
000060 48 72 02 3d ef a0 a0 3e e6 7d a0 3d ab 04 52 3e
       0.03184727 0.31372783 0.07836513 0.20509593
000070 55 90 55 3d 79 b7 6c 3f 5d 80 1c 3d 63 7f cb 3d
       0.0521396 0.9246746 0.038208354 0.099364065
000080 37 c2 c3 3b fe a4 05 3e be 08 ab 3c 8b 83 d6 3e
       0.00597408 0.13051221 0.020878192 0.41897234
000090 db e8 35 3e 70 8f b6 3e c4 c3 28 3e 55 86 d1 3d
       0.17764609 0.3565631 0.16480929 0.102307
0000a0 16 da b1 3c c9 3a b0 3d d1 1c e4 3c 33 a6 c4 3a
       0.021710437 0.086049624 0.027845772 0.0015003145
0000b0 4f 37 0c 3d 0d 6c fa 3c 08 1e 9c 3f fd c2 9b 3e
       0.034232434 0.0305691 1.2196665 0.30422202
0000c0 e0 cc 2c 3f 4c b6 06 3e 7c 40 bc 3d 02 e3 4a 3f
       0.67500114 0.13155478 0.09191987 0.79252636
0000d0 42 f5 5e 3d 72 f6 fb 3b 30 4a f4 3d 25 db 5f 3d
       0.054433115 0.0076892907 0.11928213 0.054652352
0000e0 5f 12 b9 3c ae d1 2b 3e e9 ca 1f 3d 1c 06 be 3c
       0.022591768 0.16779205 0.03901187 0.023196273
0000f0 10 de 51 3e 00 76 f4 3c 41 77 bf 3e db dd 96 3c
       0.20494866 0.029841423 0.3739567 0.018416336

layers.0.norm_in.running_var f4 [64]
000000 af 55 59 3d e1 34 01 3d 09 b5 cf 3c 4e df 08 3d
       0.05306023 0.03154457 0.025354879 0.033416085
000010 da e4 75 3d 4f 6c 55 3d 93 c5 11 3d f7 dd d9 3d
       0.060032703 0.052105244 0.035588812 0.106380396
000020 f8 a8 5a 3d 4e 68 bf 3c d1 7d 8c 3d 94 1c 1c 3b
       0.053383797 0.023365166 0.06859935 0.0023820745
000030 d3 82 99 3d 4c 32 49 3b 3e 74 fc 39 59 6d 20 3d
       0.07495656 0.0030700145 0.00048151793 0.039166782
000040 47 26 6b 3d 8c 05 1d 3c c5 a6 86 3d 64 e7 09 3d
       0.05740955 0.009583842 0.065747775 0.033667937
000050 03 19 a1 3c ec 6d 01 3d da 46 66 3d 8d 5a a6 3b
       0.019665247 0.03159897 0.056219913 0.0050767125
000060 8f 71 2f 3c f6 6d 8c 3d b8 f8 d2 3c bb b8 54 3d
       0.010708227 0.06856911 0.025753364 0.051933985
000070 c9 b4 3c 3c 5b d4 93 3d 1b ac 6e 3c b3 5c 0b 3d
       0.011517712 0.07218238 0.0145674 0.03402395
000080 6d 6d c7 3a 48 70 4e 3d 0f a5 58 3b 48 04 e9 3d
       0.0015215107 0.05040005 0.0033057367 0.1137777
000090 69 bb fa 3c 68 c0 7d 3d 25 a9 ce 3c c5 55 05 3d
       0.030606942 0.06195107 0.025227139 0.0325525
0000a0 b6 02 cb 3b 0a 3e 0e 3d 64 14 0c 3c 36 d3 2f 3a
       0.0061953915 0.034727134 0.008549783 0.0006707193
0000b0 5a e0 30 3c e1 c3 d0 3b 35 61 a9 3d 1c e1 a4 3d
       0.010795677 0.006371007 0.08270494 0.08050749
0000c0 5e 86 08 3e 6b 20 87 3d 46 06 fc 3c 85 ae 49 3d
       0.13332507 0.0659798 0.03076471 0.0492387
0000d0 a3 d2 2f 3c 5f ac 7a 3a c5 ec 8b 3c c8 9c 67 3c
       0.010731372 0.00095624285 0.017080674 0.014136501
0000e0 0f 5e ef 3b 26 2e b1 3d 75 66 21 3c 7d f4 ad 3b
       0.007304914 0.0865138 0.009851088 0.0053086863
0000f0 56 42 3d 3d f2 c5 dc 3b c3 0a c8 3d 1e d5 8f 3b
       0.04620584 0.006737464 0.09767678 0.004389419

layers.1.conv_in.weight f4 [16, 32, 3, 3]
000000 fe 89 50 3d 84 8c 0d bd e4 b3 43 bb 71 4d 40 3e
       0.05091285 -0.034557834 -0.0029861862 0.18779542
000010 df 0d 29 3b 06 d6 63 3d 41 5e ac 3d 5d 9a a9 3d
       0.0025795621 0.05562403 0.08416415 0.082813956
000020 bf 74 8f bc c8 e8 63 bd d4 c4 34 3d 73 f5 79 3d
       -0.017511724 -0.05564192 0.044133022 0.061025094
000030 51 8c 70 bd e4 49 e9 bd 44 e4 26 be ff e0 57 bd
       -0.058727566 -0.11391047 -0.16298014 -0.052704807
000040 29 00 05 be 75 3c 5a bd f2 d2 41 bc ff 3e b9 bd
       -0.12988342 -0.053280313 -0.011830078 -0.09045219
000050 79 51 ad bd d9 74 8b bd b8 64 f8 bd ef 57 8c bd
       -0.08462805 -0.06809396 -0.121285856 -0.068527095
000060 a4 87 21 ba 88 9c 53 be 5f 0d 66 be 2a 47 f5 bc
       -0.00061618746 -0.2066518 -0.22466038 -0.02994116
000070 05 21 ab 3e 9d ba 09 3e ad 8f 7d bd ef a4 ce bc
       0.3342363 0.13450094 -0.061904598 -0.02522513
000080 9e 77 ce bd 2f 18 24 be 38 5f 6a be ea dc a0 bd
       -0.10081409 -0.1602485 -0.22887886 -0.07854636
000090 04 24 0f 3d 5f 5e 57 3e 7d 1d a8 3d 2b 6e 95 bd
       0.034946457 0.21032093 0.082087494 -0.072964035
0000a0 24 62 58 3e b7 a9 a0 3d 78 83 04 be d0 31 70 be
       0.21131188 0.078448705 -0.12940776 -0.23456502
0000b0 03 8e 8c be 03 90 34 3e cb 05 a5 bd 21 fd 54 3c
       -0.27452096 0.17633061 -0.080577455 0.012999804
0000c0 02 09 fc 3d 3e b4 a9 bd e6 84 7b 3d 26 aa 8d 3d
       0.123064056 -0.082863316 0.06140604 0.06917219
0000d0 d3 9b be 3d 48 9f b7 bd c0 87 09 3d 81 19 12 3e
       0.09307065 -0.08965927 0.033576727 0.14267541
0000e0 49 76 f2 3d 56 7c 67 bd 8c 2f f2 3c 79 65 67 bd
       0.11838967 -0.05651506 0.029563688 -0.056493256
0000f0 33 33 b2 3d fd 2f 5c 3c c1 65 0b 3d e3 7d 59 bc
       0.08701172 0.013439176 0.034032587 -0.013274643
000100 a2 95 7b 3e 70 72 59 3e 8d 06 96 bd db 49 b5 bd
       0.24568799 0.2123506 -0.07325468 -0.088519774
000110 14 64 e5 3d 68 53 3b bd 46 47 d0 3d 00 75 3c 3e
       0.11200729 -0.04573384 0.10169844 0.18404007
000120 66 cb 42 3d b9 59 fa 3d 42 bd d5 3d 94 aa cb 3d
       0.047557257 0.122241445 0.10436489 0.099446446
000130 fc f2 5a 3e 68 2b 6b 3e bf df e2 3d 14 96 f6 3d
       0.21381754 0.22965777 0.110778324 0.12040344
000140 da 07 61 3d 00 f8 5b bb 82 0e ea bc 48 8b 18 3d
       0.05493913 -0.0033564568 -0.028571371 0.037242204
000150 9f 56 da bc b9 82 99 be d3 73 34 bd 4c e0 36 3d
       -0.026652632 -0.29982546 -0.04405577 0.0446475
000160 30 a1 2c be 87 6a 50 3c e6 69 95 bc fc 57 22 bd
       -0.16858363 0.012720711 -0.018238973 -0.03963469
000170 64 cf 90 3b 18 5e 26 be ba 56 87 bd 78 9a 69 3d
       0.004419254 -0.16246831 -0.06608339 0.05703208
000180 69 f1 bb bc a4 42 45 bc 8f 17 6c bd d0 b5 50 3d
       -0.022942262 -0.012039814 -0.057639655 0.05095464
000190 27 cf 96 bd de 62 01 3d 1b 66 03 3e 01 5f d9 bd
       -0.0736373 0.031588428 0.12831919 -0.10613824
0001a0 a2 c6 22 3d 87 6c 97 3d d7 bf 46 3e aa d2 1d 3e
       0.039740212 0.07393747 0.19409119 0.15412393
0001b0 22 df 11 3e fe 63 1d 3e c6 17 a6 bd 76 17 22 3e
       0.14245275 0.15370175 -0.08110003 0.15829262
0001c0 f1 0d 6b 3e 2f 18 23 3e f6 45 29 3d 94 da 01 be
       0.22954537 0.15927194 0.041326486 -0.12681037
0001d0 94 e0 46 bd 1d 5b ba 3d bd dc 62 3e 21 d5 d1 bd
       -0.04855402 0.0909941 0.22154517 -0.10245729
0001e0 3e 3b 94 bc 2e 17 e0 bd 69 95 16 be 0f 06 11 be
       -0.018094655 -0.10941921 -0.14705433 -0.14162467
0001f0 0c e4 1e be 73 d1 48 bd cc 0d 40 3d b4 9a 95 be
       -0.1551668 -0.04902787 0.046888158 -0.29219592
000200 a3 11 e5 bc 2c 9a 8e 3c 47 cf 90 be bc 30 e3 3c
       -0.027962511 0.0174075 -0.2828314 0.0277332
000210 d0 50 7e bd 17 5d a1 be dd 1b f3 bd 4c 2a 43 be
       -0.062088788 -0.31516334 -0.11870549 -0.19059104
000220 57 28 db 3d e5 5d 29 be 2d a9 85 be 01 dc 8b bc
       0.107010536 -0.16539724 -0.26105633 -0.01707268
000230 bb ae 2a bd 99 86 7b bc d8 19 90 3d b7 8f 1b 3d
       -0.041670542 -0.015351915 0.07036179 0.037978854
000240 c5 11 70 3d 9d 1e 35 bf b0 ac 4e 3d d0 44 cc bd
       0.058610696 -0.7074984 0.050457656 -0.099740624
000250 31 25 0d 3e 2f 67 ad 3d 3f 8e 0d bc f3 27 3c bd
       0.13783719 0.08466946 -0.008639871 -0.045936536
000260 f0 c1 fa bd 4a c3 15 ba 49 fa 0f be 22 bc b1 3d
       -0.12244022 -0.0005712999 -0.1406032 0.086784616
000270 8a 47 37 bd cb 87 15 3e eb 2d 14 3e a2 1e 8a bd
       -0.04474596 0.14602582 0.14470641 -0.06744124
000280 cd 00 6d 3c 43 05 2d 3e aa 8f 79 3d 46 33 13 3d
       0.014465523 0.16896538 0.060928024 0.03593757
000290 30 a9 04 bc bb 99 14 bc a2 4d fe 3d 9d 19 17 3d
       -0.008096978 -0.009069855 0.12417151 0.03688966
0002a0 a8 02 7b bd cb 72 96 3d 79 d9 17 3d 75 56 e9 bc
       -0.06128183 0.07346114 0.037072632 -0.028483609
0002b0 f8 7e d7 bd e8 43 0a 39 1b 72 6a 3e b3 58 8a 3e
       -0.10522264 0.00013186003 0.2289509 0.27020797
0002c0 51 88 4a 3e 7d 2d fd 3d a7 22 bf 3d f3 b0 e1 3d
       0.19778563 0.12362192 0.09332781 0.110200785
0002d0 69 9a a4 3d 7d a9 e5 3b 5d 0e 20 3d 06 fb 92 3d
       0.08037264 0.00700873 0.039076198 0.07176785
0002e0 da d4 48 3d fa 91 bc 3d ed 49 46 3c 6e 78 99 3d
       0.049031116 0.0920753 0.012102586 0.07493673
0002f0 ef 7b 84 3d d0 dd 07 3e c5 72 d1 be b0 f5 99 3d
       0.06468951 0.13268209 -0.40907875 0.07517564
000300 97 ab 3e 3e 19 c2 1c be 84 85 32 3e 77 0b 3a bd
       0.18620144 -0.15308417 0.17433745 -0.04542109
000310 57 dc 5e bb b6 91 05 bc 63 bd 61 bd 74 1d 8b 3d
       -0.0034005844 -0.008152416 -0.055112254 0.06792727
000320 6a b1 fb bd 1a 37 33 bc 49 32 c9 bb 46 07 7e bd
       -0.122896984 -0.01093843 -0.0061400277 -0.062018655
000330 81 ca 42 bd a6 cb 4c bc 28 64 96 bd de c5 0c 3b
       -0.047556404 -0.012499725 -0.07343322 0.0021480243
000340 6e 7b 9e bd 81 2e 8f bd a4 d4 da bd ae 7e 1e bd
       -0.07738386 -0.06991292 -0.10685089 -0.03869503
000350 7b e8 f5 3d e9 6f 08 3c 8d 73 09 3c df 14 ce bb
       0.12007233 0.008327463 0.008389366 -0.006289109
000360 99 ad 03 3e 84 db a6 3d d8 76 0b 3e c6 1b ed bd
       0.12859191 0.08147338 0.13619554 -0.11577563
000370 ba 2a a0 be be 20 d0 bd bc 70 ea 3d 40 28 2a 3e
       -0.31282598 -0.10162495 0.114472836 0.16616917
000380 b0 21 d7 3d a8 e4 ac 3d 35 de 50 3d a5 a6 4d 3e
       0.10504472 0.0844205 0.050993163 0.20083101
000390 1a 39 a0 3d 9b 8a a7 3c 78 4a 0a 3e 7c 49 b5 bd
       0.07823391 0.020451834 0.1350497 -0.08851907
0003a0 2f 81 1b be 4f 14 05 be 3c 1b df bc 7f 0e c3 3d
       -0.15185998 -0.12996028 -0.027234666 0.09524249
0003b0 af 0a b2 3d 4a e0 b0 3d 29 a8 cb bb 28 1d a6 3b
       0.08693444 0.0863653 -0.0062151146 0.0050693937
0003c0 b8 28 d7 3d 52 50 fc 3c 05 b2 59 bd df a9 70 3d
       0.10505813 0.030800018 -0.05314829 0.05875575
0003d0 25 a2 6d be 77 5b fd 3c a1 8b 8e b7 45 20 ff bd
       -0.23206384 0.030927403 -1.6992739e-05 -0.12457327
0003e0 4d 70 4b bc a8 ee 1c ba 68 ef 12 be 8b 25 a8 bc
       -0.012416911 -0.000598649 -0.14349139 -0.020525714
0003f0 70 9d c5 3c 90 31 fa 3d 10 ce d5 3d a0 e1 fc 3d
       0.024122924 0.122164845 0.10439694 0.12347722

layers.1.conv_in.bias f4 [16]
000000 c6 b8 bb be 2d d2 13 be cd 39 da bc 9c 0e 4d bd
       -0.36664408 -0.14435644 -0.02663889 -0.05006276
000010 60 6e 46 bf 7a 83 98 bc 1c 19 f8 bd b0 05 d0 bc
       -0.7751217 -0.01861738 -0.12114164 -0.025393337
000020 1e 45 b0 be ea 27 b7 be f8 7e 67 be bb 4c f1 3c
       -0.34427732 -0.3577264 -0.22607028 0.029455533
000030 24 85 4f be a9 45 f2 bd cf 31 af bc 2e 96 3f be
       -0.20265633 -0.11829693 -0.021386055 -0.18709633
