weights/patch_mlp_ordinal_5x5_256_halving_mr.pth (torch, 629984 bytes, 105 tensors)

conv_in.weight f4 [256, 5, 5, 5]
0	0x3c2f8cb3	0.010714698
1	0xbca0f51c	-0.019648127
2	0xbd37ba74	-0.04485555
3	0x3cf38fc2	0.029731635
4	0xbc663efb	-0.014053102
5	0xbcdb7b1d	-0.026792103
6	0xbd816916	-0.06318872
7	0xbcd79d7b	-0.02632021
8	0xbc995d21	-0.018721165
9	0x3c8356e3	0.016032642
10	0x3d2eca77	0.042673554
11	0xbc5a3e39	-0.013320499
12	0x00000000	0.0
13	0xbd1312c9	-0.035906587
14	0x3c515d1f	0.012778549
15	0x3dc1c52f	0.09461438
16	0xbe5d65a5	-0.21620806
17	0xbd4d83ef	-0.05017465
18	0xbc57381b	-0.013135935
19	0x3d3f78d3	0.046746086
20	0x3ce57bf3	0.028013205
21	0x3c872d2a	0.016501028
22	0x3db2d8eb	0.0873278
23	0xbd967e8e	-0.07348357
24	0x3cd098c9	0.025463479
25	0x3d260833	0.040535163
26	0x3db2f1d4	0.08737531
27	0xbbef4041	-0.007301361
28	0xbb69649a	-0.0035612942
29	0xbd1bbcc0	-0.038021803
30	0xbcc61de5	-0.024184177
31	0xbe050953	-0.12991838
32	0x3da9a270	0.082829356
33	0xbe003cdf	-0.1252322
34	0x3db6604c	0.08905086
35	0xbcda2e88	-0.026633516
36	0xbbfc9088	-0.007707659
37	0x80000000	-0.0
38	0xbd0f5b52	-0.0349992
39	0x3c8274d3	0.015924847
40	0xbbdcc36d	-0.0067371638
41	0xbc050662	-0.008119198
42	0x3d32dfc3	0.043670427
43	0x3d1ae2d6	0.037813984
44	0x3e54e24b	0.20789449
45	0xbe336ba1	-0.17521526
46	0xbe03bd15	-0.12865098
47	0x3debe9ac	0.11519179
48	0x3d6f33a9	0.058398876
49	0x3de36998	0.11104125
50	0x3d57e60d	0.052709628
51	0xbd5ace8d	-0.05341964
52	0xbdab2431	-0.08356512
53	0xbb1ebb9f	-0.0024220718
54	0xbd8d9233	-0.06912651
55	0xbd9ce92b	-0.07661661
56	0xbdf1ea7f	-0.11812305
57	0xbbc9ee17	-0.0061624157
58	0x3bfa8436	0.0076451553
59	0x3dd3eeea	0.103483036
60	0x3dfabe04	0.12243274
61	0x3cb789e1	0.022404613
62	0x80000000	-0.0
63	0xbcc6e1f8	-0.024277672
64	0x3d805c12	0.06267561
65	0x3d0ebed0	0.03484994
66	0xbd6f247b	-0.0583844
67	0xbe2bf5e7	-0.16793023
68	0xbd018f6e	-0.031630926
69	0x3dd42f9b	0.103606425
70	0x3d5d561f	0.05403721
71	0xbd04ff64	-0.032470122
72	0x3d857f19	0.065183826
73	0xbd98fd40	-0.074701786
74	0x3d6c178e	0.05763965
75	0x3d1509a3	0.036386143
76	0x3d92a6a8	0.071606934
77	0xbc9e4a62	-0.019322578
78	0xbdaa9bfe	-0.083305344
79	0xbc81fa48	-0.015866414
80	0xbd3448dd	-0.0440148
81	0xbe2cec8c	-0.1688711
82	0xbc87c5fa	-0.016573895
83	0xbd7eb5ab	-0.06218497
84	0x3dab5579	0.08365912
85	0x3ad8f1f3	0.0016551599
86	0xbdcbce7d	-0.09951494
87	0x00000000	0.0
88	0xbe0232cb	-0.12714688
89	0x3e01565c	0.126306
90	0x3da1a752	0.07893242
91	0xbdd6fde8	-0.104976475
92	0xbdc1f7a8	-0.09471065
93	0xbe1df302	-0.15424731
94	0x3cb3da4c	0.021954678
95	0x3d312933	0.04325218
96	0x3c9b0c90	0.018926889
97	0x3dadac68	0.084801495
98	0x3d0a6690	0.033789217
99	0x3db8b6eb	0.09019264
100	0xbe0bb54e	-0.13643381
101	0xbe1518b3	-0.14560203
102	0x3c0807f1	0.008302675
103	0xbcbba82f	-0.022907345
104	0xbd1e588e	-0.03865867
105	0xbe0372ad	-0.12836714
106	0xbdaf5b2e	-0.08562313
107	0xbcb65ac4	-0.022260077
108	0xbd8d8bfc	-0.069114655
109	0xbdf336e2	-0.118757024
110	0xbd93c642	-0.07215549
111	0x3be4dc02	0.006984235
112	0x80000000	-0.0
113	0xbcafc96e	-0.021458354
114	0x3bd137fa	0.0063848468
115	0xbdc5da73	-0.096608065
116	0xbdbf68f0	-0.09346187
117	0x3cb0a10e	0.021561172
118	0xbd23e162	-0.040009864
119	0xbcc4c8c0	-0.024021506
120	0xbd853b71	-0.06505478
121	0xbdc43726	-0.09580831
122	0x3cbf7a1b	0.023373654
123	0x3c4795e3	0.012181732
124	0xbceb76df	-0.028743206
125	0xb9b9e5f2	-0.00035457272
126	0x3c50e406	0.0127496775
127	0xbcbc2657	-0.0229675
128	0x3c9d7bd9	0.019224094
129	0xbc715447	-0.014729566
130	0xbbc0b72a	-0.00588121
131	0xbd8f8f13	-0.07009711
132	0x3da1dd01	0.07903481
133	0xbd03f7a6	-0.032218598
134	0x3cb4b482	0.02205873
135	0xbc2ff003	-0.010738376
136	0xbbc3a564	-0.005970644
137	0x80000000	-0.0
138	0xbea764df	-0.32694146
139	0x3ca81097	0.020515723
140	0x3cc646ee	0.024203744
141	0xbc7411eb	-0.01489685
142	0xbd69fa2d	-0.05712335
143	0xbd0cd718	-0.034384817
144	0x3d1c75c2	0.03819824
145	0xbc8d3a62	-0.017239753
146	0x3c63f7f7	0.0139141
147	0xbd0d75bb	-0.034536105
148	0x3c8d6141	0.017258288
149	0x3c854436	0.016267877
150	0x3daf1c84	0.08550361
151	0x3daafa70	0.083485484
152	0x3ce51259	0.02796285
153	0xbc9b8585	-0.018984566
154	0xbd2d7250	-0.042345345
155	0x3cea5c9d	0.028608615
156	0x3daf3b29	0.08556206
157	0x3e771944	0.24130732
158	0x3e1c613d	0.15271468
159	0x3dcbb120	0.09945893
160	0x3d23b88e	0.039970927
161	0x3d342936	0.043984614
162	0x00000000	0.0
163	0x3e05266c	0.13002938
164	0x3e2a6a52	0.1664212
165	0xbb7e8850	-0.0038838573
166	0x3e14bbe3	0.14524798
167	0x3e2d6e8f	0.16936706
168	0x3e201fea	0.15637174
169	0x3d5685cf	0.052373704
170	0xbbc973b3	-0.0061478256
171	0x3d56cb2d	0.052439857
172	0x3d281b1b	0.041041475
173	0x3dd0e2b9	0.10199494
174	0x3debbcb0	0.11510599
175	0x3c81b55f	0.015833555
176	0xbd84771a	-0.06468029
177	0xbd9233a0	-0.07138753
178	0xbce1c55d	-0.02755993
179	0xbd1d2e87	-0.03837445
180	0xbd679da0	-0.056546807
181	0x3d3ab022	0.04557813
182	0x3e578551	0.2104695
183	0x3e242e44	0.16033274
184	0x3dfb0e09	0.12258536
185	0x3c3179c7	0.010832257
186	0x3d0aeeb6	0.03391906
187	0x00000000	0.0
188	0x3e8229f7	0.25422642
189	0x3d94974f	0.07255422
190	0x3c2ce877	0.010553471
191	0x3df6224b	0.120182596
192	0x3e093e7f	0.13402747
193	0x3d975bb5	0.073905386
194	0x3dbde1b5	0.09271566
195	0xba485444	-0.0007641951
196	0x3cbf2a76	0.023335677
197	0xbd09b32c	-0.033618137
198	0x3d1d3730	0.03838271
199	0x3d893add	0.067006804
200	0xbdeb8e75	-0.11501781
201	0x3d000f54	0.031264618
202	0x3c7cc91e	0.015428809
203	0xbce04628	-0.027377203
204	0x3d232eec	0.03983967
205	0xbd83d2a2	-0.064366594
206	0x3df76472	0.12079705
207	0x3dbde473	0.09272089
208	0x3df2e48c	0.11859998
209	0x39e7d0e4	0.0004421539
210	0xbc8d3ffe	-0.017242428
211	0x3dd215c5	0.102580585
212	0x00000000	0.0
213	0x3d8d8052	0.06909241
214	0x3d1a571e	0.037680738
215	0xbd735e21	-0.05941594
216	0x3ddfd1ee	0.10928713
217	0x3d5b01c0	0.053468466
218	0x3d91343b	0.0709004
219	0x3dcd62cf	0.10028612
220	0xb9ebb212	-0.00044955366
221	0x3dc2345a	0.094826415
222	0xbd67f832	-0.056633182
223	0x3d72ebd5	0.05930694
224	0xbd8824ed	-0.06647668
225	0x3d1d5d4c	0.038419053
226	0x3c717749	0.014737912
227	0x3dab6966	0.083697125
228	0x3d4afd87	0.04955819
229	0x3d9d140a	0.07669838
230	0x3cd28304	0.025697239
231	0x3cbe823f	0.023255466
232	0x3da282b8	0.07935089
233	0x3d04ccdc	0.03242193
234	0xbcd93b42	-0.026517514
235	0xbd6513ec	-0.055927202
236	0x3d739af1	0.059473936
237	0x00000000	0.0
238	0x3c070073	0.008239853
239	0x3d83106e	0.06399618
240	0xbd34ff58	-0.044188827
241	0xbcedb021	-0.029014649
242	0xbd905218	-0.07046908
243	0x3d792dc0	0.060834646
244	0xbcade07c	-0.021225207
245	0x3d0a8e5f	0.033827182
246	0x3d8e112b	0.06936868
247	0x3dbcbe5e	0.09215997
248	0x3c91724b	0.017754694
249	0x3dae94b7	0.08524459
250	0xbce3e687	-0.027819885
251	0x3d936a87	0.07198053
252	0x3caa99e1	0.020825328
253	0xbbf8b7ff	-0.0075902934
254	0x3bdc6710	0.006726153
255	0x3dbf951f	0.093546145

conv_in.bias f4 [256]
0	0xbd0cff3a	-0.03442309
1	0xbd270469	-0.04077569
2	0x3c549180	0.012974143
3	0x3d159030	0.03651446
4	0xbd2077c1	-0.039176706
5	0x3d397294	0.045275286
6	0x3d7621ef	0.060090955
7	0xbd0249ec	-0.03180878
8	0xbcd25ba4	-0.025678463
9	0x3c3f2efd	0.011668918
10	0xbd6890f4	-0.056778863
11	0xbcc44ad1	-0.023961456
12	0x3d661867	0.056175616
13	0x3d2999b6	0.041406356
14	0x3b86ebce	0.0041174656
15	0x3d922ff7	0.07138055
16	0x3dabc6b6	0.083875105
17	0xbd12a454	-0.035801247
18	0xbd6b7fb2	-0.057494827
19	0xbdbf63b7	-0.09345191
20	0xbda49b3e	-0.080374226
21	0xbc066a89	-0.008204111
22	0x3d31796d	0.04332869
23	0x3d9e5821	0.07731653
24	0x3c4a2ce4	0.012339804
25	0x3d1a5c63	0.037685763
26	0x3da76f77	0.08175557
27	0xbd1cd6cd	-0.038290787
28	0x3d1f0337	0.038821425
29	0x3daa63eb	0.08319839
30	0x3d69c17e	0.057069294
31	0x3b1aa82c	0.0023598773
32	0x3a529b7f	0.0008034035
33	0xbc3894f4	-0.011265982
34	0x3c81510c	0.015785716
35	0xbda700d5	-0.081544556
36	0xbcb3caf2	-0.021947358
37	0xbc442338	-0.011971287
38	0xbd372724	-0.04471506
39	0x3d2085b8	0.039190024
40	0xbda59440	-0.08084917
41	0x3d16c118	0.036805242
42	0x3d9a9336	0.075476095
43	0x3d2b1370	0.041766584
44	0xbce03564	-0.027369209
45	0x3d6dc04c	0.058044717
46	0x3c644cc6	0.01393432
47	0x3c4a5f65	0.012351845
48	0x3d22aaa2	0.03971351
49	0x3cf3150a	0.029673118
50	0xbd474ec9	-0.04865912
51	0x3d527901	0.05138493
52	0x3cff16b1	0.03113875
53	0x3c73c1c6	0.014877742
54	0xbd457bae	-0.048213653
55	0xbce7d4fe	-0.028299805
56	0xbcdaf39a	-0.026727486
57	0x3c8d4eee	0.01724955
58	0xbd10eaf7	-0.03538033
59	0xbd92be4b	-0.07165202
60	0xbd5a5312	-0.05330188
61	0xbd29804c	-0.04138212
62	0x3da88868	0.082291424
63	0x3b92a1ea	0.004474868
64	0x3c025df3	0.00795697
65	0x3caf2cdc	0.021383695
66	0x3c342429	0.010994949
67	0xbd932357	-0.07184475
68	0x3d31dd50	0.04342395
69	0x3db6b446	0.08921103
70	0xbb1f3600	-0.002429366
71	0x3d0ea16d	0.034821916
72	0xbd7fd229	-0.062456284
73	0x3d83f0f2	0.06442441
74	0xbbbdbef4	-0.0057905857
75	0x3da2c39a	0.07947464
76	0xbd786af9	-0.060648892
77	0xbdb32626	-0.087475106
78	0x3d3f1258	0.046648353
79	0x3d86fca4	0.06591156
80	0xbc1f5589	-0.009724983
81	0x3cdcb889	0.026943462
82	0x3aeedf82	0.001822457
83	0x3cd6b972	0.026211474
84	0xbd5d4469	-0.05402032
85	0x3c1bf33a	0.009518439
86	0x3c9cb964	0.01913137
87	0x3d83ece9	0.064416714
88	0x3d8145b7	0.06312125
89	0x3da84f2f	0.08218228
90	0x3d3167d7	0.04331192
91	0xbd81bf2e	-0.06335293
92	0x3da181ff	0.07886123
93	0x3c1fee86	0.009761458
94	0xbdaab6c2	-0.083356395
95	0xbd83027f	-0.063969605
96	0xbd8afaba	-0.067861035
97	0x3d9a56a8	0.075360596
98	0x3d56b10e	0.052414946
99	0xbbf6f9b0	-0.0075370893
100	0x3d0649ef	0.032785352
101	0x3d152d0f	0.036419924
102	0xbd077eeb	-0.033080023
103	0x3d8a9439	0.067665525
104	0xbd3c32b9	-0.04594681
105	0xbdad597d	-0.08464334
106	0xbdb17586	-0.08664994
107	0xbd05b25b	-0.032640796
108	0xbd1611d6	-0.036638103
109	0x3d8674cb	0.06565245
110	0x3d6f92c1	0.058489565
111	0x3c61c412	0.013779657
112	0x3a575bd6	0.0008215284
113	0xbd1e5a89	-0.03866056
114	0x3d6b2c20	0.057415128
115	0x3d55298d	0.05204158
116	0x3d4690c1	0.04847789
117	0x3d0250b7	0.031815257
118	0x3d43f6b7	0.047842707
119	0xbd001532	-0.031270213
120	0xbc0df663	-0.0086647
121	0x3cc52ba3	0.02406866
122	0x3d8665a6	0.06562357
123	0x3d32bb70	0.043635786
124	0xbab8a65b	-0.0014087664
125	0xbd6e9aa0	-0.05825293
126	0xbd9c9ea1	-0.076474436
127	0x3da86dda	0.082240775
128	0xbd18e637	-0.037328925
129	0xbdab1d2f	-0.08355176
130	0x3da2acc0	0.07943106
131	0x3db6642a	0.089058235
132	0x3ccf593d	0.025311107
133	0xbd9423c5	-0.07233385
134	0x3cb922f0	0.022599667
135	0xbb153a32	-0.0022770283
136	0xbdab21d5	-0.08356062
137	0x3c8252f5	0.015908698
138	0x3b8b7165	0.004255461
139	0x3c040aac	0.008059185
140	0xbd5e1c68	-0.05422631
141	0xbcf32f62	-0.02968568
142	0xbd84ef4d	-0.064909555
143	0xbcb8bf1b	-0.022552064
144	0x3d9c0ccf	0.076196305
145	0x3d0e7f83	0.034789573
146	0xbd5ceb7e	-0.05393552
147	0xbd8cfbcc	-0.06883964
148	0xbd56de7b	-0.052458268
149	0xbd1841ea	-0.037172236
150	0x3c51255a	0.012765253
151	0x3c269c40	0.010169089
152	0x3d9c358f	0.07627403
153	0x3d5c84c0	0.053837538
154	0xbc5fa341	-0.013649763
155	0x3d8fef0d	0.07028017
156	0xbd4dcf6c	-0.05024664
157	0xbd95a102	-0.073061004
158	0xbd61990a	-0.05507759
159	0x3d9064ce	0.07050477
160	0x3c51ebed	0.012812597
161	0x3d71108e	0.05885368
162	0xbce893ad	-0.02839073
163	0x3d8e743a	0.06955762
164	0xbc729f80	-0.014808536
165	0xbcf58d31	-0.029974552
166	0x3d6119ea	0.054956354
167	0xbda46c1d	-0.080284335
168	0xbcdc16f4	-0.026866414
169	0xba4e82cb	-0.0007877766
170	0x3d2db92d	0.042412926
171	0xbce4b3ba	-0.027917732
172	0xbc47cbda	-0.012194598
173	0x3dad0cba	0.08449693
174	0xbcf87d89	-0.030333297
175	0x3b2651b4	0.0025378289
176	0x3d92293e	0.071367726
177	0xbdad7def	-0.084712856
178	0xbbfcbff3	-0.007713312
179	0x3d3f4ae2	0.046702273
180	0xbd5103c2	-0.051028974
181	0x3d1d3114	0.038376883
182	0xbd857dfb	-0.065181695
183	0xbd5b16e2	-0.05348862
184	0x3d8933ba	0.06699319
185	0xbdaf27f9	-0.08552546
186	0x3d7fc4c8	0.062443525
187	0x3d47671a	0.04868231
188	0xbd457173	-0.048203897
189	0x3db65c48	0.0890432
190	0x3d7070b8	0.058701247
191	0x3b171479	0.0023052974
192	0x3d4cd590	0.050008357
193	0xbd35a4e3	-0.0443467
194	0x3d0060a0	0.03134215
195	0xbd2ca1e2	-0.04214657
196	0x3cc5a3f3	0.024126029
197	0x3d874bd9	0.06606264
198	0x3d260fcc	0.04054241
199	0x3d5c7c83	0.05382968
200	0xbcf30e2f	-0.02966985
201	0xbb1a9a0e	-0.002359036
202	0x3d820d32	0.06350173
203	0x3cc0645e	0.023485359
204	0xbd73f6b5	-0.05956145
205	0xbc4b545a	-0.012410248
206	0xbbae0631	-0.0053107967
207	0xbcf5d695	-0.030009547
208	0xbd9616b8	-0.07328552
209	0x3da802d1	0.08203662
210	0x3d4a6962	0.049416907
211	0x3d9c00fe	0.07617377
212	0xbda3313f	-0.07968377
213	0x3d89daae	0.06731163
214	0x3d1c0209	0.03808788
215	0x3dbbf5eb	0.091777645
216	0xbda8937f	-0.08231258
217	0x3ceb228c	0.028702997
218	0xbd825bd4	-0.06365171
219	0xbdb0e4dc	-0.086374015
220	0x3ce1fad8	0.027585432
221	0x3c03bc66	0.008040523
222	0xbd4da95b	-0.050210338
223	0x3c40a2b3	0.0117575405
224	0xbd8492e1	-0.064733274
225	0xbca27860	-0.01983279
226	0xbd0e2137	-0.034699645
227	0xbd572c08	-0.052532226
228	0xbd0ceea0	-0.034407258
229	0x3c1525c0	0.009103239
230	0x3af003ed	0.0018311717
231	0xbd05aa09	-0.03263286
232	0xbce280b5	-0.027649263
233	0x3d731b49	0.059352193
234	0xbc24246b	-0.010018448
235	0x3d30e869	0.043190394
236	0x3da981c3	0.08276703
237	0xbda08dc0	-0.07839537
238	0x3d919b77	0.07109731
239	0xbdacd22f	-0.08438527
240	0x3c87184b	0.016491076
241	0xbcb11618	-0.02161698
242	0xbd52bffd	-0.051452626
243	0x3bd32826	0.006443995
244	0x3c8c4822	0.01712424
245	0xbceaa483	-0.028642898
246	0xbda11ac2	-0.07866432
247	0xbd7b2283	-0.06131221
248	0xbda1725b	-0.0788314
249	0x3d32b153	0.04362614
250	0xbcfcfc77	-0.030882103
251	0xbdb15ba5	-0.08660058
252	0x3da3fc28	0.08007079
253	0x3da570a4	0.08078125
254	0xbd76dd0e	-0.060269408
255	0xbc0df3f4	-0.00866412

norm_in.weight f4 [256]
0	0x3f509bcd	0.81487733
1	0x3f5d4ce8	0.86445475
2	0x3f7fc992	0.99916947
3	0x3f8642f6	1.0489185
4	0x3f609507	0.877274
5	0x3f87db00	1.0613708
6	0x3f8dccc3	1.1078113
7	0x3f6f696c	0.93520236
8	0x3f84ea74	1.038405
9	0x3f7d914f	0.9904985
10	0x3f342ca6	0.7038063
11	0x3f53f4c0	0.82795334
12	0x3f75d1f1	0.9602347
13	0x3f87fe19	1.062442
14	0x3f85a711	1.044161
15	0x3f8842fe	1.0645444
16	0x3f90c35e	1.1309621
17	0x3f582f84	0.84447503
18	0x3f5b415b	0.856466
19	0x3f53f49e	0.8279513
20	0x3f611c26	0.87933576
21	0x3f028778	0.5098796
22	0x3f16405b	0.5869195
23	0x3f26e114	0.6518719
24	0x3f576128	0.84132624
25	0x3f4a4a24	0.7901938
26	0x3f4b2f6c	0.79369235
27	0x3f36c7ea	0.71398795
28	0x3f2a78fa	0.66590846
29	0x3f8d8fff	1.1059569
30	0x3f7dac81	0.99091345
31	0x3f5418ea	0.82850516
32	0x3f4cd974	0.8001931
33	0x3f552e95	0.83274204
34	0x3f63996a	0.88905966
35	0x3f7f8f09	0.9982763
36	0x3f822014	1.016604
37	0x3f4bbda8	0.7958627
38	0x3f86bbb9	1.0526038
39	0x3f891d98	1.0712156
40	0x3f78af19	0.9714218
41	0x3f85069c	1.0392642
42	0x3f77a22b	0.96731824
43	0x3f4ffe33	0.8124725
44	0x3f7c5621	0.9856892
45	0x3f42ac60	0.76044273
46	0x3f673521	0.90315443
47	0x3f6cd18f	0.9250726
48	0x3f7121bc	0.941921
49	0x3f75fa42	0.9608499
50	0x3f5b21c8	0.8559842
51	0x3f333e36	0.700168
52	0x3f5713ce	0.84014595
53	0x3f6c9eee	0.9243001
54	0x3f6142a3	0.87992305
55	0x3f5c76e3	0.86118907
56	0x3f876cd0	1.0580082
57	0x3f201042	0.6252481
58	0x3f78a39a	0.97124636
59	0x3f69fc19	0.91400295
60	0x3f81df56	1.0146282
61	0x3f6ffbdf	0.937437
62	0x3f88ce3c	1.0687938
63	0x3f605137	0.87623924
64	0x3f664137	0.8994326
65	0x3f59324f	0.8484239
66	0x3f733e57	0.95017
67	0x3f7cc963	0.9874479
68	0x3f84484b	1.0334562
69	0x3f5d03fb	0.863342
70	0x3f8629ef	1.0481547
71	0x3f6a0363	0.9141142
72	0x3f3d9ae4	0.7406447
73	0x3f4edb7d	0.8080366
74	0x3f61771a	0.8807236
75	0x3f808f0d	1.0043656
76	0x3f7daafb	0.9908902
77	0x3f2cbbd6	0.67474115
78	0x3f16f988	0.58974504
79	0x3f3a4cd6	0.7277349
80	0x3f64b7f8	0.89343214
81	0x3f85e05b	1.0459093
82	0x3f42ca61	0.76090056
83	0x3f5ed89d	0.87049276
84	0x3f833a15	1.02521
85	0x3f6e9dac	0.9320934
86	0x3f77264f	0.9654283
87	0x3f5b4130	0.85646343
88	0x3f833ded	1.0253273
89	0x3f6c9323	0.9241201
90	0x3f7e13b9	0.99248844
91	0x3f41401b	0.7548844
92	0x3f68794d	0.9081009
93	0x3f72010e	0.9453286
94	0x3f83c591	1.0294667
95	0x3f853313	1.0406212
96	0x3f7aded5	0.97996265
97	0x3f7536f0	0.9578695
98	0x3f532c67	0.8248963
99	0x3f8c97f7	1.0983876
100	0x3f81e599	1.0148193
101	0x3f75cfe1	0.96020323
102	0x3f735269	0.9504762
103	0x3f3686cf	0.7129945
104	0x3f796317	0.97416824
105	0x3f8048e4	1.0022244
106	0x3f819fe2	1.0126917
107	0x3f830767	1.0236634
108	0x3f6ad562	0.91731846
109	0x3f507631	0.81430346
110	0x3f7c7f6d	0.98631936
111	0x3f71be25	0.9443076
112	0x3f5bcfdb	0.8586404
113	0x3f7b025d	0.9805048
114	0x3f7d3973	0.98915786
115	0x3ecc649d	0.39920512
116	0x3f1cd74d	0.6126602
117	0x3f4100b1	0.7539168
118	0x3f65d584	0.89778924
119	0x3f43e5a5	0.76522285
120	0x3f101f15	0.5629743
121	0x3f167b72	0.5878211
122	0x3f06f2da	0.5271431
123	0x3f886b88	1.0657816
124	0x3f316c1f	0.69305605
125	0x3f879d41	1.0594865
126	0x3f80dd14	1.0067468
127	0x3f5df090	0.86695194
128	0x3f548602	0.8301698
129	0x3f7dc760	0.9913235
130	0x3f8965c4	1.0734181
131	0x3f7ddf08	0.99168444
132	0x3f7e54ee	0.9934834
133	0x3f810067	1.0078248
134	0x3f6d9eab	0.92820233
135	0x3f86e749	1.0539333
136	0x3f71243a	0.941959
137	0x3f7d2b63	0.9889433
138	0x3f62d5c3	0.88607424
139	0x3f7678dc	0.96278167
140	0x3f4a2734	0.7896607
141	0x3f4d5a0b	0.8021552
142	0x3f854761	1.0412408
143	0x3f829961	1.0203058
144	0x3f7896be	0.97105014
145	0x3f8601dc	1.0469317
146	0x3f864410	1.0489521
147	0x3f8611e5	1.0474211
148	0x3f4d775b	0.80260247
149	0x3f6de1e8	0.9292283
150	0x3f65e293	0.8979885
151	0x3f23fd78	0.6405864
152	0x3f6dbf22	0.9286977
153	0x3f47bb7d	0.7802046
154	0x3f3ecaeb	0.7452838
155	0x3f5a0e39	0.8517795
156	0x3f65942e	0.8967923
157	0x3f83339a	1.0250123
158	0x3f861d03	1.0477604
159	0x3f33cba8	0.7023263
160	0x3f779ad1	0.96720606
161	0x3f75ecf1	0.9606467
162	0x3f4838be	0.7821158
163	0x3f0e4f24	0.5558951
164	0x3f7fa058	0.9985404
165	0x3f50533d	0.8137701
166	0x3f3eb147	0.74489254
167	0x3f1b9f58	0.60790014
168	0x3f4c85da	0.7989174
169	0x3f283caf	0.65717596
170	0x3f5c34c8	0.8601804
171	0x3f840646	1.0314415
172	0x3f33b8a9	0.70203644
173	0x3f75947b	0.9592969
174	0x3f8593df	1.0435752
175	0x3f704591	0.9385615
176	0x3f58849d	0.8457735
177	0x3f8aada7	1.0834244
178	0x3f62b563	0.88558024
179	0x3f648ba4	0.89275575
180	0x3f67c2bc	0.90531516
181	0x3f5b89ab	0.8575694
182	0x3f1473e3	0.5798933
183	0x3f5b3ecb	0.8564269
184	0x3f59f747	0.8514294
185	0x3f84e4ad	1.0382286
186	0x3f81290a	1.0090649
187	0x3f8ab3bd	1.0836102
188	0x3f1b2459	0.6060234
189	0x3f4a1f0b	0.7895362
190	0x3f52f1c9	0.82400185
191	0x3f3ad905	0.72987396
192	0x3f819482	1.0123446
193	0x3f7e639b	0.99370736
194	0x3f8310d1	1.0239507
195	0x3f68a733	0.90880126
196	0x3f1aa788	0.6041188
197	0x3f56927c	0.8381727
198	0x3f582921	0.8443776
199	0x3f80c390	1.0059681
200	0x3f756a06	0.95864904
201	0x3f8d925c	1.106029
202	0x3f5516e9	0.83238083
203	0x3f98ecc0	1.194725
204	0x3f723e5e	0.94626415
205	0x3f78630d	0.9702614
206	0x3f82654d	1.0187165
207	0x3f40956f	0.7522802
208	0x3f5cb5b9	0.86214787
209	0x3f527e31	0.822238
210	0x3f2d39fc	0.676666
211	0x3f82cfa8	1.0219622
212	0x3f2537cc	0.64538264
213	0x3f737b98	0.95110464
214	0x3f82283a	1.0168526
215	0x3f670782	0.9024583
216	0x3f74c209	0.95608574
217	0x3f6f4152	0.93459046
218	0x3f55fd23	0.8358938
219	0x3f6eb3b4	0.93242955
220	0x3f448d8b	0.7677848
221	0x3f31c655	0.69443256
222	0x3f7cfbbb	0.9882161
223	0x3f67890a	0.9044348
224	0x3f83e9b9	1.0305701
225	0x3f660c64	0.89862657
226	0x3f833a3a	1.0252144
227	0x3f82d08f	1.0219897
228	0x3f836c23	1.0267376
229	0x3f71ebee	0.94500625
230	0x3f5fcc8d	0.87421495
231	0x3f7729f1	0.9654837
232	0x3f86a58b	1.051927
233	0x3f1a2dc9	0.6022611
234	0x3f51514c	0.81764674
235	0x3f5ec74a	0.8702284
236	0x3f81c7ea	1.0139134
237	0x3f89daf0	1.076994
238	0x3f4659be	0.77480686
239	0x3f4f8b4d	0.8107193
240	0x3f81f67b	1.0153345
241	0x3f4f53ab	0.8098704
242	0x3f5ef12b	0.87086743
243	0x3f664c83	0.899605
244	0x3f5c1661	0.8597165
245	0x3f83a25f	1.0283927
246	0x3f851774	1.0397782
247	0x3f2c09ab	0.6720225
248	0x3f74c8b2	0.95618737
249	0x3f7a1464	0.97687364
250	0x3f5b6f55	0.85716754
251	0x3f697776	0.9119791
252	0x3f78d74d	0.9720352
253	0x3f5afa05	0.8553775
254	0x3f652ff8	0.8952632
255	0x3f74a31c	0.95561385

norm_in.bias f4 [256]
0	0x3e050f0b	0.1299402
1	0xbe0cf08a	-0.13763633
2	0x3d07ea1a	0.03318224
3	0x3cb0f060	0.021598995
4	0xbe029139	-0.1275071
5	0x3d19c69c	0.037542924
6	0xbbcc60c1	-0.00623712
7	0x3dce6a1f	0.10078835
8	0x3c584149	0.013199159
9	0x3c09f220	0.0084195435
10	0xbe84281e	-0.25811857
11	0x3e00afaf	0.12567018
12	0xbd7f3bc0	-0.06231284
13	0xbb13e158	-0.0022564735
14	0x3c6645df	0.0140547445
15	0xbbf350fb	-0.007425425
16	0xbb1ce0ed	-0.0023937777
17	0xbddeb965	-0.10875205
18	0xbe1d49f0	-0.15360236
19	0x3e04754c	0.1293537
20	0x3dd27586	0.10276322
21	0xbe9e8387	-0.30959722
22	0xbe988217	-0.2978675
23	0x3e7e39a9	0.24826683
24	0xbe01c856	-0.12674078
25	0xbe2da122	-0.16955999
26	0x3e099d1d	0.1343884
27	0xbe69db12	-0.22837475
28	0xbe7248af	-0.23660539
29	0xbcb4e9e1	-0.022084178
30	0xbcafbb86	-0.021451723
31	0x3e00697d	0.1254024
32	0x3e2a0166	0.16602096
33	0xbe20e887	-0.15713702
34	0xbdf37c09	-0.11888892
35	0xbcb5bf28	-0.022185877
36	0x3d33fc1d	0.043941606
37	0xbe1f34cb	-0.15547483
38	0x3cb856a8	0.022502258
39	0x3b935db5	0.0044972547
40	0xbd092e5c	-0.033491477
41	0xbd2200d8	-0.039551586
42	0xbd8b527e	-0.068028435
43	0xbe227dcd	-0.15868302
44	0xbd507921	-0.050896768
45	0x3e3092a9	0.17243446
46	0x3dbea138	0.09308094
47	0x3dbdcc48	0.09267479
48	0x3d99cff5	0.07510368
49	0xbd6d92d1	-0.058001343
50	0xbe14a85b	-0.14517348
51	0x3e5037ba	0.20333758
52	0xbe11b126	-0.14227733
53	0x3d9f0d4b	0.07766207
54	0x3df1cb4a	0.118063524
55	0xbe1147b5	-0.1418751
56	0x3b4219a2	0.002961733
57	0xbe8bd3cf	-0.27310035
58	0xbda01bbf	-0.07817792
59	0x3dd63f4e	0.10461293
60	0xbd3ec5bb	-0.04657529
61	0x3da79f1a	0.08184643
62	0x3af15e43	0.0018414933
63	0x3dcec8fb	0.10096928
64	0xbdbc32a8	-0.091893494
65	0xbe02084f	-0.12698482
66	0x3d843b74	0.06456652
67	0xbd7824c1	-0.060581926
68	0x3d400f3d	0.046889532
69	0xbdcdcf53	-0.100493096
70	0xbccead62	-0.02522916
71	0xbda0a3d5	-0.078437485
72	0xbe42d5c9	-0.19026865
73	0x3e1f0fc0	0.15533352
74	0x3d853597	0.06504362
75	0xbd81ccc7	-0.06337886
76	0x3ccecb45	0.02524341
77	0x3e6e12b6	0.23249325
78	0xbe8ff7f1	-0.28118852
79	0xbe5d5f79	-0.21618451
80	0xbded4f0e	-0.11587344
81	0xbb311b93	-0.0027024492
82	0x3e26b4eb	0.16279952
83	0xbdf92406	-0.12165074
84	0xbd260088	-0.04052785
85	0x3da6ca3f	0.08144044
86	0xbd9fffaa	-0.07812436
87	0x3e0345ad	0.12819548
88	0x3d5986f1	0.053107206
89	0x3cbb0b64	0.02283258
90	0xbd6d2914	-0.057900503
91	0xbe5a6eb6	-0.21331295
92	0xbdc02bfc	-0.09383389
93	0xbd68600d	-0.056732226
94	0xbc9af717	-0.01891665
95	0x3cd3cd36	0.025854688
96	0xbd48b73a	-0.049002863
97	0x3d8ccc2a	0.06874879
98	0x3dfe6f1f	0.124235384
99	0x3cd9a900	0.026569843
100	0x3ccbae39	0.02486335
101	0xbd509b82	-0.050929554
102	0xbdb25cc4	-0.087091
103	0x3e325dd1	0.174186
104	0x3cc81561	0.024424257
105	0x3d417315	0.04722889
106	0xbc850693	-0.016238486
107	0xbb5d87d2	-0.003380288
108	0x3db8c000	0.09020996
109	0xbe16cce4	-0.14726597
110	0xbcb7c5e3	-0.022433227
111	0xbd9b3cb0	-0.075799346
112	0xbe1c607f	-0.15271185
113	0xbdca6c62	-0.09883954
114	0x3cd9308b	0.026512405
115	0xbedbee62	-0.4295531
116	0xbe977e0c	-0.29588354
117	0xbe610fd6	-0.21978697
118	0xbdc3dc92	-0.09563555
119	0xbe29dbea	-0.16587797
120	0xbea2b280	-0.3177681
121	0xbea10332	-0.3144775
122	0xbe9a92da	-0.30190164
123	0xbc4583b1	-0.012055323
124	0x3e6746b5	0.22585566
125	0xbd39797e	-0.04528188
126	0xbd1e0fa8	-0.03858915
127	0xbe06c283	-0.13160138
128	0x3e055d5a	0.13023892
129	0xbd9e57da	-0.077316
130	0x3cf3adf2	0.02974603
131	0x3c9845e2	0.01858801
132	0x3d149bd0	0.036281407
133	0xbd70e039	-0.058807585
134	0x3de569bc	0.11201808
135	0x3d0aac40	0.033855677
136	0xbda9f85c	-0.08299324
137	0x3d2cd749	0.0421975
138	0x3de53ec4	0.11193612
139	0xbd774187	-0.060365226
140	0xbe2ec7f2	-0.1706846
141	0x3e3384e8	0.17531168
142	0xbcf3da7c	-0.029767267
143	0xbd32e205	-0.04367258
144	0x3dbf5e59	0.09344167
145	0xbd3b0f26	-0.045668744
146	0x3d34f96b	0.044183176
147	0xbd2241e3	-0.039613616
148	0xbe2264ba	-0.15858737
149	0xbd9d618d	-0.07684622
150	0xbded8a44	-0.11598638
151	0xbe96781e	-0.29388517
152	0x3db66f2e	0.089079246
153	0xbe371898	-0.17880476
154	0x3e411918	0.18857229
155	0xbe0f4039	-0.13989343
156	0xbdb98c22	-0.09059931
157	0x3c2070fc	0.009792563
158	0x3c07606d	0.008262736
159	0x3e779c37	0.24180685
160	0x3d50c2df	0.050967094
161	0x3d870fd0	0.06594813
162	0xbdff7499	-0.12473411
163	0xbe87d05b	-0.2652615
164	0x3d0d2496	0.03445872
165	0xbe39ba3e	-0.18137452
166	0x3e3e24d0	0.1856873
167	0x3e78d0d0	0.24298406
168	0xbe2b0c24	-0.1670385
169	0xbe8891ed	-0.26673833
170	0xbe0ceb32	-0.13761595
171	0x3cb0eacc	0.021596335
172	0x3e3b9429	0.18318237
173	0xbd8bcaa7	-0.06825762
174	0x3d21c7c8	0.039497167
175	0x3dab694f	0.083696954
176	0x3e161dae	0.1465976
177	0x3c0c6a0b	0.0085702045
178	0xbdf301f5	-0.11865608
179	0xbdf128ab	-0.11775335
180	0x3de49acc	0.11162338
181	0xbdf133ce	-0.11777459
182	0xbe9897a5	-0.29803196
183	0x3db5267b	0.0884523
184	0xbe0d43ed	-0.13795443
185	0xbc8734a9	-0.016504603
186	0x3cae8430	0.021303266
187	0x3c4152b8	0.011799507
188	0x3e8a49df	0.27009484
189	0x3e29f79d	0.16598363
190	0x3e0e72da	0.13911
191	0x3e386f33	0.18011169
192	0xbcffa43c	-0.031206243
193	0x3c93bdec	0.018034898
194	0x3d58e18f	0.052949484
195	0x3db844fd	0.089975335
196	0xbe90797b	-0.28217682
197	0x3e05e2bd	0.13074775
198	0x3e024b06	0.12723932
199	0x3d1a26de	0.037634723
200	0xbde47609	-0.11155326
201	0xbb95d4f2	-0.004572504
202	0x3e09935b	0.13435118
203	0x3c3be47f	0.011468052
204	0xbdb731f4	-0.08945075
205	0x3d9084bd	0.07056568
206	0xbd672c5a	-0.05643878
207	0xbe4af6bb	-0.19820683
208	0x3df451a5	0.11929635
209	0xbe21d129	-0.15802445
210	0xbe9160bc	-0.28394115
211	0xbbf723dd	-0.007542117
212	0xbe8dac80	-0.2767067
213	0xbddd5628	-0.108074486
214	0x3b42c2a2	0.002971806
215	0x3dad16fe	0.08451651
216	0x3d441dbb	0.047879916
217	0x3dbe9318	0.093054
218	0xbe11e40b	-0.14247148
219	0xbdd11d5c	-0.10210678
220	0x3e1baca5	0.15202577
221	0xbe6ffbd0	-0.23435903
222	0x3c6790a7	0.014133609
223	0xbdd911a1	-0.105990656
224	0x3d3c6ebc	0.046004042
225	0x3dbac9f9	0.091205545
226	0x3d41e366	0.047336005
227	0x3d16bc8e	0.036800914
228	0xbc892644	-0.01674188
229	0x3d874c05	0.066062964
230	0xbe025cc1	-0.12730695
231	0x3d771867	0.060326006
232	0xbcb0e7cc	-0.021594904
233	0xbe9433a0	-0.28945637
234	0xbe37fabc	-0.17966741
235	0x3dd61d3a	0.10454793
236	0xbcbd6997	-0.023121638
237	0x3aa0f96c	0.0012281365
238	0xbe31eca2	-0.17375425
239	0xbe1f5a71	-0.15561844
240	0x3d2beb71	0.04197258
241	0x3e1fb69d	0.15597005
242	0x3e13c562	0.14430764
243	0x3dcbce90	0.09951508
244	0x3da30680	0.07960224
245	0x3cf90db8	0.03040205
246	0xbd302f5d	-0.04301392
247	0xbe862b23	-0.26204786
248	0xbd89b87f	-0.06724643
249	0x3d474d0b	0.04865746
250	0x3e04594e	0.12924692
251	0x3df398f6	0.11894409
252	0xbd67077c	-0.056403622
253	0xbe3ddd8c	-0.18541545
254	0x3dba47ed	0.0909575
255	0xbdadaaff	-0.084798805

norm_in.running_mean f4 [256]
0	0xbf3bba63	-0.7333128
1	0x3e862370	0.26198912
2	0x3e22cd15	0.15898545
3	0xbdb20d4e	-0.08693944
4	0xbe8a6d8e	-0.2703671
5	0x3eb8dda1	0.3610659
6	0xbdea677d	-0.1144552
7	0x3ea57ebd	0.32323256
8	0x3fa17d63	1.261639
9	0x3d0eb58d	0.03484111
10	0x3f1cfecd	0.61326295
11	0xbef26bb8	-0.47347808
12	0x3d1612da	0.036639072
13	0x3e82d7a6	0.25555152
14	0x3f383783	0.71959704
15	0xbf13118d	-0.57448655
16	0x3e676042	0.22595313
17	0xbd34e9a2	-0.044168122
18	0xbf1e5b70	-0.6185827
19	0xbf41fc05	-0.75775176
20	0xbf759fc2	-0.95946896
21	0x3db6378a	0.08897312
22	0xbea63fa4	-0.3247043
23	0x3ed94887	0.42438146
24	0x3d12761b	0.035757165
25	0x3ee4044f	0.44534537
26	0x3f0c5674	0.54819417
27	0x3f56ed8f	0.83956236
28	0x3ebfdf9b	0.37475285
29	0x3e98d0bc	0.29846752
30	0x3cce1659	0.02515714
31	0x3d843f89	0.06457431
32	0xbf146125	-0.5796073
33	0xbf02a43d	-0.5103186
34	0xbee8463a	-0.4536608
35	0x3f39c9ba	0.72573435
36	0x3f054632	0.52060235
37	0x3f58f28f	0.84745115
38	0x3e3befbd	0.18353172
39	0xbeef0763	-0.46685323
40	0x3e6e4d52	0.23271683
41	0x3f169b90	0.5883112
42	0x3ee2ae33	0.44273528
43	0x3f1e64bf	0.61872476
44	0x3c079f5d	0.008277741
45	0xbe186e1f	-0.14885758
46	0xbf1e1340	-0.61748123
47	0x3f26f50c	0.6521766
48	0xbe81d600	-0.25358582
49	0xbd725196	-0.059159838
50	0xbe1b5138	-0.15167701
51	0x3f260f96	0.6486753
52	0x3f20a18e	0.6274651
53	0xbf16d0bc	-0.58912253
54	0xbdedbb6e	-0.11608015
55	0x3f587b2e	0.8456296
56	0x3e11e77c	0.1424846
57	0x3e956f29	0.2918637
58	0x3e8cd2c1	0.27504542
59	0xbfa6c358	-1.3028364
60	0x3f028cd0	0.5099611
61	0xbf030c87	-0.5119099
62	0x3f5ebd5d	0.87007695
63	0x3edea914	0.4348837
64	0x3e497459	0.1967329
65	0x3e4078ea	0.18796125
66	0xbe5bdb23	-0.21470313
67	0x3e7eda40	0.24887943
68	0x3ed6e34b	0.41970286
69	0x3e93d27a	0.28871518
70	0x3d11df3d	0.035613287
71	0xbeb201b1	-0.34766915
72	0xbea905b1	-0.33012155
73	0xbf979f58	-1.1845503
74	0x3f333988	0.7000966
75	0xbe4a1cba	-0.19737521
76	0xbe069f89	-0.13146795
77	0xbf477938	-0.7791934
78	0x3effe057	0.49975845
79	0xbe8b3e82	-0.27196127
80	0x3f0ccffb	0.55004853
81	0x3f7bcbdb	0.98357934
82	0x3ee6d1a1	0.4508181
83	0x3cd5fddc	0.026122026
84	0xbe281b51	-0.1641667
85	0x3f571430	0.8401518
86	0x3f0b663c	0.5445287
87	0x3d06da8a	0.03292326
88	0xbd942443	-0.07233479
89	0x3ee0e9ce	0.4392838
90	0x3f335c5a	0.7006279
91	0x3e378f91	0.1792586
92	0x3e50bda5	0.20384844
93	0x3e9d61ee	0.30738777
94	0xbf064f02	-0.52464306
95	0x3ed883d6	0.42288083
96	0x3e360d60	0.1777854
97	0x3f1df37e	0.61699665
98	0x3eb479cf	0.35249183
99	0xbeb4cf4a	-0.353144
100	0x3ff588a1	1.9182321
101	0xbd50d98a	-0.05098871
102	0x3e892093	0.26782665
103	0x3e01295c	0.12613434
104	0xbf9136ef	-1.1344889
105	0xbe8bd3e2	-0.2731009
106	0x3e7d1b8d	0.24717541
107	0x3f8d2761	1.1027642
108	0xbc8c364c	-0.017115735
109	0x3f2b0ac5	0.6681331
110	0xbefb3363	-0.49062642
111	0xbe0f032a	-0.1396605
112	0x3daaf1e1	0.08346916
113	0x3ea18877	0.31549427
114	0x3ee6e2cc	0.45094907
115	0x3e5bf6be	0.21480843
116	0x3f09f6cb	0.538922
117	0x3f03ecff	0.515335
118	0xbf449521	-0.7679005
119	0x3e58d0e0	0.2117343
120	0x3e9cb03a	0.306032
121	0xbe88be46	-0.26707667
122	0x3e76c9f4	0.24100477
123	0x3ed5b867	0.4174225
124	0x3db233f7	0.08701318
125	0xbf1d5224	-0.6145346
126	0x3df84be1	0.12123848
127	0x3e895e12	0.26829582
128	0xbf2cd5ca	-0.67513716
129	0xbd09ca38	-0.033640116
130	0x3e2248c8	0.15848076
131	0x3f4976ef	0.78697103
132	0x3c45f964	0.012083385
133	0xbde72ceb	-0.11287864
134	0xbfe0de17	-1.7567776
135	0x3fb7c53b	1.4357065
136	0xbd928b72	-0.07155503
137	0x3f646382	0.89214337
138	0x3c1604b5	0.009156396
139	0xbda2cf4e	-0.079496965
140	0x3f2f9cd8	0.685987
141	0xbefc2d58	-0.49253345
142	0x3e8b68e5	0.27228466
143	0xbea9780c	-0.330994
144	0x3eddb144	0.43299305
145	0xbf1b564c	-0.60678554
146	0x3ea77e9b	0.3271378
147	0x3d7ddc27	0.06197753
148	0x3dc38bfb	0.095481835
149	0x3ea7fc51	0.3280969
150	0x3f05321b	0.5202958
151	0x3e8cfa4e	0.27534717
152	0xbea152af	-0.31508395
153	0x3e7ac779	0.24490155
154	0x3f5a618b	0.8530509
155	0x3eb83989	0.35981396
156	0x3e4c4d7a	0.1995143
157	0xbf4dca71	-0.80387026
158	0x3c3a2f25	0.011363779
159	0xbf8ff5f0	-1.1246929
160	0x3d8ed161	0.069735296
161	0xbf160469	-0.5860048
162	0x3f5d87bd	0.86535245
163	0x3f2de61a	0.6792923
164	0x3ddaeac5	0.1068931
165	0x3e6501a0	0.22363901
166	0xbd4582c0	-0.048220396
167	0x3dff9f72	0.12481584
168	0x3ea88381	0.3291283
169	0xbec39332	-0.3819824
170	0xbf900e9d	-1.125446
171	0xbf00a3ca	-0.5024992
172	0x3e3ec177	0.18628488
173	0x3f11fd6d	0.5702732
174	0x3b31cc18	0.0027129706
175	0xbda00d9f	-0.07815098
176	0x3de431c0	0.111423016
177	0x3f96bc3e	1.1776197
178	0xbd2c3012	-0.04203803
179	0xbcefa829	-0.02925499
180	0xbe3fb7f1	-0.18722512
181	0x3d87cd41	0.06630946
182	0xbe1c82cb	-0.15284269
183	0xbfce73d3	-1.6129097
184	0x3e82df69	0.25561073
185	0x3df7b129	0.120943375
186	0x3ee681c7	0.45020887
187	0xbe6db753	-0.23214464
188	0x3d0139e5	0.031549353
189	0xbb0924fb	-0.0020926583
190	0x3f3ed61f	0.7454547
191	0xbe955a2a	-0.29170352
192	0x3f46f995	0.7772458
193	0x3e5c0665	0.21486814
194	0x3ed4428a	0.41457015
195	0x3f1bdcf1	0.60884005
196	0x3f3fe704	0.74961877
197	0xbe88e16d	-0.26734486
198	0xbf37b36e	-0.7175816
199	0xbca15968	-0.019695953
200	0x3ea9575e	0.33074468
201	0x3d3057e9	0.043052588
202	0x3ecf3844	0.40472615
203	0x3e1acbe0	0.15116835
204	0xbec32358	-0.38112903
205	0x3e679e7a	0.22619048
206	0x3fb5c70c	1.4201369
207	0x3e45bd19	0.19310416
208	0x3d8fbf8d	0.07018957
209	0x3d0d8fe1	0.03456104
210	0x3f8856c5	1.065148
211	0x3e274f52	0.16338852
212	0x3d58ce09	0.052930865
213	0xbe3501e9	-0.1767651
214	0x3e21da77	0.15805994
215	0x3d5df627	0.054189827
216	0x3ebcb86d	0.36859456
217	0xbf902c20	-1.1263466
218	0x3f4d945b	0.803045
219	0x3f2fe8da	0.6871468
220	0xbd46ece5	-0.048565764
221	0x3e261e7a	0.16222563
222	0xbec4e360	-0.38454723
223	0x3d62db49	0.055384908
224	0x3dceb07c	0.100922555
225	0xbfa1703d	-1.2612377
226	0x3f1ad8e1	0.6048718
227	0xbf0d56c0	-0.55210495
228	0x3f211c98	0.62934256
229	0x3f68e0d1	0.9096804
230	0x3dd9c959	0.10634107
231	0x3f833d3c	1.0253062
232	0x3e8b989a	0.27264863
233	0x3ed6f957	0.41987106
234	0xbf0d52c8	-0.5520444
235	0xbf3a2ca5	-0.7272437
236	0x3e8eaecc	0.27867734
237	0x3e1a24cf	0.15053104
238	0x3eaf8870	0.3428378
239	0x3e0824c0	0.13295269
240	0x3f1bdeb3	0.6088669
241	0xbec1a953	-0.37824497
242	0x3ee80b2e	0.4532103
243	0x3f6e2e59	0.9303947
244	0xbf5b637f	-0.85698694
245	0xbde0afe9	-0.10971052
246	0x3f9d88d3	1.230738
247	0x3f09d2f7	0.5383753
248	0x3e1264b8	0.14296234
249	0x3cc4e3f5	0.02403448
250	0x3f007591	0.5017939
251	0xbeda5124	-0.4264003
252	0x3f26ed23	0.6520559
253	0xbf3e988b	-0.7445151
254	0xbe13e885	-0.14444168
255	0x3e493cc7	0.19652091

norm_in.running_var f4 [256]
0	0x3e78a65d	0.24282213
1	0x3f1c8eed	0.6115559
2	0x3e3b50aa	0.1829249
3	0x3eaf744e	0.3426842
4	0x3f4e2d86	0.80538213
5	0x3e4d102c	0.200257
6	0x3e75d6ed	0.24007769
7	0x3e5106f4	0.20412809
8	0x3f32f352	0.6990253
9	0x3e929b42	0.28634077
10	0x3f165bcc	0.5873382
11	0x3e56bd98	0.20970762
12	0x3e8db310	0.27675676
13	0x3e30c496	0.17262492
14	0x3dff47d1	0.1246487
15	0x3f4af73c	0.792835
16	0x3e96409a	0.29346162
17	0x3f1250c2	0.57154477
18	0x3ea2fd0f	0.31833693
19	0x3e030dde	0.12798259
20	0x3f0c9d2a	0.54927313
21	0x3f734d53	0.9503986
22	0x3f60a973	0.8775856
23	0x3e65600d	0.22399922
24	0x3e4d5dfe	0.20055386
25	0x3e3ab04e	0.18231317
26	0x3e2cb49b	0.1686577
27	0x3f3d4888	0.739388
28	0x3ea9bb26	0.33150595
29	0x3e2e84cb	0.17042844
30	0x3ec8f368	0.39248204
31	0x3e5b7a9e	0.21433493
32	0x3e3984f2	0.18117121
33	0x3f389192	0.7209712
34	0x3f326163	0.6967985
35	0x3ee0a61b	0.43876728
36	0x3e90934c	0.2823738
37	0x3eec4260	0.4614439
38	0x3e2c2f52	0.16814926
39	0x3e8fd8f4	0.2809521
40	0x3e56a205	0.20960243
41	0x3ed71093	0.42004833
42	0x3eb4abf9	0.35287455
43	0x3e89c2a4	0.26906312
44	0x3ef99705	0.4874803
45	0x3e5380eb	0.20654647
46	0x3ec9facc	0.39449155
47	0x3e3540f8	0.17700565
48	0x3ea49a16	0.32148808
49	0x3edd5140	0.4322605
50	0x3f6ce0e8	0.9253068
51	0x3e2a0c3e	0.16606233
52	0x3ecf0347	0.40432188
53	0x3f025005	0.5090335
54	0x3e63ca6d	0.22245188
55	0x3e75a0dc	0.23987144
56	0x3e8ce18d	0.27515832
57	0x3f470963	0.777487
58	0x3f34b965	0.7059539
59	0x3f3129ad	0.6920422
60	0x3df257d6	0.118331596
61	0x3e1ef061	0.15521385
62	0x3ee09849	0.43866184
63	0x3e7eb910	0.24875283
64	0x3e35263c	0.17690367
65	0x3f096499	0.53669125
66	0x3dedc3eb	0.11609634
67	0x3eaf2ab3	0.34212264
68	0x3e5c8af2	0.21537378
69	0x3e954051	0.29150632
70	0x3ea87f2f	0.32909533
71	0x3e84beee	0.25926918
72	0x3f13ee22	0.57785237
73	0x3e59e31e	0.21278045
74	0x3e12e99f	0.14346932
75	0x3e6506d4	0.22365886
76	0x3ee62d7c	0.44956577
77	0x3ecdf322	0.40224558
78	0x3f086b48	0.532887
79	0x3ed54e96	0.4166152
80	0x3e3af4df	0.18257473
81	0x3e3e7f12	0.18603161
82	0x3e3adc31	0.18248059
83	0x3f193594	0.5984738
84	0x3e3d831f	0.1850705
85	0x3f2dfba6	0.6796211
86	0x3f1bdd53	0.6088459
87	0x3e577532	0.210408
88	0x3e3ae888	0.18252766
89	0x3e75f6de	0.24019954
90	0x3eee884f	0.4658837
91	0x3e7de048	0.24792588
92	0x3e82c600	0.25541687
93	0x3e10d583	0.14143948
94	0x3e5e399a	0.21701661
95	0x3ea22fc9	0.31677082
96	0x3ee9ad65	0.45640102
97	0x3e8119be	0.25214952
98	0x3e395cb0	0.18101764
99	0x3e43a273	0.19104938
100	0x3f77fc9a	0.96869814
101	0x3eacb587	0.33732244
102	0x3f7903bf	0.9727134
103	0x3e88aca1	0.26694205
104	0x3f039948	0.51405764
105	0x3e2dd8f0	0.16977286
106	0x3f03e7a9	0.5152536
107	0x3e2ca024	0.16857964
108	0x3e56eb31	0.20988156
109	0x3eb319f0	0.34980726
110	0x3e6a001a	0.22851601
111	0x3eca3443	0.39492998
112	0x3eaa951a	0.3331688
113	0x3ef21280	0.4727974
114	0x3ed08b22	0.4073115
115	0x3ef17711	0.47161153
116	0x3eed1c77	0.4631078
117	0x3eb0054a	0.34379035
118	0x3f4648ca	0.7745482
119	0x3e51ba77	0.20481287
120	0x3f4ec68d	0.80771714
121	0x3ebf010d	0.3730549
122	0x3f4c47d4	0.797971
123	0x3e1f92bd	0.1558332
124	0x3e2e54af	0.17024492
125	0x3e804d6a	0.25059062
126	0x3e49b723	0.19698767
127	0x3ed9f1da	0.4256733
128	0x3e8a6280	0.27028275
129	0x3e8b3a1f	0.2719278
130	0x3e3b65bb	0.18300526
131	0x3e9ddb19	0.3083122
132	0x3e52d4d8	0.20589006
133	0x3f01fe5e	0.5077876
134	0x3edf3cf5	0.43601194
135	0x3ef47ebd	0.47752944
136	0x3e868c68	0.26278996
137	0x3ebb39c5	0.36567512
138	0x3e850aab	0.25984702
139	0x3ea40123	0.32032117
140	0x3ec16675	0.3777348
141	0x3e28f0f1	0.16498162
142	0x3eefd8f2	0.46845204
143	0x3f1363f8	0.57574415
144	0x3e2d6313	0.16932325
145	0x3e7789fa	0.24173728
146	0x3e251082	0.16119578
147	0x3ec465a7	0.38358805
148	0x3ea986c1	0.33110622
149	0x3ec67868	0.38763738
150	0x3ee4372d	0.44573346
151	0x3ec57d92	0.38572365
152	0x3e833890	0.2562909
153	0x3e6603ef	0.22462438
154	0x3ebe986c	0.37225664
155	0x3f1d2874	0.6138985
156	0x3f060661	0.52353483
157	0x3eddbda1	0.43308738
158	0x3e1e32bd	0.15449043
159	0x3ec6c416	0.38821477
160	0x3ee900e4	0.45508492
161	0x3e0826d5	0.13296063
162	0x3f46cca6	0.7765602
163	0x3e253c71	0.16136338
164	0x3e46d95d	0.19418855
165	0x3f114ca6	0.5675758
166	0x3e6dc0e5	0.23218115
167	0x3e37d06a	0.17950597
168	0x3ed4c60a	0.41557342
169	0x3ebf2b0e	0.37337536
170	0x3f02ea8e	0.5113915
171	0x3e895bfd	0.26827994
172	0x3e3099d9	0.17246188
173	0x3e3a633f	0.18201922
174	0x3eab3984	0.33442318
175	0x3e973c2b	0.29538092
176	0x3e60f256	0.21967444
177	0x3f235923	0.63807887
178	0x3f12affb	0.57299775
179	0x3e5a4c00	0.21318054
180	0x3e41c66f	0.18923353
181	0x3f2e0808	0.67981005
182	0x3e460ac6	0.19340047
183	0x3eb88ab1	0.36043313
184	0x3ee37a2a	0.4442914
185	0x3e219a91	0.15781619
186	0x3e915958	0.28388476
187	0x3ef2a75f	0.4739332
188	0x3e9add96	0.30247182
189	0x3e91f867	0.28509828
190	0x3e48c54e	0.19606516
191	0x3e6b36c7	0.22970115
192	0x3e045b7d	0.12925525
193	0x3eb2b839	0.34906176
194	0x3e4c95f1	0.19979073
195	0x3e7a5897	0.24447857
196	0x3e86d4ec	0.26334321
197	0x3ea004f9	0.31253794
198	0x3e85d305	0.26137558
199	0x3e25d69c	0.16195148
200	0x3ecf9ead	0.40550748
201	0x3ebe88dc	0.3721379
202	0x3edbe10a	0.4294513
203	0x3ea9c05f	0.3315458
204	0x3f1ab19a	0.6042725
205	0x3e810d93	0.2520567
206	0x3f29ea77	0.6637339
207	0x3f21d262	0.63211644
208	0x3e613ff3	0.21997051
209	0x3e860c0a	0.2618106
210	0x3e6908c9	0.22757258
211	0x3f002c61	0.50067717
212	0x3f03fbdb	0.51556176
213	0x3f08fd63	0.5351164
214	0x3e54c684	0.20778853
215	0x3e71608b	0.23571984
216	0x3ecdab28	0.40169644
217	0x3ee751f2	0.45179707
218	0x3f2b62d9	0.66947705
219	0x3e9d9ad6	0.30782193
220	0x3e17f8a0	0.14840937
221	0x3ed61cbb	0.41818795
222	0x3ed3fe48	0.4140494
223	0x3eb33767	0.35003206
224	0x3e8c9de6	0.27464217
225	0x3eca306c	0.39490068
226	0x3eb35b27	0.3503048
227	0x3e53a975	0.20670111
228	0x3ea5b2d8	0.3236301
229	0x3e5c545f	0.2151656
230	0x3f1ea133	0.6196472
231	0x3e7ac09a	0.24487534
232	0x3e8d1e13	0.27562007
233	0x3f2a0098	0.66407156
234	0x3ed05206	0.4068758
235	0x3e62c7a5	0.22146471
236	0x3e82c139	0.25538042
237	0x3e9aed10	0.3025899
238	0x3e6ffe13	0.23436765
239	0x3e9fca2d	0.31208935
240	0x3ef00222	0.46876627
241	0x3e9e7a10	0.309525
242	0x3e241efb	0.16027443
243	0x3e9549aa	0.29157764
244	0x3e714da2	0.23564771
245	0x3f2412ea	0.6409136
246	0x3f1ba91d	0.6080492
247	0x3eab97bd	0.33514205
248	0x3efe4ab1	0.4966636
249	0x3e6785c6	0.22609624
250	0x3e63f530	0.222615
251	0x3e7f8040	0.24951267
252	0x3e5845f0	0.21120429
253	0x3e70a401	0.23500063
254	0x3ead8240	0.33888435
255	0x3ea1c751	0.3159738

res_stack.1.conv_in.weight f4 [128, 256, 1, 1]
0	0xbae88893	-0.0017740898
1	0x3e17dd64	0.14830548
2	0xbdb8ff54	-0.09033075
3	0xbd0f760f	-0.0350247
4	0x3d47fe7a	0.048826672
5	0xbda5a54d	-0.08088169
6	0x3cb589d4	0.022160448
7	0x3da3228c	0.07965574
8	0x3cefc867	0.029270364
9	0xbc41e562	-0.011834474
10	0xbdc60b5b	-0.09670135
11	0xbdef0b3a	-0.11672063
12	0x3ca20fb8	0.019782886
13	0x3d4b7635	0.049673278
14	0x3a2cea5f	0.00065962033
15	0x3d7b32b5	0.061327655
16	0x3dbe8f49	0.09304673
17	0xbb670126	-0.0035248487
18	0xbd7ba54f	-0.061436947
19	0xbda4ba48	-0.08043343
20	0xbd2b1d47	-0.041775968
21	0x3e071caa	0.13194528
22	0x3e0c4dbd	0.1370153
23	0xbc6d449e	-0.014481692
24	0x3cb2a551	0.021807345
25	0x3d0461f0	0.032319963
26	0xbcf3efd9	-0.029777454
27	0xbd3cfd55	-0.046140034
28	0xbd1f456d	-0.03888457
29	0x3d152714	0.03641422
30	0x3c43176f	0.0119074425
31	0x3d5c4e75	0.05378576
32	0x3c551427	0.013005293
33	0x3d617ddc	0.05505167
34	0x3dbe9389	0.09305484
35	0x3d429751	0.047507588
36	0xbd9a1c0e	-0.07524882
37	0xbd0204af	-0.031742748
38	0x3c2beac0	0.0104929805
39	0x3d3031a5	0.043016095
40	0xbcc9696d	-0.024586404
41	0x3db14b06	0.08656888
42	0x3bfc3bbe	0.0076975515
43	0x3d7fd290	0.062456667
44	0xbd96f9c8	-0.07371861
45	0x3de1b6da	0.11021204
46	0xbdd981db	-0.10620471
47	0xbd4f74c4	-0.050648466
48	0x3cf81e1b	0.030287793
49	0x3daa8b35	0.08327333
50	0x3d3497c8	0.044090062
51	0x3d4e16b7	0.05031463
52	0xbd80e769	-0.06294138
53	0x3deea35c	0.11652252
54	0x3d9b3154	0.07577768
55	0x3c76e5dd	0.015069452
56	0x3db7b629	0.08970291
57	0x3de796c4	0.11308053
58	0x3d1e8124	0.038697377
59	0xbceca5b5	-0.028887609
60	0xbc6400be	-0.013916193
61	0x3d7f8644	0.062383905
62	0x3d69124e	0.056902222
63	0xbd905b85	-0.07048706
64	0x3bf212f0	0.0073875114
65	0xbd08fff9	-0.03344724
66	0xbb9e4eea	-0.0048311846
67	0x3d005bb1	0.031337444
68	0x3e096cba	0.13420382
69	0xbd3fbe4b	-0.046812337
70	0xbb67274b	-0.0035271223
71	0x3d8e2539	0.069406934
72	0x37606e67	1.33771455e-05
73	0xbd053ade	-0.032526843
74	0x3bbd2ac7	0.0057729217
75	0xbcadcc5a	-0.021215606
76	0x3ce8043c	0.028322332
77	0xbbcce9d2	-0.0062534595
78	0xbe3b5ef3	-0.18297939
79	0xbce8a6be	-0.028399821
80	0xbe1a3500	-0.1505928
81	0x3b862a03	0.0040943637
82	0xbc04bcdf	-0.008101671
83	0x3dbccf6f	0.09219252
84	0xbcb5551a	-0.022135306
85	0xbda00b56	-0.07814662
86	0x3d35f440	0.044422388
87	0xbdda7f2a	-0.10668786
88	0x3d07c950	0.03315097
89	0x3d5a7140	0.05333066
90	0x3c92ef39	0.017936336
91	0xbdbd95ea	-0.092571095
92	0xbcce3bf2	-0.025175069
93	0xbd320d07	-0.043469455
94	0x3d8adfe0	0.06780982
95	0x3d4f023b	0.050539237
96	0x3d4e0005	0.050292987
97	0xbd393783	-0.045218956
98	0x3a887a81	0.0010412486
99	0x3d115774	0.035483792
100	0xbcdf2fe9	-0.027244525
101	0xbd6b9b69	-0.057521258
102	0x3d8fa3aa	0.07013638
103	0x3bd77b9a	0.0065760138
104	0xbb226cdf	-0.002478413
105	0x3debb43e	0.11508988
106	0x3c33daa1	0.010977418
107	0xbc77dcf7	-0.015128366
108	0x3e36aa60	0.1783843
109	0x3d73f93e	0.059563868
110	0x3c795110	0.015217081
111	0xbd356c10	-0.04429251
112	0x3cedb552	0.029017124
113	0x3d255330	0.040362537
114	0x3d01c014	0.03167732
115	0xbd6db5e8	-0.058034807
116	0xbd5c60f5	-0.053803403
117	0xbd2bf8f0	-0.041985452
118	0x3dc9b7a0	0.09849477
119	0xbda2cea1	-0.079495676
120	0xbd8748a2	-0.066056505
121	0x3d8d1b92	0.06890024
122	0xbd1d6b50	-0.03843242
123	0xbde6a49f	-0.11261868
124	0xbd892330	-0.066961646
125	0xbc1cd1d9	-0.009571516
126	0x3d890e76	0.06692211
127	0x3d97f289	0.07419307
128	0x3c6641f0	0.014053807
129	0x3d183d16	0.03716763
130	0xbd33f536	-0.043935023
131	0xbd2b0157	-0.041749325
132	0x3dbb04ec	0.09131798
133	0xbbb220a9	-0.0054360223
134	0xbd08cc4d	-0.03339796
135	0x3c2639db	0.01014563
136	0x3da78fe7	0.08181744
137	0xbb222d31	-0.0024746174
138	0x3dc8d185	0.09805588
139	0xbb9f4127	-0.0048600617
140	0xbcbf3548	-0.023340836
141	0xbd48a5ef	-0.04898637
142	0x3c94bd3d	0.018156642
143	0x3d0cb994	0.03435667
144	0x3c83e2b6	0.016099315
145	0xbe4b8240	-0.19873905
146	0x3db217b8	0.0869593
147	0x3c159d99	0.0091318125
148	0x3d7ddaf3	0.061976384
149	0x3d9a9252	0.0754744
150	0xbc303cc1	-0.010756672
151	0xbd71760e	-0.058950476
152	0xbe10853e	-0.14113328
153	0xbdd15d05	-0.1022282
154	0x3c1f7cd0	0.009734347
155	0x3e349b1b	0.17637293
156	0x3d72185c	0.059105262
157	0x3bffc315	0.007805238
158	0x3d960634	0.07325402
159	0xbd3fea07	-0.046854045
160	0xbc7944b2	-0.015214132
161	0x3d261e30	0.040556133
162	0x3e058258	0.13038003
163	0xbe3c4475	-0.1838549
164	0xbd811647	-0.06303077
165	0x3c4ce394	0.012505431
166	0xbbac908c	-0.005266255
167	0x3d951243	0.07278874
168	0x3d5932ec	0.05302708
169	0x3d90da0b	0.070728384
170	0x3d301aff	0.042994495
171	0xbd41c786	-0.04730942
172	0xbd086f3d	-0.03330921
173	0x3d5ccc25	0.053905625
174	0xbde9863f	-0.114025585
175	0xbcf0d3af	-0.029397814
176	0x3cc5a94e	0.024128582
177	0xbcdef48f	-0.027216224
178	0x3d095f8f	0.033538397
179	0xbd1a0d1f	-0.03761017
180	0xbd8e5faf	-0.06951844
181	0x3dcbebf9	0.099571176
182	0xbb104996	-0.0022016517
183	0x3d55ba42	0.052179582
184	0xbda526bc	-0.080640286
185	0xbc9d99ec	-0.019238435
186	0xbd208362	-0.039187796
187	0x3d91f089	0.071259566
188	0x3d0dc6a0	0.03461325
189	0x3d50aef6	0.050948106
190	0x3da27cff	0.07933997
191	0xbd04b168	-0.03239575
192	0x3d33db38	0.043910235
193	0x3d4b86e7	0.0496892
194	0xbd9357aa	-0.07194455
195	0xbc996107	-0.018723024
196	0xbd627181	-0.055284027
197	0x3c3231cc	0.01087613
198	0x3d86d612	0.065837994
199	0xbc8919df	-0.01673597
200	0xbd9f0d57	-0.07766216
201	0x3d891cf6	0.06694977
202	0xbb9f2b9d	-0.004857494
203	0x3ccf03fc	0.025270455
204	0x3cb05329	0.021524029
205	0xbd299485	-0.041401405
206	0x3ca92554	0.020647682
207	0x3dc0e4b4	0.09418622
208	0x3d97a595	0.07404629
209	0xbcc0398e	-0.023464944
210	0x3d2e8c10	0.042614043
211	0x3cbb85d4	0.022890963
212	0xbabaa135	-0.0014238717
213	0x3e184327	0.14869367
214	0xbd04425a	-0.03228984
215	0xbd79a048	-0.06094387
216	0xbc52bb2c	-0.012862008
217	0xbdb3af5e	-0.08773683
218	0x3c5f1558	0.013615929
219	0x3d52cf05	0.05146696
220	0x3d81f7c2	0.06346084
221	0xbd521644	-0.051290765
222	0x3dc29d38	0.09502643
223	0xbd51b25b	-0.051195484
224	0x3c4e6b3c	0.012598809
225	0xbda5bc89	-0.08092601
226	0x3ce7c79d	0.028293425
227	0xbd00bbd7	-0.031429138
228	0x3d57145c	0.05250965
229	0xbd626bd9	-0.055278633
230	0xbc9566c0	-0.018237472
231	0xbd00bbd3	-0.031429123
232	0xbe0ab410	-0.13545251
233	0x3d3b65c6	0.045751356
234	0x3e0cc828	0.13748229
235	0x3d0cb517	0.03435239
236	0xbd1dc38e	-0.038516574
237	0x3d3ada5e	0.045618407
238	0xbd48596e	-0.04891341
239	0x3aab2ae2	0.0013059045
240	0xbd411c91	-0.047146384
241	0xbc3f1429	-0.011662521
242	0xbd9b4c8f	-0.07582962
243	0x3d3213b4	0.04347582
244	0x3d3b94ab	0.045796078
245	0xbd2e345e	-0.04253041
246	0x3cd4037b	0.025880566
247	0xbe2477a3	-0.16061263
248	0xbc628a40	-0.013826907
249	0xbd91da77	-0.07121747
250	0x3cbcc7a5	0.023044417
251	0x3c8a4249	0.01687731
252	0x3ce1b4d0	0.027552038
253	0xbd837a1c	-0.06419775
254	0x3c3644c2	0.011124792
255	0x3c877b3c	0.016538255

res_stack.1.conv_in.bias f4 [128]
0	0xbe1dabbd	-0.15397544
1	0xbe2c0463	-0.16798548
2	0xbda67797	-0.08128279
3	0x3c9c12ad	0.019051874
4	0xbe3b45e4	-0.1828838
5	0xbd53e847	-0.05173519
6	0xbe8c49e4	-0.27400124
7	0xbe10d4b0	-0.14143634
8	0xbe03cf8a	-0.12872139
9	0xbe758c64	-0.23979336
10	0xbd56691a	-0.052346326
11	0x3dcaa981	0.098956116
12	0xbde642fb	-0.11243244
13	0xbdacd201	-0.084384926
14	0xbcfb2a03	-0.030659681
15	0xbd84a11d	-0.064760424
16	0xbe54602a	-0.20739809
17	0xbdb415ea	-0.08793242
18	0xbcfe11e7	-0.031014396
19	0x3cc36037	0.02384959
20	0xbda613f7	-0.08109277
21	0xbc338568	-0.0109570995
22	0xbea10b97	-0.31454155
23	0x3d96ef30	0.0736984
24	0xbbaac07a	-0.0052109333
25	0xbe551e6f	-0.2081239
26	0xbdcb62db	-0.099309646
27	0xbe9230f6	-0.2855298
28	0xbe0f6c1a	-0.14006081
29	0xbc18675a	-0.009301985
30	0xbe409fa1	-0.18810894
31	0xbe11cc04	-0.14237982
32	0x3ce5f244	0.028069623
33	0x3b3390b0	0.0027399473
34	0x3ca9bc5b	0.020719698
35	0xbe934e95	-0.2877089
36	0xbdc3199c	-0.09526369
37	0xbe1d579c	-0.15365452
38	0xbdb5fcb4	-0.0888609
39	0xbeb1f0d0	-0.34754038
40	0xbe4a520b	-0.1975786
41	0xbdf7b207	-0.12094503
42	0xbdba38f3	-0.090928935
43	0xbd862daa	-0.065516785
44	0xbeaee0fc	-0.34156024
45	0x3c6a064b	0.014283727
46	0xbe1adf38	-0.15124214
47	0x3d1b87a7	0.037971165
48	0xbd461fc6	-0.048370145
49	0xbf0c3eb2	-0.54783165
50	0xbe53a994	-0.20670158
51	0xbe322d02	-0.17399982
52	0xbd462267	-0.048372652
53	0xbdfd9b81	-0.12383176
54	0xbdce05f1	-0.10059727
55	0xbe1fd705	-0.15609367
56	0xbe3ed810	-0.18637109
57	0xbe88a6fc	-0.266899
58	0xbe66382d	-0.22482367
59	0xbe15f6b3	-0.1464489
60	0xbd3d434a	-0.04620675
61	0xbda3c19a	-0.07995911
62	0xbe3a6067	-0.18200837
63	0xbdb177e9	-0.08665449
64	0xbcc52df1	-0.024069758
65	0xbe3844f5	-0.17995055
66	0xbdede03d	-0.11615036
67	0xbe2fabeb	-0.17155425
68	0xbe9aedd3	-0.3025957
69	0xbd8feaf4	-0.070272356
70	0xbd8af0ac	-0.06784186
71	0xbe9fb75b	-0.31194577
72	0x3c03d18e	0.008045567
73	0xbe00f28a	-0.12592521
74	0xbb9213ad	-0.004457912
75	0xbe4e3ea5	-0.20141084
76	0xbdbf50d9	-0.09341592
77	0xbe19b7f2	-0.15011576
78	0x3d8c6ece	0.06857072
79	0xbe4f7398	-0.2025894
80	0xbe1c5d0f	-0.15269874
81	0xbdab47aa	-0.08363278
82	0xbe604b77	-0.21903788
83	0xbcd07697	-0.025447173
84	0xbd335e04	-0.043790832
85	0xbe33fdcf	-0.17577289
86	0x3bc1efdb	0.0059184856
87	0x3d4d524a	0.050127305
88	0x3cb67207	0.02227117
89	0xbeeaca01	-0.45857242
90	0xbea6c0f6	-0.32569093
91	0xbe56cb10	-0.209759
92	0xbe1038f3	-0.14084224
93	0xbde6235c	-0.11237213
94	0xbced6b9a	-0.028981972
95	0xbd05f755	-0.032706577
96	0xbe2d768d	-0.16939755
97	0xbeaed370	-0.3414569
98	0x3cdda599	0.027056502
99	0xbe085995	-0.13315423
100	0xbe651d6f	-0.2237451
101	0xbe68f5bc	-0.2274999
102	0xbe276511	-0.16347148
103	0x3d8341c5	0.06409029
104	0x3d4d7d2e	0.05016821
105	0xbe3ab99a	-0.18234864
106	0xbe431c9f	-0.19053887
107	0xbbb47377	-0.0055069285
108	0xbe0844a8	-0.1330744
109	0xbe8d7f49	-0.27636173
110	0xbe56b4d1	-0.20967413
111	0xbdc201d4	-0.09473005
112	0xbe2cafa2	-0.16863874
113	0x3d5642aa	0.05230967
114	0xbe0a4238	-0.13501823
115	0xbd05e51a	-0.03268919
116	0xbe690192	-0.22754505
117	0xbe9deafb	-0.30843338
118	0xbc3e1e6d	-0.011603934
119	0xbd872f11	-0.06600774
120	0xbe576281	-0.2103367
121	0xbe17775e	-0.14791629
122	0xbdf87b09	-0.12132842
123	0xbca20ab7	-0.0197805
124	0xbc7b6b73	-0.015345442
125	0xbdbd8369	-0.0925358
126	0xbe212766	-0.15737686
127	0x3dda5f65	0.10662726
