weights/patch_mlp_5x5_256_halving.pth (torch, 806666 bytes, 105 tensors)

conv_in.weight f4 [256, 12, 5, 5]
00000000: 8a1b eabd 4f9e 2bbe 001c c7bb 5b1c e63d
00000010: ac5a ff3b bb05 0fbe 3e37 85bc 5dbb 8c3d
00000020: 9074 4d3a 4f5e 69bc d152 c4bd 7716 053e
00000030: 0000 0080 777b a63d 02e2 a0bc 747a 993c
00000040: 4432 053e 22db e53b bc20 683d a12f 15be
00000050: ea51 f53d 379f 253c 0165 093d 0165 0dbd
00000060: 3ae6 99bd f1ca 66bd 20fa 9cbc dcbc 153b
00000070: 2c7b 2b3d d352 19bb c1ce 05be 81f3 aabd
00000080: a3c3 33bd a925 c43c e0b2 d6bc 663e 30bd
00000090: 096a 833e 0000 0000 57d6 07be c8db ad3c
000000a0: 3b45 3f3d f43e b83d 4e39 dcbb bad1 98bd
000000b0: baba c3bd c66f f13c 23f5 0e3d e2a6 153d
000000c0: 914a cb3c 3fd9 d13c e4ef 133c a65d 103d
000000d0: 6969 c13c c5cb b73b 9965 2ebc 2b41 6cbd
000000e0: 8783 d9bb b929 0d3c 3256 343b 38ad 66bc
000000f0: ef2d 203d 373a f23d 0000 0000 b750 d9bc
00000100: 4cd2 583d a2d7 aa3b 69da 9dbd 48eb 34bd
00000110: 5e87 6d3d bcff 983c 0f45 dabc 8472 213e
00000120: 3d38 90ba 4d51 8f3c 8758 c33b 6094 883c
00000130: 63b9 bd3d 1813 51bc c142 2fbd 9784 babc
00000140: 34d6 77bd a615 ab3d 926c 8b3c ed97 7e3d
00000150: 66a9 8fbb 3df0 f93c fee7 933c 0000 0000
00000160: e0a3 8abd b0bd 5cbc a407 60bd 1e6f d4bd
00000170: 4b69 763c 9737 b23d a791 f3bc f4ca 9dbd
00000180: df87 2d3e 9831 e5bb 1e10 e3bb 8643 e43c
00000190: 5348 0abc 1105 8d3c de4d cc3c 505d 4d3b
000001a0: 539d c8bd 0edc 9bbd fd02 ad3d 4917 4e3c
000001b0: e451 b13d ab92 7a3d 2fb0 d73d 601c 00be
000001c0: 0000 0000 e32d 093d 7952 06bd 775e 12be
000001d0: e6c6 30be 85b3 c13d 5dd3 133e 7996 b83d
000001e0: 580a 8fbd 6a4d 183d 9b41 a7bd e811 1d3c
000001f0: 7186 273c 9827 333d 9654 563d 6732 da3c
00000200: b0e4 23bc 9f3d 4ebd d771 eb3c c11d 7a3c
00000210: be5e ef3c a280 e63d 8694 863d 6dc4 43bd
00000220: ff91 19be 0000 0000 efaa 8b3d 8ca0 cb3c
00000230: c1bb 80bd 95fa 2abe a1c5 53bd fa5d ba3d
00000240: 8ec5 083b 25c3 a83d ea18 2f3d 3eca 8f3d
00000250: 4528 3abe a0ab e1bd 57ef 843d 326b d93d
00000260: 638f a7bc bdec 463d 6650 ddbd 4152 5c3d
00000270: 84c0 14bc f6fa 833c 1faf 863d da06 8d3d
00000280: d655 32bd 8594 69be 0000 0000 57ab 003e
00000290: 19f0 7e3d a4da e43d 1445 aabd 013c 90bd
000002a0: 171a 1dbd f011 f33d 2795 943d efe2 9e3d
000002b0: 330d b23d 754b bbbd da84 b03b bb4a bf3d
000002c0: 0d76 49bd 7cef dd3d d586 b7bd 6cea 0e3d
000002d0: 644f 8b3d 8990 8abd 4f49 95bd 5881 39be
000002e0: e495 fd3d 45d2 973d 2815 ffbd 0000 0000
000002f0: 6956 26be a45a 98bd 69f6 d93d c09c 5fbd
00000300: 0ea1 55be 775f 9cbc 8224 fa3d 616a e1bc
00000310: bc5d d33d 9d6b 3a3d 8612 c93d d7b5 1a3e
00000320: 8ae1 db3d 59eb 27bd d418 04bd b4a3 a13b
00000330: 30d1 f23c 9f0d 4eb9 3b88 8cbd ea9d cabd
00000340: 589f ffbd 9781 c33d a8a9 cb3d 58be d8bd
00000350: 0000 0000 9592 43bd 770b 0ebe c225 ad3d
00000360: 21d2 70bd 945a 2fbe d677 9ebd 79e7 983d
00000370: ca91 88bc ca29 ed3d f0ba 86bd 438d 523d
00000380: d309 d6bc 0c65 8dbc e42b 703c 8fbd 6e3c
00000390: a711 c83c 138b d23c 6629 4b3c c567 f7bc
000003a0: 787f 5cbd 8eaf 683c 5711 f5bb bc18 0e3d
000003b0: f148 2dbe 0000 0080 73d2 283d 987f cebc
000003c0: b2a8 b3bd 59fb 093a 8c67 05bd 0f09 49bd
000003d0: 3e99 c33d 66fa e9ba 9589 6abd 534b 553d
000003e0: d3ac 353d 93cd 363d b4d5 35bd 5d6b aebc
000003f0: c45c e7bd c0e4 403d e8e4 a9bc 71a1 c73d
-0.11431034 -0.16759609 -0.006076336 0.11235877 0.0077927914 -0.1396703 -0.016261693 0.06871674
0.00078374986 -0.014243676 -0.095861085 0.12996851 -0.0 0.08129018 -0.019639019 0.018735148
0.13007456 0.007014648 0.056671843 -0.1456895 0.119785145 0.010108761 0.03354359 -0.034520153
-0.07514615 -0.056345884 -0.019162238 0.0022848165 0.041865513 -0.0023395314 -0.13067152 -0.08347226
-0.043887746 0.023943739 -0.026208341 -0.043028258 0.25666836 0.0 -0.13265358 0.021222964
0.046696883 0.08996382 -0.0067206984 -0.07461877 -0.095571 0.029472243 0.03490175 0.036536105
0.02481583 0.025616286 0.009029362 0.03524556 0.023609834 0.005609008 -0.01064434 -0.057679337
-0.0066379937 0.0086159045 0.0027517197 -0.0140793845 0.039106306 0.1182751 0.0 -0.026527746
0.05293493 0.0052136937 -0.07707674 -0.044169694 0.057990424 0.018676631 -0.026644258 0.1576634
-0.0011003088 0.017494822 0.005961481 0.016672313 0.09263875 -0.0127609 -0.04278827 -0.022768302
-0.060507014 0.083537385 0.017019544 0.062156606 -0.0043842075 0.030510062 0.018054958 0.0
-0.06769538 -0.013472959 -0.054694787 -0.103727564 0.015039752 0.08702009 -0.029732538 -0.07704726
0.16946362 -0.0069944374 -0.0069294116 0.027864229 -0.008440095 0.01721433 0.024939474 0.0031336136
-0.09795632 -0.076103315 0.084478356 0.012578794 0.086581975 0.06117503 0.10531651 -0.12510824
0.0 0.033491027 -0.032793496 -0.14293848 -0.17263374 0.09458069 0.14436097 0.090130754
-0.06984395 0.037183203 -0.0816681 0.009586789 0.010224924 0.04373893 0.05232676 0.026635362
-0.010003254 -0.050351735 0.028740807 0.015265883 0.029219981 0.112550035 0.06571297 -0.047794748
-0.149971 0.0 0.06819712 0.024856828 -0.06285811 -0.16697152 -0.051702145 0.09099956
0.0020869705 0.08240346 0.04274837 0.070209965 -0.18179424 -0.11019063 0.06490963 0.10616149
-0.020454114 0.048565615 -0.108063504 0.05378938 -0.009079102 0.016110878 0.065763704 0.068860725
-0.04353889 -0.22810562 0.0 0.12565361 0.062240694 0.11174515 -0.08313957 -0.07042695
-0.03835496 0.11868656 0.07255011 0.07758128 0.08693924 -0.09145252 0.005386931 0.093404256
-0.049184848 0.10836694 -0.08961264 0.03489153 0.06802252 -0.06765849 -0.07289373 -0.18115747
0.12382105 0.074131526 -0.12455207 0.0 -0.162439 -0.07439163 0.10642702 -0.054592848
-0.20862219 -0.01908849 0.122139946 -0.027516546 0.10320613 0.045512784 0.09817986 0.15108429
0.107363775 -0.04099593 -0.03225024 0.004932845 0.029640764 -0.00019650765 -0.068619214 -0.09893401
-0.12481564 0.09546202 0.09944469 -0.1058318 0.0 -0.047747213 -0.13871561 0.08454467
-0.058794145 -0.17124397 -0.07737701 0.07466025 -0.01667108 0.11580236 -0.06578624 0.05140425
-0.026127731 -0.017260097 0.014658902 0.0145715615 0.02442248 0.025701081 0.012400007 -0.030200848
-0.0538325 0.014202012 -0.0074788737 0.034691557 -0.16922356 -0.0 0.041216325 -0.025207326
-0.087724105 0.0005263589 -0.032569453 -0.049080905 0.09550713 -0.0017851114 -0.057260115 0.052073788
0.04435427 0.044629645 -0.044393256 -0.02129143 -0.112969905 0.047093153 -0.020739034 0.097475894

conv_in.bias f4 [256]
00000000: aae6 35bd 1191 5bba 5c8b 223d feba e0bc
00000010: bd70 723c 44b2 143d e278 08bd baa6 23bd
00000020: 4078 89bb c044 3b3d 5652 2cbd da55 473d
00000030: ee9a 97bb ba25 cd3c daca 323d a2ec 2a3b
00000040: d8c8 043b 95bd eb3c 2489 4abd e985 0abc
00000050: 2446 38bd e360 d6bb 6c01 1c3d abaf 7e3c
00000060: fb31 26bd 078d 493d fe83 bb3c fc19 cd3c
00000070: 1db5 5a3d eba8 373d 3bcd 723d 65b8 363d
00000080: 3660 1d3d 39a0 28bd 9274 62bc 4948 8e3c
00000090: 42ba c1bc 9180 eeb8 5e30 6dbd 6b66 0d3d
000000a0: 91c6 393d 8b8f 5ebd be64 96bb af97 d93a
000000b0: 8d5d e2bc 8a88 6e3c ab59 2c3d 6f41 083d
000000c0: a859 00bd ce79 49bd 4a87 45bd c645 133d
000000d0: 490e 04bd a071 953c 47dc 323c 2ecf 29bc
000000e0: 8a07 4dbd 4de8 0ebd 1f57 0abd bfe3 eebc
000000f0: 7bfc 31bd b97e c9bc 603d d03c 736b 033d
00000100: 756f fcbc 440a 0bbd 98c1 893c a64d e9bc
00000110: a82e ac3b da19 d6bb 2c3d 2e3c 2d60 46bc
00000120: d529 0abd 29db f83c cf00 923a 9caa b73c
00000130: 42bc ef3c a653 41bc 5d09 33bd daa6 28bd
00000140: 4d42 98bc 21e7 91bc 902a 1abd 4875 723d
00000150: 6367 0a3d 8b66 4f3d 8e6c a4bb 9df0 f53c
00000160: a988 103d 3882 383d 0ca5 f4bc e682 213d
00000170: b4d7 4e3d 453a 63bd f780 143d 9198 583d
00000180: 1f65 57bd a56f f4bc 2f4a 10bd 141f 233c
00000190: 298f 2cbd 9c30 433c 5bdb 78bc 541c 943c
000001a0: 6fb6 563c be4c 43bd 1a75 0d3d bb48 cabc
000001b0: af81 293d b54c 20bd 33f2 0b3d 06d8 183d
000001c0: 10b5 343c 3255 bdbc 0f61 a0bc 0311 393d
000001d0: be8f 57bd 1b76 efbc 4707 76b9 5ff1 e93c
000001e0: 475b 8538 9aca 9dbc cf93 d5ba dd9b 33bc
000001f0: 3a08 9cbb 3e81 62bc 6719 4c3d 17a8 e83c
00000200: 84a6 20bd 7201 64bd 16b5 cebb fe1a 283d
00000210: ba8f 4f3d d7d3 263d 6d7e 39bd 8588 bdbc
00000220: 3333 c33c a48c 8fbc e59f 093d 2a90 f7bc
00000230: a6ec 28bd 425c 80bd 0e6c 983c 6686 8cbb
00000240: 2435 1b3d ab25 7abd 320f c4bb 343c 0bbd
00000250: 5aa7 f03c f170 64bd a0f2 4fbd 7212 35bd
00000260: 6d7a 083d 426e d0bc d8a8 caba 0c01 7a3c
00000270: a7ce 68bb 7587 2bbd 8543 17bb 8832 4c3d
00000280: aea7 afbb 50bb 443d b707 5b3c 65c3 31bd
00000290: 465a 3abd 152e 04bd 444e e1ba 6f7b 2dbd
000002a0: d9f6 b8bc 7814 763d a67d 16bd 3b0b 70bd
000002b0: 5314 27bd 1e4a 35bd bf10 bf3c 9ee8 2abc
000002c0: c6ff 343b e3d5 283d f4a6 81bc 0a54 5ebd
000002d0: bb83 2bbc 3ff2 78bc 9804 2a3c bf8a 863c
000002e0: 9faf 54bd 87a8 b5bc a975 4d3d a3c7 af3c
000002f0: 353a 51bc b81d 29bd 8bb2 90bc 8dbd 493d
00000300: fc71 1cbd 99c2 10bd 789c 203c e43c 2b3d
00000310: 7c66 493d c037 40bd d4bf 7bbc ae19 013d
00000320: 9078 8b3c e840 dc3c 92b3 2a3d d878 123c
00000330: c274 5f3d 2f1d 4d3d 3cef 5b3d 1c99 94bc
00000340: 9dde 5e3b 419a 893c 85c0 19bc 9f51 33bd
00000350: 1e19 3e3d 5a72 c8bc 2748 12bc 5b9e e73c
00000360: c05e 5ebd e1a4 9fba 5a95 ffbc c979 58bd
00000370: 0709 a0bb e197 fa3c f261 64bd a9fb 363d
00000380: 0567 2abd 1267 fdbc a6f9 c83c 56b0 393d
00000390: 9c7d 08bd b9f6 6aba 4e5d 313a 13d5 6fbd
000003a0: ddd4 4b3d 36f6 06bd 2678 04bd 5fb7 eebc
000003b0: cbef 343d 279a 413a 39e2 69bc 91f2 b23b
000003c0: 698b 103d 1598 5f3b 161f 0a3b 8895 df3b
000003d0: 76bc 603d 7cd6 9bbc b225 0bbd 9618 653d
000003e0: f0f0 43bd e02c 243d 3c2e 93bc 7d2a 173c
000003f0: 7f15 afbb f001 08bc 877a 2cbd 3702 c13b
-0.04440943 -0.00083758036 0.039683685 -0.027432915 0.014797387 0.03630282 -0.033318408 -0.039953925
-0.004195243 0.045719862 -0.04207071 0.04866586 -0.0046266234 0.025042403 0.043650486 0.0026080986
0.0020261314 0.028776923 -0.049447194 -0.008454778 -0.044988766 -0.0065423115 0.038087294 0.015544812
-0.04057501 0.04920676 0.022890087 0.025036804 0.05339538 0.044838827 0.059277754 0.044609446
0.038421832 -0.041168425 -0.013821738 0.017368453 -0.023648385 -0.00011372672 -0.057907455 0.0345215
0.045355383 -0.054336112 -0.004589646 0.0016600991 -0.0276325 0.014558921 0.0420777 0.033265527
-0.031335503 -0.049188428 -0.048224725 0.035955213 -0.032240186 0.018242657 0.010916776 -0.010364337
-0.050056018 -0.034889508 -0.03377449 -0.029161332 -0.043453675 -0.024596559 0.02541989 0.032084893
-0.030814866 -0.033945337 0.016815946 -0.028479408 0.0052545853 -0.0065338435 0.010634702 -0.012107891
-0.0337313 0.030377941 0.0011139157 0.02242022 0.029264573 -0.0117997285 -0.0437101 -0.041174747
-0.018586302 -0.017810406 -0.037638247 0.05919388 0.033790004 0.050634902 -0.0050178235 0.03002196
0.03528658 0.04504606 -0.029863857 0.039431475 0.05049868 -0.055475492 0.036255803 0.052879874
-0.05258667 -0.029838393 -0.035226997 0.00995614 -0.042128716 0.011913445 -0.015189017 0.018079914
0.013105019 -0.04768061 0.034535505 -0.024692884 0.04138344 -0.039135654 0.034166526 0.03731539
0.011029497 -0.023111913 -0.019577531 0.04518224 -0.052627318 -0.029231122 -0.00023463099 0.028557478
6.358936e-05 -0.019261647 -0.0016294661 -0.010962454 -0.004761723 -0.013824759 0.049828913 0.028400464
-0.0392213 -0.05566544 -0.006308208 0.041041367 0.050674178 0.04072937 -0.045286585 -0.023136387
0.023828125 -0.017523117 0.033599753 -0.03022011 -0.04124131 -0.06267597 0.018606212 -0.0042884825
0.037892476 -0.06107108 -0.0059832567 -0.03399296 0.029376674 -0.05577177 -0.050768495 -0.044207044
0.03331988 -0.0254432 -0.0015461696 0.015259039 -0.0035523565 -0.04187723 -0.0023081016 0.049852878
-0.005360565 0.048030198 0.013368539 -0.043399233 -0.045496248 -0.03227051 -0.0017189463 -0.042354044
-0.022578644 0.060078114 -0.03674092 -0.05860446 -0.040790867 -0.044260137 0.023323415 -0.010431437
0.0027618273 0.041219603 -0.01582668 -0.054279365 -0.010468419 -0.015194475 0.010377072 0.016423581
-0.051925298 -0.022175087 0.050161038 0.021457499 -0.012770225 -0.041288108 -0.01766326 0.049253035
-0.03819464 -0.035341833 0.00980293 0.041806117 0.049170002 -0.046928167 -0.01536556 0.03151863
0.017025262 0.026886418 0.041675158 0.008939944 0.05455471 0.05007666 0.05369495 -0.018139414
0.00340072 0.016797187 -0.009384279 -0.04377901 0.046410672 -0.02446859 -0.008928335 0.028273752
-0.05428958 -0.0012179875 -0.031199146 -0.05285052 -0.0048838886 0.03059 -0.05575747 0.044673596
-0.041602153 -0.030932937 0.024533104 0.045334183 -0.033322915 -0.0008963156 0.00067659176 -0.058552813
0.04976355 -0.03294965 -0.032341145 -0.029140173 0.044173997 0.0007385336 -0.014275127 0.005461045
0.035289202 0.0034117748 0.0021075658 0.0068232454 0.05486723 -0.019023173 -0.033971496 0.05593165
-0.047837198 0.04008186 -0.017966382 0.009226439 -0.0053431387 -0.008301243 -0.04210904 0.0058901566

norm_in.weight f4 [256]
00000000: b635 333f dcca 343f 16a2 523f 4848 703f
00000010: 6f47 713f 88b4 323f a09f 653f 4ca9 833f
00000020: 5879 3a3f 3060 613f 1f36 843f 04fb 683f
00000030: b243 683f c4a1 5c3f 3193 673f 2019 543f
00000040: d6a6 733f 82c5 623f 7a46 483f 82ba 743f
00000050: 32a6 883f 715f 653f 903e 9a3f 1f31 333f
00000060: cc80 6c3f e30b 8a3f ff6b 3f3f 4cf5 793f
00000070: c720 5e3f b833 4c3f 2c85 623f bd5c 833f
00000080: dd71 6a3f 54d0 633f 7cb0 823f 4ce1 803f
00000090: 60d0 493f 22ca 633f 51d2 4e3f a1ab 633f
000000a0: 9662 293f 3e4a 593f 0a13 283f f227 5c3f
000000b0: 027f 6d3f eac9 573f 69da 783f 3e31 713f
000000c0: 93c9 4d3f 2b89 633f c198 4c3f 9acb 7f3f
000000d0: adeb 463f 2350 543f f99c 693f 8a4f 6a3f
000000e0: 16a4 323f a11c 753f 6191 623f f8d7 613f
000000f0: cef3 703f 1335 713f 77d9 353f 37d9 553f
00000100: 6b8b 793f 9db2 673f 2a02 923f bd09 773f
00000110: f291 8e3f 5c9b 823f 0dd5 613f db4c 513f
00000120: cfed 193f b8c4 6e3f 024b 2a3f b686 853f
00000130: b962 3c3f 07c2 513f aa0b 663f 5c0e 2b3f
00000140: 14fb 763f ce2f 823f 322a 5b3f 1776 313f
00000150: aa18 583f bffe 653f 285c 803f a76f 7b3f
00000160: 53b7 633f e5bc 473f ac90 4f3f 91b5 223f
00000170: 23d1 263f 7e95 863f b50a 683f 060f 773f
00000180: 52af 463f becd 4a3f fa6a 1e3f ce66 7f3f
00000190: ca58 7a3f 9ad2 5d3f 56ff 6b3f 03ad 213f
000001a0: 727e 2a3f 6f82 273f 442c 153f 8876 2c3f
000001b0: b8c2 803f 7051 693f b12a 4e3f 7bc7 613f
000001c0: 7b04 733f 6fe8 6a3f d9c3 823f 29c7 5f3f
000001d0: d82e 8f3f 6c23 533f d9db 433f 0bb1 293f
000001e0: 5dc2 223f f605 7b3f 3911 6e3f ac8d 6a3f
000001f0: 9dfe 633f 9c27 4e3f a221 833f 5b11 703f
00000200: 9e3a 903f 71ca 1b3f 6578 853f 19e6 3d3f
00000210: e274 7f3f 59dc 383f d545 403f ef59 7e3f
00000220: 77e9 683f f4d2 2c3f b6a7 703f 1883 803f
00000230: 2d6d 793f 75a7 413f c4c4 5a3f 6a53 843f
00000240: 7d1c 1f3f 578a 793f a9e7 663f 21ac 6d3f
00000250: 5b61 7d3f 6e6a 5a3f 3f01 853f 7945 4d3f
00000260: f3f9 703f 1856 333f 2fbd 683f a5a2 703f
00000270: 5de8 813f fe2e 583f daac 6f3f 2bca 743f
00000280: 0cbf 463f 3db8 863f 445a 6d3f 8561 473f
00000290: ac9c 223f f718 683f 0cac ff3e 74ff 673f
000002a0: 7924 3a3f 9776 793f 2c1e 613f 1472 4f3f
000002b0: 1d6c 853f d04f 643f f999 553f 0a57 783f
000002c0: 485d 893f 6427 343f 1cf6 563f 1c69 5c3f
000002d0: a0bf 443f c27d 483f cbda 813f 8a4d 5d3f
000002e0: b539 633f 4218 433f 41fc cb3e a9d9 4b3f
000002f0: 038b 513f 789a 683f c65c 863f 696e 533f
00000300: 808d 6f3f f2fc 633f 313e 5a3f 26f2 183f
00000310: 86a8 843f 67ef 683f 9ad6 353f 030f 3f3f
00000320: 7749 4b3f b48d 4f3f 9094 2b3f 5ea7 f83e
00000330: cc38 643f 3b5d 3d3f 14b4 703f 5ad8 3c3f
00000340: 388b 293f c03e 453f 9941 823f 7de3 6f3f
00000350: 14bf 4c3f 204d 5d3f 8d83 373f dea7 763f
00000360: d7d1 853f 5466 3e3f 4dba 5b3f 3907 853f
00000370: b4f1 653f 6cc1 5b3f 6b6c 523f be7b 873f
00000380: 164d 533f 13b0 5e3f 224d 6a3f 64ef 913f
00000390: 681d 853f 6c19 883f 5203 793f 5186 623f
000003a0: 9e1e 863f 44d8 073f f756 853f b1f2 763f
000003b0: 754e 633f d8e3 273f a49d 8c3f b73f 5e3f
000003c0: 6918 613f 87da 543f 0e05 513f 0f76 113f
000003d0: 8313 483f daa8 503f 4bf4 803f 60ea 0d3f
000003e0: e1b1 8a3f 09b9 4b3f 3a6e 543f ea58 513f
000003f0: 1cb3 5a3f 332e 573f a98f 673f c20d 6f3f
0.7000383 0.7062204 0.82278574 0.9386029 0.94249624 0.6980672 0.89696693 1.028604
0.72841406 0.88037395 1.0329016 0.9100802 0.90728295 0.86184335 0.9045897 0.8285084
0.95176446 0.88582623 0.7823254 0.9559709 1.0675719 0.8959876 1.2050343 0.6999683
0.9238403 1.0784878 0.74774164 0.9763992 0.86768764 0.79766417 0.88484454 1.0262676
0.9157999 0.8898976 1.0210109 1.0068755 0.7883358 0.88980305 0.8078967 0.8893376
0.66166055 0.8487891 0.6565405 0.8599845 0.92771924 0.8429247 0.9720827 0.9421576
0.803857 0.88881177 0.79920584 0.99920046 0.7770336 0.8293478 0.91255146 0.91527617
0.69781625 0.9574681 0.8850308 0.8822017 0.94122016 0.9422161 0.7103495 0.8353457
0.9747836 0.9050692 1.140691 0.96499234 1.1138289 1.0203662 0.88215715 0.817579
0.6012849 0.9326892 0.665207 1.0431736 0.7358814 0.8193669 0.8986155 0.66818786
0.96476865 1.0170839 0.8561126 0.69320816 0.84412634 0.89841837 1.0028124 0.9821724
0.88951606 0.78022605 0.81080127 0.635583 0.6516287 1.0514371 0.9064134 0.965073
0.7761127 0.7922019 0.61881983 0.9976624 0.9779173 0.8664948 0.92186487 0.6315462
0.6659919 0.654334 0.5827067 0.67368364 1.0059423 0.9113989 0.8053389 0.8819501
0.9492871 0.91760916 1.0216018 0.8741327 1.118617 0.82475924 0.76507336 0.6628577
0.63577825 0.9805597 0.9299503 0.91622424 0.89060384 0.8052919 1.0244639 0.9377648
1.1267889 0.60855776 1.0427366 0.74179226 0.99787724 0.72211224 0.75106555 0.9935598
0.9098124 0.6750939 0.94005907 1.0040007 0.97432214 0.75646144 0.8545649 1.0337956
0.62152845 0.97476715 0.90197235 0.9284077 0.9897668 0.8531865 1.0391005 0.8018413
0.9413139 0.70053244 0.9091367 0.93998176 1.0149037 0.84446704 0.93623126 0.95620984
0.77635264 1.0524975 0.9271586 0.7788318 0.6352031 0.90663093 0.4993595 0.90624166
0.727119 0.9744658 0.87936664 0.81033444 1.0423619 0.89184284 0.8343807 0.9700781
1.0731592 0.70372605 0.83969283 0.86097884 0.76854897 0.7831689 1.0144895 0.8644644
0.8875993 0.7620889 0.39840892 0.79629 0.8185274 0.908607 1.0497062 0.8259035
0.93575287 0.8905784 0.85251147 0.5974449 1.0363929 0.909903 0.7103058 0.7463228
0.79408973 0.81075597 0.67023563 0.4856519 0.89149165 0.73970383 0.9402478 0.73767626
0.66228056 0.77048874 1.0176269 0.93706495 0.7997906 0.8644581 0.71685106 0.96349895
1.0454663 0.7437489 0.8583115 1.0392829 0.89821935 0.85842013 0.8219668 1.0584638
0.825395 0.8698742 0.91523945 1.1401181 1.0399599 1.0632758 0.9727069 0.884862
1.0478094 0.5306437 1.0417165 0.9646407 0.8879159 0.65582037 1.0985608 0.8681597
0.8792787 0.83145946 0.8164834 0.5682077 0.7815477 0.8150765 1.0074552 0.5543575
1.0835534 0.79579216 0.8298069 0.817763 0.8542955 0.8405487 0.90453583 0.9338037

norm_in.bias f4 [256]
00000000: 6eac 4dbe e461 6cbe 3e52 14be d851 3dbd
00000010: 1ef9 a3bd 3179 75be 62e1 e5bd f700 32bd
00000020: d463 55be 203a e1bd 96c0 4bbd c8b1 e8bd
00000030: 3e9e 913d d825 c7bd 4de4 abbd f6f7 1bbe
00000040: 966f 8abd 9595 06be 6671 3bbe 2703 d4bd
00000050: c0ff c3bc a69a dbbd f035 893c ea3c 6fbe
00000060: 0596 d6bd 92ab babc 8e83 47be 6e89 51bd
00000070: 19cf e9bd 6061 30be 7c37 ffbd d87f 6bbd
00000080: 07c0 b2bd e081 e0bd 767f 81bd 7e87 56bd
00000090: 6546 2abe 4cbf dabd b130 1dbe 882c ffbd
000000a0: 1ac2 75be cc38 19be 44fb 7dbe 998a 0ebe
000000b0: 636a 983d 14e4 1ebe 519d 96bd 97b3 8dbd
000000c0: d597 1cbe 4bf7 1cbe c2f7 2dbe 6012 28bd
000000d0: 5726 36be e802 28be 3f71 c1bd c775 a1bd
000000e0: 1cb6 4cbe 2459 9abd 5d76 cfbd 960f f7bd
000000f0: 7a43 19be a0bf 393d aff9 4fbe 6dfb 0bbe
00000100: e1ab 54bd ba6b dfbd 505f 8f3b a686 4dbd
00000110: 5725 f8bc 469b 48bd 79a7 d8bd f5d6 25be
00000120: 81d9 9dbe 0201 c2bd d5fb 84be 962b 0fbd
00000130: 42c8 69be 82d7 29be e34a bebd 9139 6ebe
00000140: 2d18 75bd c032 4abd 3433 0abe a563 67be
00000150: 380f 11be 736c dabd 70d8 adbd 9cca 2c3c
00000160: 4db4 14be de6d 3bbe 5d32 41be ae67 85be
00000170: 95f7 88be 31b4 c9bb 2382 e3bd aca0 95bd
00000180: d3cb 38be 0529 23be 2998 8ebe dfab 5dbd
00000190: cc7e 8fbd c7db 06be 4d32 e6bd 4fde 71be
000001a0: e12b 8ebe 6b81 7dbe 7514 94be f0de 7fbe
000001b0: d2ee 3cbd be78 a5bd a0f2 27be c18c b8bd
000001c0: bcaa babd 2599 94bd 1b98 0abd 42aa d5bd
000001d0: d07e 9cbc e6cf 0bbe 1510 45be ab5c 79be
000001e0: c19a 89be 541b 86bd 72d5 a2bd 4a9f aebd
000001f0: 87ba ebbd 9454 2cbe 1219 76bd 0b5f c5bd
00000200: e982 78bd 556c 92be 74e5 fabc 9076 48be
00000210: 3664 46ba 3efe 51be 03a6 4abe 9444 5ebd
00000220: e58c b4bd 43d8 5fbe fa1c a0bd ef45 31bd
00000230: ea84 5bbd 32a3 66be ff35 19be 7ae1 efbc
00000240: 2737 7ebe 9f09 91bd 526d bebd 0d7b b8bd
00000250: 9639 4ebd 3e3a cdbd 835d 07bd 5f2d 1dbe
00000260: 3dfb a4bd 13ba 64be 6721 b4bd d459 bdbd
00000270: b903 77bd fb3d 24be 9c9c 97bd 4f49 89bd
00000280: d1f3 3cbe aa50 8a3a 1862 b3bd 4618 1fbe
00000290: 3102 91be 9ab3 07be f045 a5be 119b 9fbd
000002a0: c06a 5ebe f5bc 60bd 8665 07be 4f62 25be
000002b0: f353 2ebd f1f7 d5bd 60d8 02be 2ef7 3ebd
000002c0: 9e4b 8bbc a77b 72be 0725 2abe 89eb 17be
000002d0: 8312 24be d6e5 27be c1d3 a1bd 1f3d c6bd
000002e0: d25b 1cbe 9244 38be 1c84 dabe 555a 34be
000002f0: 958c 1bbe be0a d3bd 99a2 febc 81cf 33be
00000300: e3f1 85bd 5443 ebbd 3046 febd 4050 9abe
00000310: 0057 e13b 9e36 aabd 1aa6 71be 0234 4bbe
00000320: 0d04 23be 9069 22be 3702 88be 0421 a5be
00000330: 5d5b 00be 3e14 56be d2cb 07be 3677 41be
00000340: 1838 8dbe 7b2e 42be fbcb 3fbd a97f babd
00000350: 2120 40be 7d96 00be b904 73be aea2 9bbd
00000360: 6080 f6bc 01d9 55be b913 07be 643e 2ebc
00000370: d1cb e0bd f14c ffbd fc22 18be b2e0 0dbd
00000380: 5f31 16be b9f1 f7bd 9d61 cebd 0ace 05bc
00000390: c033 e9bc fb30 05bd bdb4 20bc 324c 12be
000003a0: d16d 72bd 4e13 afbe 5cc4 6f3c 3574 92bd
000003b0: 119c 07be d43a 71be ddd3 91bc 34e5 c3bd
000003c0: 4f1e 08be 50a6 22be 3d45 07be 170d 99be
000003d0: 591b 4abe c18a 26be cbd5 df3c 3d20 99be
000003e0: 572a 173d 5984 2ebe 076c febd 8150 1cbe
000003f0: 7e5b 01be 9feb e8bd ad06 e8bd 44a9 d9bd
-0.20085308 -0.23084217 -0.14484498 -0.04622063 -0.080065 -0.23972012 -0.11224629 -0.04345795
-0.20838863 -0.109974146 -0.04974421 -0.11362034 0.071102604 -0.09724015 -0.08393154 -0.15231308
-0.067595646 -0.13142999 -0.18304977 -0.10352164 -0.023925662 -0.10722856 0.016749352 -0.2336308
-0.10477833 -0.02278689 -0.19483778 -0.051156454 -0.11416454 -0.17224646 -0.12461755 -0.05749497
-0.087280326 -0.10962272 -0.06323139 -0.05237531 -0.16628416 -0.10681018 -0.15350606 -0.124596655
-0.23999825 -0.14963073 -0.24802881 -0.13920058 0.07442167 -0.15516692 -0.073542245 -0.0691902
-0.15292294 -0.1532871 -0.16989043 -0.04103315 -0.17788063 -0.16407359 -0.09445428 -0.07883792
-0.19991344 -0.075365335 -0.10129998 -0.1206352 -0.14967147 0.045348763 -0.2031009 -0.1367013
-0.05192173 -0.10909219 0.004375376 -0.05017724 -0.030291243 -0.048976205 -0.10578818 -0.16195281
-0.30830005 -0.094728485 -0.25973383 -0.034953676 -0.22830299 -0.16586116 -0.09291627 -0.23264147
-0.05983751 -0.049364805 -0.13496095 -0.22596605 -0.14165962 -0.10665216 -0.08488548 0.010546353
-0.14521904 -0.1830363 -0.18866868 -0.26055664 -0.2675139 -0.0061555137 -0.11108806 -0.07306036
-0.18046503 -0.15933616 -0.27850464 -0.054118987 -0.070066065 -0.13169776 -0.11240063 -0.2361996
-0.27767852 -0.247564 -0.28921857 -0.24987388 -0.046126194 -0.0807967 -0.16401148 -0.09011222
-0.09114596 -0.072557725 -0.033836465 -0.10432865 -0.019103438 -0.13653526 -0.19244416 -0.24351756
-0.2687588 -0.06548181 -0.07950868 -0.08526476 -0.11510187 -0.16829139 -0.060082503 -0.09637269
-0.06067172 -0.28598276 -0.03062699 -0.19576478 -0.0007568033 -0.20507142 -0.19789891 -0.05426462
-0.08815936 -0.21859841 -0.07818027 -0.043279584 -0.053593554 -0.22523192 -0.14962004 -0.02928232
-0.24825726 -0.07081913 -0.09298195 -0.09007845 -0.050347887 -0.100208744 -0.033048164 -0.15349339
-0.080557324 -0.22336607 -0.087954335 -0.09245649 -0.060306285 -0.16039269 -0.07402918 -0.06703436
-0.18452384 0.0010552604 -0.08758944 -0.15536603 -0.28321984 -0.13252106 -0.3227992 -0.077932484
-0.2172041 -0.054867703 -0.13222322 -0.16150783 -0.04256053 -0.10447682 -0.12777853 -0.046622448
-0.01700383 -0.23679982 -0.16615687 -0.14835943 -0.16022687 -0.16396269 -0.07901717 -0.09679627
-0.15269402 -0.17994907 -0.42678916 -0.17612584 -0.15190347 -0.10304783 -0.031083392 -0.17559625
-0.06540277 -0.11487451 -0.12415731 -0.3013935 0.0068768263 -0.08311199 -0.23598519 -0.19844058
-0.15919514 -0.15860581 -0.2656419 -0.3225175 -0.12534852 -0.2090616 -0.13261345 -0.18893132
-0.2758186 -0.18963043 -0.04682539 -0.091063805 -0.18762256 -0.12557407 -0.2373227 -0.07599388
-0.03009051 -0.20883562 -0.13191117 -0.010634992 -0.10976375 -0.12465847 -0.14857095 -0.034638114
-0.14667271 -0.12106652 -0.10077212 -0.008166799 -0.02846706 -0.032517415 -0.009808716 -0.14286879
-0.05918676 -0.34194416 0.014634218 -0.07151071 -0.13243128 -0.23557597 -0.01780122 -0.095652014
-0.13292812 -0.15883756 -0.13210006 -0.298928 -0.19736995 -0.16263868 0.027323624 -0.29907408
0.036905613 -0.17042674 -0.12422948 -0.15265085 -0.12632558 -0.11373066 -0.11329398 -0.10627988

norm_in.running_mean f4 [256]
00000000: 279b fabc de1e 92bc 23dd 6abe 08ec 08bc
00000010: 92a3 513d d2ec 8ebb 4666 ffbd df3b 9abd
00000020: 36f2 8f3d 2cb6 493c 010d 0b3d 0559 ce3d
00000030: b2d7 e4bd 8da6 ec3c a823 fabd ab4b e23d
00000040: 26f4 28be 4220 f3bd e2df 17be 6485 f33c
00000050: 2790 0b3d 5c8b cabe f797 f1bc 2dc7 94bd
00000060: e60b 2abe 21f8 173c dbf0 303d 0279 8e3e
00000070: f377 7abe 1ecf 653d 1a33 403d 0ada 95bd
00000080: c142 953d b258 19bd f3b1 343e 2a7b 393e
00000090: 1c23 aebd 315b dd3c fe19 6abe 1b11 79bd
000000a0: 84dd 42be d6aa 63bd fe6b 51be bd44 383e
000000b0: 8634 4fbe cb2b 353d d192 be3d 7945 933c
000000c0: 4c8d 94bd cb9a 9b3d bd2f ebbd 8021 f13c
000000d0: ff85 94be da63 a2bd 1401 0bbe 97e4 4ebd
000000e0: 8bed 25be 0ab2 15be 433c 02bd 9709 143d
000000f0: 316b a8bd 8578 dcbd 7562 883d a617 073e
00000100: 6fe6 43bc b375 04be 7b46 983c 4ade 80be
00000110: 1b11 023e 1593 bcbd b51b a3bd 82f7 81be
00000120: 6345 17be f998 34bd 610d ddbd 3546 323d
00000130: 7263 61bc fd85 70be 8d3d cd3b b9e4 47be
00000140: e9c7 1fbe 3f47 2abd 8406 21be e028 223d
00000150: 0021 103e 4881 eb3d 7303 3b3e a293 a8bd
00000160: c738 a53d 16bb 653c d8ac 0dbe 15f1 2ebc
00000170: 9570 f53c ca16 b4bd a7c6 823b b87e 4f3d
00000180: 66bd 2dbe a14f cf3c 6a6c 20be aacd 4dbe
00000190: 880f 21be b8a4 8b3e 4212 dabd d999 82bd
000001a0: f124 5dbd f90f 5bbd 28e6 e3bd 0526 c33c
000001b0: 74da bcbb fd5f 093d c839 ff3d d933 c2bd
000001c0: 0b60 a1bd c101 75be 8bd4 2cbe 8776 af3d
000001d0: 7e63 2ebc 10e6 8ebe eab2 973d b5a6 533d
000001e0: 1546 8fbd 49b1 24be c1db 16be adc8 233d
000001f0: a54f e5bd 8418 90bd b02c da3d bfd2 4dbd
00000200: 087a 8f3a ce20 0ebe d73c 04be 700e 04be
00000210: a7ec 72bd 42a3 38be 510a 22be 9f67 15be
00000220: fd2e 88bd df5f 2ebe 6c46 973d 5205 17be
00000230: be93 8abd 38e6 03bf 5f66 033c 4784 e63d
00000240: 26e4 933b e5ee 94be cf4c e83c 4255 72bd
00000250: 5383 f43d bef5 ac3d b93e 5a3e 8790 23be
00000260: bc0b 593c 16eb 873d a39c a03d ff81 12bd
00000270: acd4 843d 134e ecbd 01d4 98bd 0de6 923e
00000280: 91ef aa3d 895d 893e c650 88bd 6862 5abd
00000290: f8d9 0a3d 824f ca3c 4795 29be 707e 9dbd
000002a0: 44c5 443d a7fd 5c3e 9ec0 68bd 850f 6ebe
000002b0: de13 5b3c 374c b0bd 614d 943d b637 16be
000002c0: 5282 08be 01fa 4a3e c9ad 82bc c612 03bd
000002d0: 258e 093c 4449 343a efc0 f33b 1d62 133d
000002e0: 368a 863d 9aa6 1e3e 168e ec3d 16b2 0dbe
000002f0: 4cf8 6fbd 95d6 7b3c 0186 cd3d e538 4fbb
00000300: f856 30be cd20 04be beb8 febd 603d 93bd
00000310: 3787 68bd 7543 d8bc 4821 eebb 7cbb a6bc
00000320: 5829 fabd 3a29 48bd 0208 553e d72b 663d
00000330: 2c9f 093e 0f6a bf3d d4c6 77bd c0e5 82bd
00000340: d1aa 73be c66a a43c 13dd fa3d da8a 9a3d
00000350: dc66 e33d 500e 443e b94b 21bd 7356 823d
00000360: 90be b1bc 57db ba3d 93e2 06be 4e60 be3c
00000370: dfe8 c43d eeec 33bd 708b 11be f33e 0cbe
00000380: 0ffb 09be 6f12 91bd 0ffc 9abc f6ae d33d
00000390: 23ae 0ebe 1bf0 afbd 86d0 df3c 387b dcbc
000003a0: 5a88 90bd e5b4 3dbd c90d abbd 943e 29bb
000003b0: 0a16 e63d c1dd cebd d2af 0a3e 38a7 043e
000003c0: 18bb 9ebd 4745 35bd f040 27bc 8941 49bd
000003d0: adc2 6bbe 9c82 773d ad14 3bbd 8adc 63bd
000003e0: a515 92be 1fb8 f83d 42fd fb3c 5aec 533e
000003f0: 23bb aebc af45 8e3d 9833 833c c7ed eb3c
-0.03059156 -0.017836984 -0.2293592 -0.0083570555 0.051181383 -0.0043617273 -0.12470679 -0.07530951
0.0702862 0.0123115 0.03394795 0.10075573 -0.11173953 0.028888011 -0.12213832 0.11049589
-0.16499385 -0.11871387 -0.14831498 0.029726692 0.03407302 -0.39559448 -0.029491408 -0.07264552
-0.16606101 0.009275467 0.043198448 0.27826697 -0.2445982 0.056105725 0.046923734 -0.07316978
0.07288123 -0.037438102 0.17646007 0.1811339 -0.0850279 0.027021023 -0.22861478 -0.06080733
-0.19029814 -0.055582844 -0.20451352 0.17994972 -0.2023488 0.044231217 0.09305347 0.017977463
-0.07253513 0.07597884 -0.11483715 0.02943492 -0.2900848 -0.079292014 -0.1357463 -0.05051097
-0.16203897 -0.14618698 -0.03179575 0.036141958 -0.0822357 -0.10765175 0.06659404 0.13192615
-0.011956795 -0.12935524 0.018588295 -0.25169593 0.12701838 -0.09207741 -0.07964269 -0.25384146
-0.14772563 -0.0440912 -0.107935674 0.043523986 -0.01375662 -0.23488612 0.006263441 -0.19520845
-0.15603603 -0.04157185 -0.15725142 0.039589763 0.14075089 0.11499268 0.18263035 -0.08231284
0.0806747 0.014021656 -0.13835466 -0.010677596 0.02996091 -0.08793409 0.0039909664 0.050657958
-0.16966781 0.025306525 -0.15666357 -0.20097986 -0.15728581 0.27274108 -0.10648014 -0.06377
-0.05399031 -0.05348203 -0.11127883 0.02382184 -0.0057633463 0.033538807 0.12462193 -0.094825454
-0.07879647 -0.2392645 -0.16877954 0.08567529 -0.010643838 -0.279099 0.07407172 0.051672656
-0.06995789 -0.16083254 -0.14732267 0.0399863 -0.111968316 -0.07035926 0.10653055 -0.05024981
0.0010946402 -0.13879701 -0.12913834 -0.12896132 -0.05930772 -0.18031028 -0.15824248 -0.1459031
-0.06649587 -0.1702876 0.07386479 -0.14748123 -0.06766461 -0.5152316 0.008020013 0.11255699
0.0045132814 -0.29088512 0.028356938 -0.05916334 0.119391106 0.08445309 0.2131299 -0.15973102
0.013247427 0.06636636 0.07842376 -0.035768505 0.064858764 -0.11538329 -0.074623115 0.2869114
0.08346475 0.26829174 -0.06656031 -0.053316504 0.033899277 0.024696115 -0.16560851 -0.07690132
0.04803969 0.21581136 -0.05682432 -0.23248108 0.013371436 -0.08608287 0.07241321 -0.1466969
-0.13330963 0.19821931 -0.015952008 -0.032000326 0.008395706 0.00068773725 0.007438771 0.03598224
0.065693304 0.15493241 0.11550538 -0.13837466 -0.058586404 0.015370985 0.10035325 -0.0031619605
-0.17220676 -0.12903138 -0.124375805 -0.07189441 -0.056769576 -0.026399354 -0.007267151 -0.020353071
-0.12214917 -0.04886744 0.20803836 0.056194153 0.13439626 0.09346401 -0.06049235 -0.063914776
-0.2379563 0.020070445 0.12249198 0.07546015 0.11103603 0.19146085 -0.039378855 0.06364145
-0.021697313 0.09123867 -0.13172369 0.023239281 0.09614729 -0.043927126 -0.14213347 -0.13695888
-0.13474678 -0.07083594 -0.018919019 0.103361055 -0.13933615 -0.08590718 0.027321111 -0.026914224
-0.07057257 -0.046315093 -0.08352239 -0.0025824653 0.11234672 -0.1010089 0.13543633 0.12954414
-0.07750529 -0.04425552 -0.010208353 -0.049134765 -0.23023482 0.060427293 -0.045674015 -0.055630244
-0.28532138 0.12144493 0.030760411 0.2069563 -0.021329468 0.06946885 0.016015813 0.028799905

norm_in.running_var f4 [256]
00000000: 965b bd3d 74e7 8c3d 34f8 1a3e 81ac a03d
00000010: 5af8 8c3d f825 9f3d eedb c03d e1cf af3d
00000020: 4b8f a23d 8d69 b23d e901 f43d 1f53 ce3d
00000030: 0502 a33d 2d52 d83d 5fd0 af3d 5f82 0a3e
00000040: 4048 b33d 1443 9b3d 7ea0 863d ba93 fd3d
00000050: 7a7b a93d 3f48 943e ec91 dc3d c45d 173e
00000060: ea21 6b3e 1733 c83d b842 db3d e425 d03d
00000070: cbdd eb3d eb72 d03d 9d49 ea3d ff4b 883d
00000080: 376e d33d 4dcc ec3d dcd0 ce3d 6ac5 963d
00000090: 63be 993d 79c3 af3d a915 903d fa4d 003e
000000a0: 03b8 493e 86cf ad3d 5c66 b93e b8f0 9b3d
000000b0: 0754 b13d c248 183e 8d25 d13d 61a9 a93d
000000c0: 5009 8c3d 9ad0 173e f057 0f3e 5fa7 be3d
000000d0: ef2a 303e c101 983d 1d2a 003e 5e2a a63d
000000e0: b6f0 f53d 1c30 883d 10f8 d33d 8217 c73d
000000f0: 466f 453e a630 bf3d f273 533d 8c71 f53d
00000100: edb2 d23d 2936 063e 0027 d73d 6a41 c83d
00000110: 9a82 e03d 5cf4 a93d 5973 b03d 6059 a53d
00000120: a7d6 973d ebaf cf3d 0839 5d3e 78d3 af3d
00000130: 1a20 823d b8e2 093e d5d9 683d 0100 2c3e
00000140: 9f6f b83d 5fc2 cb3d 87f1 203e 436a 093e
00000150: 4c78 cc3d 6216 ff3d 782e f53d a3ee f63d
00000160: b7fe 303e 521a bb3d f96c b43d 6c7b a83d
00000170: a312 c53d 9587 c83d 7d4d 153e 75cb 793d
00000180: 9556 9a3d eec4 b33d 75ec cf3d b942 173e
00000190: 60f5 833d 24ee bc3d 4231 8a3d f2bb ac3d
000001a0: 8086 853e 6a88 cc3d 4504 ca3d 6647 9d3d
000001b0: 6320 503e 7524 8e3d 5b9a 9b3d c206 a63d
000001c0: fe2d af3d baff aa3d 34c5 bb3d 0e09 bc3d
000001d0: 8c03 bb3d 49e7 b23d 3915 a23d 4544 0b3e
000001e0: 4dee f93d e445 b63d e5fd 9f3d 6d9c cf3d
000001f0: 0504 fb3d d3ae bc3d 96e9 5e3d a102 0b3e
00000200: bf21 a53d a4ec d53d fec6 a33d 8581 963d
00000210: 7793 963d 6767 d13d 8307 aa3d d288 b73d
00000220: 42bf 2c3e b106 333e f074 bd3d accb 8f3d
00000230: 6cae bd3d 8526 803e c4c4 8d3d 791d b13d
00000240: d817 bc3d 84fd a93d 93f0 c43d 1cd9 7f3d
00000250: 2a2a ae3d 142b 053e 0286 cb3d 9421 c13d
00000260: 0830 bf3d 24c2 323e e151 9f3d 85f0 823d
00000270: 7926 943d 9cb4 083e 7d14 a33d 25c0 103e
00000280: f8b7 953d 21ba e23d 2f9d c73d 7f39 863d
00000290: 6bcf d93d bf16 c93d 34c5 8e3d 22ad ab3d
000002a0: e123 da3d 0fe2 7a3d 706d 943d 07f2 093e
000002b0: 1251 663d 6e7c c23d a029 053e b9cb 7f3d
000002c0: 2453 9e3d f192 893e 7df9 513e c5ac 093e
000002d0: 302d 983d fa17 033e 58cd a83d 7f7c 8b3d
000002e0: 9250 9c3d 273d f03d 6c06 9d3d 3aa8 263e
000002f0: 52b5 aa3d 1d01 643e 4512 b83d 427f 3f3e
00000300: 86da a03d fad3 ac3d 384b dc3d 188e 303e
00000310: 380a c53d f945 b13d bf4e a13d cc51 913d
00000320: 21b2 eb3d 24c8 803d e440 223e 3f7c d93d
00000330: 2cdc 073e 1f10 743d 10a2 a63d be4d 823d
00000340: ba25 a93d 2c93 873d 6b01 b23d e022 bc3d
00000350: 4180 a23d 56b7 bc3d 36a2 453e cc5a b23d
00000360: cc67 a03d aa1d c43d 3dbb 8b3d 90ae a53d
00000370: 247f db3d 25f5 a03d 8fa2 a93d 30b0 573e
00000380: 2878 0b3e 49fb 043e eb56 df3d 8239 cb3d
00000390: f22d 793e 5331 b73d 1981 a23d 11a2 953d
000003a0: 0014 a13d cfd8 993d e68f c83d 9e7f fe3d
000003b0: 8a2a b73d ad19 8a3d f2d7 d33d 832a 993d
000003c0: aac4 493e 6b3a d83d 49cc ce3d c204 e03d
000003d0: 218a 373e ca3f bb3d 2477 e93d 33a4 6d3d
000003e0: a53b d23d 1ac0 083e 8fa9 a63d f58e b43d
000003f0: 8508 923d 2efe ab3d f6fa c13d e7ce 483e
0.09245984 0.06880084 0.15133744 0.078454025 0.06883307 0.07770914 0.09416948 0.08584572
0.07937487 0.087115385 0.11914427 0.10074448 0.079593696 0.10562549 0.085846655 0.13526295
0.08754015 0.075811535 0.0657358 0.12381692 0.082755044 0.2896137 0.1077002 0.14781862
0.22962156 0.097753696 0.10706085 0.10163477 0.11516913 0.10178169 0.11439822 0.0665512
0.10323756 0.11562405 0.100984305 0.073618725 0.075070165 0.08582205 0.07035381 0.12529746
0.19699101 0.084868476 0.36210907 0.07614273 0.08658605 0.14871505 0.1021224 0.082842596
0.06837714 0.14825669 0.13998389 0.09309267 0.17203878 0.074222095 0.12516065 0.0811355
0.120088026 0.06649801 0.103500485 0.09721281 0.19280729 0.09335451 0.051624246 0.11984548
0.10288034 0.13106598 0.105054855 0.09778102 0.1096241 0.08298561 0.08615751 0.080736876
0.074139886 0.101409756 0.21603787 0.08585256 0.06353779 0.13465393 0.056848366 0.16796876
0.09005665 0.09949183 0.15717135 0.13419442 0.09983882 0.12455441 0.11971754 0.12057235
0.17284666 0.091358796 0.088098474 0.08226666 0.09622695 0.09791485 0.1458034 0.060985047
0.075360455 0.08777796 0.101525225 0.14771546 0.06443286 0.09225109 0.067476764 0.08434285
0.26079178 0.099869564 0.098640956 0.07679634 0.20324855 0.069405474 0.075978 0.08106758
0.08553694 0.08349557 0.09168473 0.091814145 0.09131536 0.087355204 0.07914204 0.13600262
0.122036554 0.08900049 0.078120984 0.10137258 0.12256626 0.092130326 0.054421984 0.13575222
0.08063077 0.10445526 0.07996939 0.07348923 0.073523454 0.102248006 0.08302214 0.08961643
0.16869834 0.17483021 0.0925082 0.07021269 0.09261784 0.25029388 0.06922296 0.086481996
0.09184235 0.083003074 0.096161984 0.06246291 0.08504136 0.13004714 0.09937669 0.09430233
0.09335333 0.17456871 0.07779289 0.06393532 0.072339006 0.13350147 0.07962892 0.14135797
0.0731048 0.110706575 0.09746777 0.06553935 0.10635265 0.098187916 0.06971207 0.08382632
0.106513746 0.061250743 0.07247436 0.13471232 0.05622966 0.09496389 0.1300416 0.062450144
0.077307016 0.2686992 0.20505328 0.13444813 0.07430494 0.12802115 0.08242291 0.06810855
0.07632555 0.11730414 0.076672405 0.16275111 0.08335365 0.2226605 0.0898786 0.18700889
0.0785418 0.08438869 0.10756534 0.17241704 0.0962109 0.08655924 0.07876348 0.0709568
0.11508585 0.06288174 0.15845066 0.10619401 0.13267583 0.059585687 0.0813638 0.063624844
0.08259149 0.06619868 0.08691677 0.091863394 0.07934619 0.09214656 0.1930016 0.087087244
0.07832298 0.095759705 0.06822822 0.08089936 0.107176095 0.078592576 0.08282959 0.21063304
0.13620055 0.12986483 0.1090525 0.09923078 0.24333933 0.08944955 0.0793478 0.07306302
0.07865143 0.07512056 0.097930714 0.12426685 0.089436606 0.067431785 0.10343923 0.074788116
0.19703928 0.10558017 0.10097558 0.109384075 0.17923786 0.09143026 0.113996774 0.05801792
0.102652825 0.13354531 0.081378095 0.088163294 0.07130531 0.0839809 0.09471695 0.19610177

res_stack.1.conv_in.weight f4 [128, 256, 1, 1]
00000000: a30a b5bd 8341 ca3d 403c ce3c 9a68 57bc
00000010: b318 e33c 4b7c 5abd f21f 8e3c 9fd9 7c3d
00000020: 81e2 2c3c d719 3d3d 7370 05be 49a2 063c
00000030: 90da 13bd b46c 2ebd 3d5b 423d 188f 583b
00000040: ea11 fdbc f027 ec3c 7173 a8bc 17a9 1bbd
00000050: 888d 9b3c 7173 b53d fc01 25bc c99c 74bc
00000060: 250c 3fbd 4fbc f43b 7c26 d03d 7b7f 873d
00000070: 168d 703d 2024 8e3d 71ad 55bd b554 6abd
00000080: ecfa db3d 3b80 c0bd 71c6 943d 2ecf a4bd
00000090: 28e2 a53b ff11 0f3d 88e8 7cbd 50fa 7ebc
000000a0: c32e 733b 1207 08be c0a0 0fbd 2493 9dbc
000000b0: a5ad e0bd f76f 3b3d c344 e2bd feea 953d
000000c0: e140 16bd 76ea 47bd ed2b b73d 27e0 0f3d
000000d0: fb50 92bd 1085 99bc b906 2c3d 0021 1fbd
000000e0: 6a71 983d 314e 43bd 7c3c 013e 6845 dc3c
000000f0: bc72 bbbd edae 3f3d e354 ccbc 61b2 bf3d
00000100: fa94 c4bc 9c31 8c3c 3718 493d a652 d5bb
00000110: 88db bdbd d486 6bbd 1ff5 b73b de9e f8bc
00000120: 3d1a 71bd d551 b9bd 523a 07bc 3ad8 1b3d
00000130: c105 333d 5a9d f13c 8dc6 1dbc 676c bdbc
00000140: bd0f fcbc 6131 aa3c d889 50bd a8de 18bb
00000150: 7223 e3bd e49a 2c3c 73f6 81bc fc2c 2e3d
00000160: b4aa 223d 573b 1e3d 8247 18bc 6289 65bc
00000170: 52aa 68be 743b 78bd 0dd8 593d 5816 a13d
00000180: 49fa 5bbd 175b 9f3c 38f0 9a3c 108e bc3c
00000190: 5dff 503d a600 af3d 5969 a63d 0ec9 303d
000001a0: 41b0 a13c 07f8 6cbc 903c 14be 9abb 273e
000001b0: 4bc3 413c 96c2 493d b048 f3bb 0c5c 103d
000001c0: bd1b 893c fb54 bb3c ac16 07bd c6bd 9abc
000001d0: efd0 a2bd b157 d93d daf9 1f3d 8e06 21bd
000001e0: 8c2b 97bd a6b7 94bd 0e3e b3bd b7af e2bd
000001f0: bc0e 813c 39dc 413d 134a 04be c627 ab3c
00000200: 4aca 6cbd 8199 96bd abd7 03bd 13cb a03b
00000210: 5156 71bd 4bbf 66bd c82d 703d 269f fa3c
00000220: d84b c33c 2984 8e3c 5829 2f3d 5be8 e5bc
00000230: 74a0 4dbc 3c3b bebd 1fa0 7cbd 2bd3 cabd
00000240: b616 fa3d 2d2d adbc ae12 23bd 9fe2 433d
00000250: afa9 acba bc34 12bd 8f4d 9bbd ca53 453d
00000260: 0c4e 17bd 3ea1 6c3c 8a12 cebd af2b 0abd
00000270: 5bac 2e3d 2247 b6bc 3c12 fc3c 8120 503d
00000280: 5c95 103d 86f2 a73b 1d64 703d 02d5 943c
00000290: 76a3 6fbc 9b66 d3bc c493 55bd bd17 5a3d
000002a0: 3ca8 62bc b850 1c3d bb14 bbbb 350a 46bc
000002b0: d75a 63bd 3d83 dc3a 30f5 37bd 5cf2 9cbd
000002c0: bd3d 7bbd 6c22 5dbd 4834 15bc f76a 223d
000002d0: b620 3cbd db75 4b3d d002 33bd 4f4e 613d
000002e0: a8ca 2fbe 84cd a8bb 0e77 9c3c 510a 4b3d
000002f0: ee03 813d d0d8 2cbd 79a4 f4bc 4174 cf3c
00000300: 16f5 3e3d 203a c73d 0d5c 7c3c 72e5 d6bd
00000310: c6f7 363d c64e 8e3d f74a aebd 6271 acbd
00000320: 2577 b93d 6413 72bc c7df 9fbd 6de9 503e
00000330: 1251 8e3d 1035 403d 3171 ee3c 6074 cabc
00000340: 9d05 06be 62fe 0f3e 2409 973c 58bf baba
00000350: e49a ad3d 7a5c b03c 0778 85b9 9f83 893d
00000360: cd04 c2bd f074 45bd f44f b23d 393b 2cbd
00000370: de7e 42bd db0c 0cbd 6c94 8a3d 7f10 5dbc
00000380: 9b4d 20be 96f4 08bd 1584 e2bd 1184 39bd
00000390: ffc0 96bb ca80 223c 6bb5 cebc a968 f83c
000003a0: 759a 39bd eab3 003e 10e4 ddbd 384c 8f3d
000003b0: f2b4 1cbd 9b7e 863c 122e 953a 69db a43c
000003c0: a68a 8b3c 32c1 04bd ff59 893b a99a b4bd
000003d0: 30d1 5dbd cfb8 e13c bbd1 49bd 5640 31bd
000003e0: 3337 8abd 71f7 bebd 3332 a2bd 5fc2 4c3d
000003f0: d5ce 883d 23d0 0c3d 1c79 dabd 55ea bb3d
-0.088399194 0.098757766 0.025175214 -0.013147498 0.027721738 -0.05334119 0.017349217 0.061730977
0.01055205 0.04616722 -0.13031177 0.008217403 -0.03609711 -0.042584136 0.047450293 0.0033044275
-0.030892331 0.028827637 -0.02056286 -0.038003054 0.018988386 0.08859909 -0.010071274 -0.014929959
-0.04664244 0.007468737 0.1016359 0.06616112 0.0587283 0.06940484 -0.05216736 -0.05720969
0.10741219 -0.09399458 0.07264412 -0.08047329 0.0050623603 0.03492927 -0.061745197 -0.015562609
0.003710673 -0.13283947 -0.035065413 -0.019235201 -0.1097062 0.045761075 -0.110482715 0.07320212
-0.036682967 -0.048807584 0.08943925 0.035125878 -0.07144352 -0.018740207 0.0419986 -0.03884983
0.07443507 -0.04768199 0.12620729 0.026888564 -0.09152743 0.04679768 -0.02494282 0.09360195
-0.023996819 0.0171135 0.04909536 -0.0065100966 -0.09270388 -0.05750163 0.0056139375 -0.030349191
-0.058862913 -0.09048811 -0.008253651 0.038048007 0.04370666 0.029493976 -0.009629858 -0.02312298
-0.030769223 0.020775499 -0.050912708 -0.0023326073 -0.11090745 0.010534976 -0.015864586 0.04252337
0.039713576 0.03863081 -0.009294393 -0.014009805 -0.22721222 -0.060603574 0.053184558 0.0786559
-0.053705487 0.019452615 0.018913373 0.02301696 0.051024783 0.085450456 0.08125562 0.04316049
0.019737365 -0.014463431 -0.14476228 0.16380158 0.011826347 0.049257837 -0.0074244365 0.035244033
0.01673686 0.02286767 -0.032980606 -0.01888932 -0.07950007 0.10612429 0.039056636 -0.03931289
-0.07381353 -0.07261591 -0.0875207 -0.11068671 0.015754096 0.04732916 -0.12918882 0.020892989
-0.057810105 -0.07353497 -0.0321881 0.004907021 -0.05892021 -0.056334775 0.05863741 0.030593466
0.023839876 0.017397003 0.042764038 -0.028064897 -0.012550462 -0.09288642 -0.06167614 -0.09903558
0.12211363 -0.021139706 -0.039812736 0.047823545 -0.0013173128 -0.035694823 -0.075831525 0.04817561
-0.036939666 0.01444274 -0.1006213 -0.033733066 0.04264484 -0.022250716 0.030770414 0.05081225
0.03529869 0.0051253466 0.058689225 0.018167976 -0.0146263745 -0.025805762 -0.052142873 0.053245295
-0.0138340555 0.038162917 -0.0057092584 -0.0120873945 -0.055506554 0.001682378 -0.044911563 -0.07663414
-0.061338175 -0.053987905 -0.009106703 0.03965279 -0.045929633 0.049672943 -0.043703854 0.05500632
-0.17167151 -0.0051514525 0.019099738 0.049570385 0.06299578 -0.042198956 -0.029863583 0.025323989
0.04662045 0.09727883 0.015402806 -0.10492982 0.04466989 0.069486186 -0.08510392 -0.084200636
0.09055928 -0.014775131 -0.07806354 0.20401545 0.06949057 0.046925604 0.029106708 -0.024713695
-0.13088079 0.14061883 0.018436976 -0.0014247699 0.08476809 0.021528471 -0.00025457164 0.06714558
-0.09473572 -0.048207223 0.08706656 -0.042048667 -0.04748427 -0.034191947 0.067665905 -0.0134927025
-0.15654604 -0.03343638 -0.11060349 -0.045291964 -0.0046006436 0.009918401 -0.025232991 0.030323343
-0.045313317 0.12568632 -0.10834515 0.069969594 -0.0382585 0.016417792 0.0011381528 0.020124154
0.017033886 -0.032410808 0.0041916366 -0.088185616 -0.054154575 0.027553944 -0.04927228 -0.043274246
-0.0674881 -0.093245395 -0.07919731 0.049990054 0.06680075 0.034378182 -0.10667631 0.09175555

res_stack.1.conv_in.bias f4 [128]
00000000: 018e 0fbe 2641 14be 92fe 6dbe a36e bfbe
00000010: 1165 d6be bbef 79bd fa47 9ebe 8e50 02bd
00000020: 949c aebd 3940 98bd 1a95 6dbd e64a a6bd
00000030: 1e12 d4be 30fa d8bd be3b 29be 9c4a 30be
00000040: 7d65 8fbd afd9 6cbe 3687 fdbd 9c99 27be
00000050: accc ffbd 5a62 18bd c093 ecbd 713f acbd
00000060: c345 4ebc df4d 5bbc d91b 49be bc01 3bbe
00000070: 31c0 ecbd 1ea8 9fbe 58c1 96be 62ea 81be
00000080: 4ee5 85be 6e58 1f3d ce79 36be 3e88 34be
00000090: 4ef9 8fbd 9863 6fbd 2b12 80be 11e3 32bc
000000a0: 573c a7bd 9cd4 13be 5ebf e9bc 02ed 9abc
000000b0: 8558 00be dcfd 8b3c 426d 2cbe 872b e4bd
000000c0: 27ba 7e3b 2c43 0bbe 1bd8 41be 4ff9 11be
000000d0: eb15 2ebe 4542 22bd 6161 7abe 95a2 93be
000000e0: 655e 22be 5cf6 c7bd c3b7 10be 36ae 0dbe
000000f0: 2b24 87be fd7e ccbd c42e 26be 0a8b a6bd
00000100: a719 94be 886b 62be abc8 34be 9bbe d3bd
00000110: 2c91 70bc 60c3 84be a4da 00be dedc 79bd
00000120: 05d5 24be ba20 4bbe d37b 85bc aefb 68bd
00000130: 91b8 8fbe f968 93be d237 9bbd af6f 81bd
00000140: 5e42 9ebc f6d2 1abe 5963 33bd 6959 9fbe
00000150: 6a9e cebd 2853 c2bc c446 00be dd09 2cbe
00000160: 24df 70be 0758 89be 5ed7 683d a1cd 59be
00000170: fe17 f2bc df92 01bd 6e9a dabd 22e4 dcbd
00000180: a213 03be e998 22be 8610 bdbd 4d9c 37be
00000190: c374 69bd c98a 38be 3300 11be 162f 1cbe
000001a0: fe01 50bd ed61 94be 3b97 4bbe 8ee6 29be
000001b0: bdb3 04be 520e 98be bd16 20bd 33d9 50be
000001c0: d345 5abe 33ff 87bd 8caa 37be 46d4 dabd
000001d0: a582 d5bd f09f d3bd ab4e fdbd b06b 52be
000001e0: 1280 9cbd fb05 2a3d 6da9 e2bd f523 d9bd
000001f0: 471a 8bbd f457 08bd 6ad2 fabd 1ded 40be
-0.14019014 -0.14477977 -0.23241642 -0.37389097 -0.41873983 -0.06101964 -0.3091429 -0.031815104
-0.08525959 -0.074341245 -0.058003522 -0.081197545 -0.41420072 -0.105945945 -0.16526696 -0.17215961
-0.07001779 -0.23129915 -0.12379305 -0.16367191 -0.1249021 -0.03720317 -0.115516186 -0.08410538
-0.012589875 -0.013385265 -0.1963953 -0.1826238 -0.11560095 -0.3118295 -0.29444385 -0.25374132
-0.26151508 0.038902692 -0.17819902 -0.17630097 -0.07029973 -0.05844459 -0.2501386 -0.010918395
-0.08165806 -0.14436573 -0.028533634 -0.018911842 -0.12533768 0.017088823 -0.16838554 -0.11141115
0.003886828 -0.13599843 -0.18930094 -0.1425526 -0.17000549 -0.03961398 -0.2445121 -0.28834978
-0.15856321 -0.09763786 -0.141326 -0.13835987 -0.2639478 -0.099851586 -0.16228777 -0.08131988
-0.2892582 -0.22111332 -0.17654674 -0.103390895 -0.014683049 -0.2593031 -0.12583405 -0.06100165
-0.16096886 -0.19836703 -0.016294396 -0.056880645 -0.280705 -0.28791025 -0.07579006 -0.0632013
-0.019318756 -0.15119538 -0.043795917 -0.31122902 -0.10088809 -0.023721293 -0.12526995 -0.16800638
-0.23522621 -0.26824972 0.056846015 -0.21269847 -0.029552456 -0.031634208 -0.106739864 -0.107857004
-0.12800458 -0.15878643 -0.09231667 -0.17930718 -0.05699612 -0.18021692 -0.14160232 -0.15252337
-0.05078315 -0.2898096 -0.19881909 -0.16591856 -0.1295919 -0.29698426 -0.039084185 -0.20395355
-0.21315698 -0.06640472 -0.17936152 -0.10685019 -0.10425309 -0.1033324 -0.1236852 -0.20548892
-0.07641615 0.04150961 -0.11067472 -0.106025614 -0.067921214 -0.033287004 -0.122471645 -0.18840452
